checkpoints/RiffleOnlyShuffle_1rp_4l_best_model.pth (torch, 32774 bytes, 64 tensors)

embedding_layer.weight f4 [53, 4]
00000000: fe3b b43f 2821 2b3f 21c3 bb3e 61f6 fdbf
00000010: 1d45 87bd 68ba 01bf a7c4 773e 5e47 08bd
00000020: c787 84bd f70c 05bf ac6f 583e 464e 493c
00000030: c6bf 32bf e4b3 77bf 2dd4 99be 25bc efbe
00000040: 0850 623f f281 e53e fa12 9a3f ce11 7f3f
00000050: fda0 2a3e 39b0 4cbe 100b 153f 8282 a93e
00000060: 8ffb 8bbe a10f 47bf 344d 96bd ac26 85be
00000070: 89ed f8be 54b0 64bf 9eca 66be 78c5 cbbe
00000080: 09d3 8bbe e72a 27bf c7ba 25bd ecd2 57be
00000090: a98b 50bf 0522 a3bf a637 0bbf 8b32 4abf
000000a0: 1793 06bf 83d0 63bf dc6c 11be 735e dcbe
000000b0: 6af8 673d 1275 d5be e50b af3e 105c 103e
000000c0: c575 c73e 9758 07bd 889f 343f c178 ff3e
000000d0: 4e06 ebbe ddde 68bf 0bee 08be 3bd5 d2be
000000e0: fc49 3cbe a24c 32bf bdf5 923d f001 6dbe
000000f0: 1ea4 40be 2280 14bf 9193 3e3e 9aee c8bd
00000100: 6ebb ad3e d1c7 5ebe a0f3 0b3f cd73 c63e
00000110: 4e3d 723e 3de1 e7bd 8cf0 1c3f 79ac d73e
00000120: 824d 65bb a2d3 a9be 6ac3 fd3e 8077 473e
00000130: 717f 563e 278a 26be dc36 1c3f 6e10 bd3e
00000140: 8109 f2be 3fe4 66bf e60a 1dbe fb07 c8be
00000150: 76d9 aabe 236b 4cbf f658 5cbd 2905 7dbe
00000160: 8f86 16bf 1ed4 72bf 5868 06be 9453 fabe
00000170: 6368 653e d3a2 88be 66ab d83e aa3f 693e
00000180: 5d8c 2b3e 1aed 80be 8756 f33e 84fd 8c3e
00000190: 5d06 99be 517d 1dbf e73e cb3d 3ac0 45be
000001a0: 938e 1ebf 1083 86bf 90ab a4be cba3 07bf
000001b0: 112b 153f c02c 083d 6b1f 6c3f 563d 1d3f
000001c0: 52c6 10bf 6adb 79bf e5d2 b9bd 1339 bcbe
000001d0: 7635 a33e 2add e1bc b1df 383f 9cc8 e83e
000001e0: 8071 adbe 18f0 5abf af1d 22be a178 debe
000001f0: 14f6 b8be c497 4bbf e628 2cbd 8d1b 50be
00000200: 585e 713d dd61 92be cd8c 013f 38e3 5f3e
00000210: d425 f4be 37b8 58bf 0b3f 97bd ae12 b2be
00000220: 233c 48be 7ba7 48bf 9595 a3bd 039e 89be
00000230: 3094 f4ba 0132 d8be 9f95 c13e 48b8 d73d
00000240: 322f b8bc cda7 c4be 7b10 c43e 1842 cc3d
00000250: 38cc c53e fa29 afbd 0068 283f 60a9 c93e
00000260: 4734 3ebc a216 cbbe 3e52 a73e 6701 f43d
00000270: 4b61 ebbe e331 5fbf 55c4 2bbe 4c92 ccbe
00000280: 5637 be3e bc80 073d 7703 493f 83a6 143f
00000290: cbda 7dbe 8c98 1ebf 011e 0d3e aac9 f3bd
000002a0: 4e56 31bd d1e3 11bf 869f 7a3e 6d5d cdbc
000002b0: 06b8 9abe dd02 52bf 6aa5 e9bb 5de9 72be
000002c0: 1c60 34be 341d 0fbf a251 403e 027f d4bc
000002d0: bff5 283c 9787 a4be e75d c93e b5c5 3f3e
000002e0: 9cf0 c33e 673c fbbd b8f4 343f 8ac5 c23e
000002f0: e61e 3bbc 390b f8be cc07 863e 7553 143d
00000300: d3c1 b2be dc79 47bf 3a87 0bbe f7a8 aabe
00000310: 5214 32bf 0b85 88bf 310a b8be 5623 1ebf
00000320: dfb6 833b d3e2 c1be 241a d23e afc3 903d
00000330: 2e53 10bb 4c8d e2be 51f5 723e 994d b73d
00000340: af27 ffbe f4d0 54bf cc33 f5bd ecf9 c2be
1.4080808 0.6684747 0.3667231 -1.9840814 -0.06604979 -0.5067506 0.2419611 -0.033271186
-0.0647121 -0.5197291 0.2113635 0.012286728 -0.69823873 -0.96758866 -0.3004469 -0.4682323
0.8840337 0.44825703 1.2037041 0.9963654 0.16662975 -0.19989099 0.58220005 0.33107382
-0.2734036 -0.7775822 -0.07338944 -0.26006067 -0.48618725 -0.89331555 -0.2253823 -0.39799094
-0.27309445 -0.6529984 -0.040461328 -0.21076554 -0.81463104 -1.2744757 -0.5438179 -0.7898337
-0.5256819 -0.8899004 -0.14201683 -0.4304081 0.05663339 -0.4169088 0.34188762 0.14097619
0.3895704 -0.03304347 0.70555925 0.49896815 -0.45903248 -0.9096506 -0.13372056 -0.41178307
-0.18387598 -0.6964818 0.07175777 -0.2314527 -0.18812606 -0.58008015 0.1861098 -0.09811135
0.3393206 -0.21755911 0.5466862 0.38760224 0.23656198 -0.11322258 0.61304545 0.42123774
-0.0034988825 -0.33169276 0.49563152 0.1947918 0.20947053 -0.16263638 0.6102121 0.36926597
-0.47272876 -0.90192026 -0.15336189 -0.3906859 -0.33369035 -0.7985098 -0.053795777 -0.24709
-0.5879907 -0.94854915 -0.13125741 -0.4889189 0.22403102 -0.26686725 0.42318267 0.22778192
0.16752763 -0.25180894 0.47526953 0.27537167 -0.29887667 -0.6151934 0.09924107 -0.1931161
-0.619363 -1.0508747 -0.32162142 -0.52984303 0.5826884 0.033245802 0.9223544 0.61421716
-0.5655261 -0.97600424 -0.09073428 -0.36762294 0.31876725 -0.02757128 0.72216326 0.45465553
-0.33875656 -0.85522604 -0.15831636 -0.43451408 -0.36125243 -0.7952845 -0.04203119 -0.2032301
0.058927864 -0.2859029 0.5060547 0.21864021 -0.4768511 -0.8465609 -0.07385071 -0.34779876
-0.1955419 -0.78380555 -0.07987515 -0.26878366 -0.0018659886 -0.4222565 0.37809464 0.10533196
-0.022483442 -0.38409272 0.38293824 0.09973544 0.3863237 -0.08552928 0.6578369 0.39387035
-0.011609144 -0.39665705 0.32679933 0.1191433 -0.45972666 -0.87185496 -0.16774113 -0.39955366
0.37151593 0.033081755 0.7852091 0.58066577 -0.24790494 -0.6195152 0.13780977 -0.11903699
-0.043295197 -0.56988245 0.24474916 -0.025068963 -0.30218524 -0.8203562 -0.0071303146 -0.23721834
-0.17614788 -0.55903935 0.1878114 -0.025939468 0.010312497 -0.32134697 0.39329454 0.18727763
0.38269508 -0.1226738 0.7068591 0.38041335 -0.011420941 -0.48446062 0.26177824 0.036212403
-0.349135 -0.7792032 -0.13625804 -0.33332035 -0.69562256 -1.0665601 -0.35945275 -0.6177267
0.0040196027 -0.37868366 0.4103557 0.07068574 -0.0022022235 -0.44248426 0.23726393 0.089503475
-0.49834964 -0.8313134 -0.1197277 -0.380813

positional_encoding.emb.weight f4 [200, 4]
00000000: a0b9 433f fbd5 f8bf 232b e3be 008a 13bf
00000010: e933 fa3f ed01 dabf 8666 953e 7ed6 843e
00000020: c8fc 3fbf 0c17 413f f45d 5bc0 af9c 5c3f
00000030: 0022 d73f 74ec 25c0 81a7 6bbf 6bbf b63d
00000040: 7dfe 3a40 5cc1 44bf 1188 b33f c413 a03f
00000050: 2010 2840 f072 7cbf d921 973f 3e6c 763f
00000060: 15a8 21be b33f 743f fa8d 38c0 ba42 b43f
00000070: 39fc de3f 1968 e1bf 7816 9abe 5620 e03e
00000080: 5078 af3f e713 b7bf 8c5c 883d 3f02 2a3f
00000090: 102e a43f 7eb8 acbf a4bb 4ebf 6234 e13e
000000a0: 78b9 413f 6cae fb3f a917 febf a52e fb3f
000000b0: 95ab 2a40 642c 26bf e4d3 883f a553 9f3f
000000c0: 9de3 dc3f bb38 aebf bcbc bf3e c626 c93e
000000d0: 3a2f 063f 6f7b bbbf 3fc3 a23d 51c3 ed3e
000000e0: 8eb0 ed3e a110 d83f cc7c 14c0 28ae 8e3f
000000f0: b11c e43e 5292 afbf 4c22 763f 7f60 833f
00000100: 16d1 3f3f 621f a0bf aefc 56be e8cb 5f3f
00000110: cf92 be3f d964 b7bf b976 d5be 18e1 8b3f
00000120: 4f39 363c 3cb9 1340 bfdc e4bf 40df dc3f
00000130: eb0d 81be 98a1 f2bf 339e 54bf f365 98bd
00000140: 03bc 943e 6971 b1bf 1cb0 073f d919 fc3e
00000150: 9207 c13f 892f 89bf 64e6 853f 614c 8b3f
00000160: 76e6 fbbe 7281 0f40 76c8 d7bf 4b34 d63f
00000170: e2aa 853f 789a aabf f6c3 ae3d 8d45 46be
00000180: b8af e7bf 915e e4bf 2e63 d53d 77ca 593d
00000190: a3e0 a13f 486d bdbf 5430 ebbe 6b33 563f
000001a0: 0cab 17c0 0161 4f40 540c 86bf 325b 4a3f
000001b0: 8567 573f ddb2 77bf 09a5 b93f 9a1f f33e
000001c0: 0853 1ebe ea8a d1bf 0631 fd3d c96e 2abf
000001d0: 5ca0 52be fed9 ddbf b96b c53f 8b1e bf3e
000001e0: 259c 84bf dc7d 7240 093d 013f 0983 be3f
000001f0: 0fde c23e 6f6c ddbf b37b 2a3f 9d6b 6fbf
00000200: 16aa a7bf ddde e1bf 2d5e 2b3f 5e48 19bf
00000210: edef 62be 8649 fbbf af63 283f de23 64bf
00000220: 0256 10c0 b0e9 4340 5b2b 35be cd28 843e
00000230: 1bfd ab3e de45 6bbf 73e2 5e3f 17cd 6cbc
00000240: 3490 31bf 11bb 8bbf abc6 0940 a0c4 02be
00000250: 02f1 6dbd 5828 abbf 742e ff3f fa9d c7be
00000260: 2a3f 17c0 db9a 3240 b44b 86be bd25 aabe
00000270: ee41 2ebd 1c02 84bf cd2f 613f b581 00bf
00000280: 6792 5bbf 5701 dcbf 3f87 1a3c b755 e4bb
00000290: 9d30 2b3f db12 b9bf 5e1d eb3e 5e1c 06bf
000002a0: 50c9 cd3f beb6 e73f cbe8 2ec0 ccca 963f
000002b0: 651b 8ebf e551 c2bd 42d2 023f 92dc 11be
000002c0: 0d92 64bf 78ae dbbf e244 1440 088d bebf
000002d0: 5b45 b9bf 5138 27bf 2c42 b23f f961 1abf
000002e0: f163 87bf e34e 3b40 4c60 a7be ba50 393f
000002f0: 0619 e73b dc4b 03bf a0cf f93f 40d2 15bf
00000300: 3a86 afbf 7509 19bf 86b8 0f40 969b 81bf
00000310: 43af 04c0 2bff c2bf 8942 4040 f924 f2bf
00000320: c9f7 27c0 c42d 2340 a71e 62bf 9977 263e
00000330: 22fe 86be 54c2 8abf 220f 323d 50a9 47bf
00000340: 6bbf 1bc0 bce7 9abf 0d0c 2f40 e799 03c0
00000350: a9d7 5ebf d09e 0ebe 02ce 1a40 e03e 55bf
00000360: 2e2f 80bf 225d 2a40 e307 0abe f61b d43f
00000370: 004e 473e cd18 83be 819d d13f be49 a4bf
00000380: d939 033f 629c 16c0 c830 3e3f 20f5 393f
00000390: 0645 e5be ec82 d13e feea 2640 7e89 66bf
000003a0: 99ef b7bf 3206 2340 1806 5d3d d2ad 0b3f
000003b0: 8f26 b3bf 241b 0a3e d202 e33e 39b3 44bf
000003c0: fca6 e0bf 95eb 60bf dd18 ac3f d02f 2fc0
000003d0: 7144 90bf 0c11 f8be aafb ad3f 3316 0cc0
000003e0: a8b4 e5bf 0b1d 4140 2074 18bc 11f3 233f
000003f0: 36b0 92be 6226 11bf 3771 0fbd 1d08 69bf
0.76455116 -1.9440302 -0.44368848 -0.57632446 1.9547092 -1.7031838 0.29179782 0.25944895
-0.7499509 0.7542579 -3.4276094 0.8617658 1.6807251 -2.592557 -0.92052466 0.08923229
2.9217827 -0.76857543 1.4025899 1.2506032 2.6259842 -0.9861288 1.1807204 0.96258914
-0.15786774 0.954097 -2.8836656 1.4082863 1.7420722 -1.7609893 -0.30095267 0.4377467
1.3708591 -1.4302949 0.06658277 0.6640968 1.2826557 -1.3493803 -0.80755067 0.43985277
0.7567363 1.9662604 -1.985097 1.962361 2.6667225 -0.64911485 1.0689664 1.2447401
1.7256962 -1.3611063 0.3744868 0.39287394 0.5241581 -1.4647044 0.079473965 0.46438077
0.46423763 1.6880075 -2.320117 1.1146898 0.4455314 -1.3716528 0.9614608 1.0263823
0.74928415 -1.2509577 -0.20994827 0.8742051 1.4888552 -1.4327651 -0.4169214 1.0928068
0.011122062 2.3081808 -1.7879866 1.725563 -0.2520593 -1.8955564 -0.8305389 -0.0744132
0.29049692 -1.3862735 0.53003097 0.4923847 1.5080435 -1.0717632 1.0460935 1.0882684
-0.49199265 2.2422757 -1.6858051 1.6734709 1.0442774 -1.332839 0.0853347 -0.19362469
-1.81005 -1.7841359 0.10419308 0.0531716 1.2646679 -1.4798975 -0.4593531 0.8367221
-2.3698149 3.2402956 -1.0472512 0.79045403 0.84142333 -0.967573 1.450349 0.47485048
-0.15461361 -1.6370518 0.12362866 -0.66575295 -0.20568985 -1.7332151 1.5423499 0.3732799
-1.0360152 3.7889318 0.5048376 1.4883739 0.38060042 -1.7298716 0.66595 -0.9352358
-1.3098781 -1.7646137 0.66940576 -0.5987605 -0.22161837 -1.9631813 0.65777105 -0.8911723
-2.2552495 3.0611382 -0.1769232 0.2581238 0.33591542 -0.91903484 0.87064284 -0.014453194
-0.6936066 -1.0916463 2.1527507 -0.12770319 -0.05809117 -1.3371687 1.9936051 -0.38987714
-2.3632302 2.7907016 -0.26229632 -0.33231917 -0.042543344 -1.0313144 0.87963563 -0.5019792
-0.8577027 -1.7187909 0.009431659 -0.006968226 0.66871053 -1.4458879 0.45920843 -0.52387035
1.6077061 1.8102643 -2.7329586 1.1780639 -1.110211 -0.094882764 0.5110208 -0.14244297
-0.89285356 -1.7162619 2.3167043 -1.4886789 -1.4474291 -0.65320307 1.3926444 -0.60305744
-1.0577375 2.9266899 -0.32690656 0.72388804 0.0070525436 -0.5128763 1.9516487 -0.5852394
-1.3712838 -0.59780055 2.2456374 -1.0125606 -2.0731971 -1.5234121 3.004061 -1.8917533
-2.6244986 2.5496683 -0.8832802 0.1625656 -0.26365763 -1.0840554 0.043471463 -0.77992725
-2.4335582 -1.210197 2.7351105 -2.0562685 -0.8704782 -0.1392777 2.4188237 -0.83299065
-1.0014398 2.6619344 -0.13479571 1.6571033 0.19463348 -0.2560486 1.6376191 -1.2835004
0.51260144 -2.3532948 0.74293184 0.72639656 -0.44779223 0.40920198 2.6080928 -0.90053546
-1.4369994 2.5472531 0.05396089 0.54562104 -1.3996142 0.13486916 0.4433809 -0.7683597
-1.755096 -0.8785947 1.3445088 -2.7372932 -1.1270887 -0.48450506 1.3592427 -2.188855
-1.7945757 3.0173976 -0.00930503 0.64042765 -0.28650063 -0.5669919 -0.03502008 -0.91028005

encoder_layer.self_attn.in_proj_weight f4 [12, 4]
00000000: 34ee 8d3e 9e27 05bf 5653 bfbe 5755 dabe
00000010: 8e79 a83e 50ec fc3d 3415 57be ab22 1a3f
00000020: f64f f3be 2844 0c3e 008a f73d 43e0 143f
00000030: b90f fabe a485 30be 2b6d c9be f022 c5be
00000040: 57bd 0c3f e069 203d 8c08 853e 3fb0 1b3f
00000050: 0e5d 953e 821e cebe 853b 0d3f 0846 873d
00000060: e092 59be 6211 20be 09ec 063f 2a87 5dbe
00000070: 447f 1c3e 6cfb e0be b010 a53e 80d8 8c3c
00000080: a282 0ebf d243 5bbe b01c c63e c0e2 a4bd
00000090: fc99 4c3e a0f8 a73c 5410 07be 101a 8c3e
000000a0: 889e 053e 72e0 b33e 2a73 f73e 0809 c33d
000000b0: 602d 9d3e a85b 47be 7b4d 85be 562f e93e
0.27720797 -0.52013576 -0.37368268 -0.42643234 0.3290524 0.123497605 -0.21004182 0.6020915
-0.47521943 0.13697875 0.12086868 0.58154696 -0.4884012 -0.1723848 -0.393411 -0.38503218
0.5497641 0.03916347 0.25983083 0.60815805 0.29172558 -0.4025765 0.55168945 0.06605154
-0.21247435 -0.15631631 0.5270391 -0.21633592 0.15282923 -0.4394182 0.32239294 0.017193079
-0.5566808 -0.2141259 0.38693762 -0.08051062 0.19980615 0.020504296 -0.13189822 0.27363634
0.13048756 0.35132176 0.4833005 0.09523207 0.3069868 -0.19468558 -0.26035675 0.45543927

encoder_layer.self_attn.in_proj_bias f4 [12]
00000000: 0000 0000 0000 0000 0000 0000 0000 0000
00000010: 0000 0000 0000 0000 0000 0000 0000 0000
00000020: 0000 0000 0000 0000 0000 0000 0000 0000
0.0 0.0 0.0 0.0 0.0 0.0 0.0 0.0
0.0 0.0 0.0 0.0

encoder_layer.self_attn.out_proj.weight f4 [4, 4]
00000000: 2c1d b5be c8b4 fbbe 3087 f73e d057 2b3e
00000010: ea3a ffbe 0e32 c23e 9a46 c43e 8ae2 e9be
00000020: 864d ff3e 7eba dbbe 6e83 93be fe75 f73e
00000030: c064 8d3e 1c65 3e3e d8c8 533e de8a 85be
-0.3537382 -0.49161363 0.48345327 0.16732717 -0.49849635 0.37928814 0.38335115 -0.45680648
0.49863833 -0.4291572 -0.2881121 0.48332208 0.2761593 0.18593258 0.20682085 -0.2608251

encoder_layer.self_attn.out_proj.bias f4 [4]
00000000: 0000 0000 0000 0000 0000 0000 0000 0000
0.0 0.0 0.0 0.0

encoder_layer.linear1.weight f4 [16, 4]
00000000: b02a 2abe a05a 943c 207b b8bc 00d0 713a
00000010: 6c5c a33e 4093 9a3d eceb 283e dc53 1e3e
00000020: 2cfd 82be 881a 343e 80a8 a3bc 687c 7ebe
00000030: 8043 79bd d68e e03e 7081 a1bd 2478 763e
00000040: 3267 f7be c08c 06bc 006e b9ba ae1f 98be
00000050: 68e7 673e f03b 2b3e d82f 63be e88b 883d
00000060: c023 9e3d d085 d63d 26a9 d83e 5016 01bd
00000070: faa4 c9be 00ab 783e 2cbf ccbe 80f6 6f3e
00000080: 96e4 c83e 30ad abbd b817 9c3d 7e66 80be
00000090: 482a f13e e2ec ca3e f4f0 b0be 5c37 8dbe
000000a0: 1c9e 7dbe b4ed aebe 6e6e 8e3e 5e90 fdbe
000000b0: 242a 29be 5016 91bd 201b 463d 0e17 943e
000000c0: b085 54be 205e a13e 3004 d73e 2a7c e73e
000000d0: 1076 af3e 00ee b3bb 3c83 89be 4c14 493e
000000e0: a6cd 8a3e 9892 9cbd d04f 81bd c044 1f3c
000000f0: 402e 2d3e 287a ff3e 6e56 9a3e c01a 8abc
-0.16617846 0.01810962 -0.022519648 0.0009224415 0.3190645 0.07547617 0.16496247 0.15461677
-0.2558378 0.17588246 -0.019977808 -0.24852145 -0.06085539 0.43858975 -0.07886016 0.24069268
-0.4832092 -0.008212268 -0.0014147162 -0.2971167 0.22646868 0.16722083 -0.2218622 0.0666731
0.077216625 0.104747415 0.4231655 -0.03151542 -0.3938368 0.24283981 -0.39989603 0.23433876
0.39236897 -0.08382642 0.076217115 -0.25078195 0.4710257 0.39633852 -0.34558833 -0.27581298
-0.24767345 -0.34165728 0.27818626 -0.49524206 -0.16519982 -0.07084334 0.048365712 0.2892384
-0.20754123 0.31517124 0.41995382 0.45211917 0.34269762 -0.0054910183 -0.26857936 0.19636649
0.27110022 -0.07645148 -0.06314051 0.009720981 0.16912174 0.49897885 0.30144066 -0.016858459

encoder_layer.linear1.bias f4 [16]
00000000: d425 a9be 9847 f3bd f89d 0bbe f4c3 a63e
00000010: 40d7 063e d02c 843e f0af 22be 52dd 893e
00000020: 14a6 d4be 54a2 743e 009d ebbb 2c4f c53e
00000030: 0041 b1bd 004a f03c 2857 c03e b030 833d
-0.33036673 -0.1187889 -0.13634479 0.32571375 0.13168049 0.2581544 -0.15887427 0.26926666
-0.41532958 0.23890048 -0.0071903467 0.38536966 -0.08654976 0.029332161 0.37566495 0.06405771

encoder_layer.linear2.weight f4 [4, 16]
00000000: d851 1a3e e0ef 0e3e 6245 043e f472 733e
00000010: f0d2 5abe 985b 67be 38be 1e3d e81d 783e
00000020: 0cb7 7ebe f05f 9a3d 7067 e03c a616 14be
00000030: 38bc 1e3e c016 e83c c87d 083d c4ce 363e
00000040: 5858 5c3e 58ca 983d 303b 3d3d dc77 6d3e
00000050: 500b 05bd d850 993d 6c21 9ebd b2ff 3abe
00000060: 0cd5 42be 762d 47be 3c91 993d 448f 563e
00000070: 6abe 26be 32c2 22be 785d f8bd cc53 0fbe
00000080: 38a9 6fbd 6880 fcbd d0cc fc3c 98ba 503d
00000090: 5c19 cbbd 9c6e a3bd 7c71 02be a20e 743e
000000a0: be9f 30be ccdb 8e3d 4ea9 473e 4c87 db3d
000000b0: 5814 dbbd aa2e 52be 2062 71be a036 d23d
000000c0: 70c2 0d3d 902d f0bc cce6 3d3e ac40 b83d
000000d0: 8426 58be 5e5a 443e ce24 45be 16ea 3bbe
000000e0: f0af a23c d096 9c3c d043 1fbe a8ba 9dbd
000000f0: b46e 723e 1079 363d 4eed 083e 54f5 dabd
0.15070283 0.13958693 0.12917092 0.2377432 -0.21369529 -0.22593534 0.038755625 0.24230158
-0.24874514 0.0753783 0.027393073 -0.14461765 0.15501487 0.02833116 0.03332308 0.17852312
0.21518075 0.07460469 0.046199024 0.23190254 -0.03248149 0.07486123 -0.077212185 -0.18261603
-0.19026583 -0.19450936 0.074984044 0.20953089 -0.16283575 -0.15894392 -0.12127203 -0.1399681
-0.05851099 -0.12329179 0.030859381 0.0509592 -0.09916946 -0.079800814 -0.12738603 0.23833707
-0.17248437 0.06975517 0.19498178 0.10719165 -0.1069724 -0.20525613 -0.23572588 0.10264325
0.03460926 -0.0293186 0.18545073 0.0899671 -0.21108443 0.19175097 -0.19252321 -0.18351015
0.019859284 0.019114882 -0.15553212 -0.077016175 0.23675042 0.044549048 0.13371775 -0.10691324

encoder_layer.linear2.bias f4 [4]
00000000: 800a 3ebe 4461 ea3d 4005 fe3b d889 40bd
-0.18558693 0.11444333 0.0077520907 -0.047006458

encoder_layer.norm1.weight f4 [4]
00000000: 0000 803f 0000 803f 0000 803f 0000 803f
1.0 1.0 1.0 1.0

encoder_layer.norm1.bias f4 [4]
00000000: 0000 0000 0000 0000 0000 0000 0000 0000
0.0 0.0 0.0 0.0

encoder_layer.norm2.weight f4 [4]
00000000: 0000 803f 0000 803f 0000 803f 0000 803f
1.0 1.0 1.0 1.0

encoder_layer.norm2.bias f4 [4]
00000000: 0000 0000 0000 0000 0000 0000 0000 0000
0.0 0.0 0.0 0.0

encoder.layers.0.self_attn.in_proj_weight f4 [12, 4]
00000000: 4e34 0cbe 567c 1e3f c0bf 17bf 354e 123f
00000010: d71f 67be 9a27 c03e ba17 35bf 4bf9 c23f
00000020: e54f 20be ca2e 233f 0607 5fbf 4606 1040
00000030: d5a6 d73e d6f2 a6bf fabd 413f 2634 b13e
00000040: 770b aebe 6396 10bf 92c2 043f 796b 8abe
00000050: 355a 8e3f a0f2 b4bf 4a80 3c3e 3e48 8cbe
00000060: 83fe b13d 0919 273e 2e95 873f d4fd 9ebf
00000070: c7ed d73e 605d 8bbf 882a d43e 2799 7d3d
00000080: 052c d63d 8c6f f4bd 982b d1bb 380c 063e
00000090: 4d3b 8b3e 3604 743e a591 a1bd 1531 f0be
000000a0: 0332 e7be f0ec aebd 24ea 683e 9dbe 903e
000000b0: 0f5a 6fbe 0cb4 27be f3e0 be3d 298c 9e3e
-0.13691828 0.6190847 -0.5927696 0.57150584 -0.2257074 0.37530214 -0.7073933 1.5232328
-0.15655477 0.6374327 -0.8712009 2.250383 0.4211947 -1.3042858 0.75680506 0.346101
-0.33993122 -0.5647947 0.5185939 -0.2703512 1.1121279 -1.4136543 0.18408313 -0.27398866
0.086911224 0.16318144 1.0592401 -1.2421212 0.42173597 -1.0887871 0.414387 0.061913636
0.10457615 -0.119353384 -0.0063833706 0.13090599 0.2719368 0.23829731 -0.078891076 -0.46912447
-0.45155343 -0.08541286 0.22745568 0.28270426 -0.23374198 -0.16377276 0.093202494 0.3096631

encoder.layers.0.self_attn.in_proj_bias f4 [12]
00000000: abd2 80bd af9a 72bf df13 323e 3ce8 723e
00000010: 0b12 8c39 c2b6 d7bc e9b5 cc3c 38a3 be3c
00000020: 846a 81bd 6232 873e 057c 6e3d 0843 72be
-0.06290182 -0.9476728 0.17390393 0.23721403 0.00026716324 -0.026332263 0.024989085 0.023271188
-0.06319144 0.26405627 0.058223743 -0.23658383

encoder.layers.0.self_attn.out_proj.weight f4 [4, 4]
00000000: 3fa1 d43c 497d c43d a6eb 01be 8a64 a3bd
00000010: f739 0a3d 3583 7dbd 24a8 013e 7eec 793d
00000020: e725 2c3c c52c 523e de75 39be 7966 81bd
00000030: 9a99 1f3d e96e 39bd b4e9 a33c f5e6 a5bd
0.025955794 0.09594209 -0.12687549 -0.07978161 0.033746686 -0.061892707 0.12661797 0.061016552
0.0105070835 0.2052489 -0.18111369 -0.06318373 0.038964845 -0.045271788 0.0200089 -0.08100692

encoder.layers.0.self_attn.out_proj.bias f4 [4]
00000000: 4c8f 4c3b 6d7e 6ebb ad95 a23b b2dc a73b
0.0031213341 -0.0036391274 0.0049616904 0.0051227445

encoder.layers.0.linear1.weight f4 [16, 4]
00000000: 2a37 eabd 083d 903c 4f75 28be 1bc4 bebd
00000010: 4671 593e df0d 253e 9b8c 753e ca12 ad3e
00000020: 878c 193e 1eb9 b0be 84b4 abbd fc86 bfbc
00000030: d663 033e f640 583e 8f46 2ebe 045f b03e
00000040: a951 79bd 0aee a33e 3cb9 30bf 89d1 17bf
00000050: 0c7c febd 4e76 823e 6dd9 453e 70d8 d63e
00000060: 17b6 863e 3301 233e 9a77 2c3e ffed ff3d
00000070: 21a3 783e c35b 01bf 0365 52be ef61 e53d
00000080: 473c 893e ffb8 eebe d6a8 afbd af56 703d
00000090: f332 85bc 46b0 543e 23b1 45be 6995 c5be
000000a0: ef22 00be bbba 3fbe 18c9 9fbe a54b dbbe
000000b0: db1c 3e3e 1514 4a3e 9638 38be 0b93 483e
000000c0: 7e25 cd3d 7564 9d3d 67ea a83d 3d4a f83e
000000d0: aa2d 0f3e c115 bb3c 64ec 933d 4370 0b3d
000000e0: a308 963e 1e51 313e 1023 e5be fb7e 9bbd
000000f0: 2f4a ae3e 34f1 303e 408e a63d 2ed1 393e
-0.11436303 0.017607227 -0.16451 -0.09314748 0.21234617 0.16118573 0.23979418 0.33803397
0.14995013 -0.34516233 -0.0838404 -0.023379795 0.12831053 0.2111853 -0.17019103 0.3444749
-0.060868893 0.32017547 -0.69032645 -0.593041 -0.12426004 0.25480884 0.19321223 0.41962004
0.263108 0.15918426 0.168425 0.12496566 0.24280979 -0.5053064 -0.20546345 0.1120032
0.268038 -0.46625516 -0.08577125 0.058676418 -0.016259646 0.20770368 -0.19305854 -0.38590553
-0.12513326 -0.18723576 -0.3120811 -0.4283115 0.18565695 0.19734223 -0.17990336 0.19587342
0.10016917 0.07685176 0.08247834 0.4849414 0.13982263 0.022837522 0.07222822 0.034042608
0.29303464 0.173161 -0.44753313 -0.07592579 0.34040973 0.17279512 0.08132601 0.18146202

encoder.layers.0.linear1.bias f4 [16]
00000000: e43d 4cbf b9e3 97be 2052 88bf bd76 3abf
00000010: c0ab 96bf df9e 55bf 5b44 00bf d671 d1bf
00000020: dec2 bbbf e641 1dbf 76d4 39bf e65b 2abf
00000030: 698c 4fbf 2da6 03bf 3e3b 8ebf 39c5 26bf
-0.7978194 -0.29665926 -1.0650063 -0.7283743 -1.1771164 -0.83445543 -0.501043 -1.6362865
-1.4668844 -0.6142868 -0.72589815 -0.66546476 -0.81073624 -0.5142544 -1.1111829 -0.6514469

encoder.layers.0.linear2.weight f4 [4, 16]
00000000: 49f4 163e 5f39 263e 88ea 2fbe bb56 f43d
00000010: 1703 63be fdd2 2abe aa8e c33b fe3a 5bbc
00000020: 51a4 61be a595 883c b7ce b13c a83b 923d
00000030: c4f3 c83e f818 a5bd 1d11 3fbd 04fb 793e
00000040: eb8e 123e 4c22 a1bd 4b88 493d c647 b5bd
00000050: c78a 8abe 12bb 4a3e e5c8 b5bc 6670 1abf
00000060: 14cb 1bbf a3bd 64bc 185f 183d f736 453b
00000070: bf48 2ebd 0259 46be 497e 5e3b 411a 4b3e
00000080: 9deb cebd a485 313d 646b 803b 10d7 31be
00000090: 8296 cbbe 83de 10be f5a6 04bd 6a4c c83d
000000a0: 2a18 45bb 449d 113e 7c59 0abe 9f24 12be
000000b0: d3d2 f3bd 8a23 92bb ca39 1dbf a54e c93d
000000c0: 782a a7bd fe16 99bd 3072 013e 4a2e 933d
000000d0: 49fe 863e 5766 bfbd 6396 9fbe a97c 253e
000000e0: 7a36 64bd 5423 5f3d 83ab 3e3d d614 853d
000000f0: 0a36 aebd ed5c d83d c713 d73d 6297 c73d
0.14741625 0.16232823 -0.1717931 0.11930605 -0.22169147 -0.16682048 0.0059679346 -0.013380764
-0.22035338 0.016672919 0.021705015 0.07140285 0.39248478 -0.08061403 -0.04664718 0.24412161
0.14312331 -0.0786787 0.049202245 -0.0885158 -0.27059004 0.19797924 -0.02219052 -0.60327756
-0.6085675 -0.013961229 0.037200063 0.0030092576 -0.042549845 -0.19369891 0.0033949784 0.19834234
-0.101035334 0.04334034 0.003919052 -0.17367196 -0.39763266 -0.14147381 -0.032385785 0.097802
-0.0030074217 0.14220148 -0.13510698 -0.14271782 -0.11905446 -0.004459803 -0.61416304 0.098294534
-0.08162397 -0.074750885 0.12641215 0.07186563 0.2636588 -0.09345692 -0.31169423 0.16160835
-0.055716015 0.05447705 0.046550285 0.06498115 -0.08506401 0.10564599 0.10501819 0.09745671

encoder.layers.0.linear2.bias f4 [4]
00000000: 13ae 113c 9c3c bd3a e52c cb3c 0956 32bc
0.0088916 0.0014437619 0.02480168 -0.01088477

encoder.layers.0.norm1.weight f4 [4]
00000000: cc72 8b3f 1c20 0b40 8460 d43f b367 7c3f
1.0894408 2.1738348 1.6591954 0.9859573

encoder.layers.0.norm1.bias f4 [4]
00000000: 6f2e 1e3e 0435 e0be 0491 a23d 8dee 2c3e
0.154474 -0.43790448 0.07937816 0.16887875

encoder.layers.0.norm2.weight f4 [4]
00000000: 7ae1 aa3f 2be2 dd3f c281 c23f 7a01 cb3f
1.335006 1.7334646 1.5195849 1.5859826

encoder.layers.0.norm2.bias f4 [4]
00000000: e371 133e 75b5 c7be 7859 b6be 7c43 d13e
0.14398913 -0.39005628 -0.35615134 0.408718

encoder.layers.1.self_attn.in_proj_weight f4 [12, 4]
00000000: 4717 543e 9f05 7a3d 363b 1f3e 2700 ddbf
00000010: 6570 103f 24c3 2e3f 1814 89bf ebc0 8d3e
00000020: fccb 3dbf fb1e 293f 1175 0e3e 19b3 7f3f
00000030: ef24 2abf b8bc 0b3f e71d bcbf afde 103e
00000040: 5300 503c f1d0 793f 88f4 d13d c861 ecbd
00000050: 1c8d 27bd e61d 8cbe 09e2 3ebf 7e64 b33f
00000060: 7393 8d3b a3e8 853f 861d 74be 2a19 f2bd
00000070: 23f9 fbbe d8b4 363d 9b5f 873f f205 29bf
00000080: def6 50be 186f 14be 982d 08be 3e06 1ebe
00000090: d888 b53e 4cb8 553c 7967 0abe 97f9 4abe
000000a0: 1e6a a7bd e09d 443e cb84 ef3e e1f6 b03e
000000b0: e75d f6be cd7f 57bc 4f59 193e ee11 c73e
0.20712005 0.061040517 0.15549931 -1.7265671 0.564215 0.6826651 -1.0709257 0.27686247
-0.7413938 0.660629 0.13911845 0.99882656 -0.66462606 0.54584837 -1.4696625 0.14147447
0.01269539 0.97584444 0.10251719 -0.11542088 -0.040906057 -0.2736656 -0.7456365 1.4015043
0.004320556 1.046162 -0.23839387 -0.11821206 -0.49213514 0.04460606 1.0576051 -0.66024697
-0.20406672 -0.14495504 -0.13298643 -0.15432069 0.35455966 0.013044428 -0.13516034 -0.19821773
-0.08174537 0.1920085 0.46781 0.34563354 -0.48118517 -0.013153029 0.14975475 0.38880867

encoder.layers.1.self_attn.in_proj_bias f4 [12]
00000000: 7c51 a13e b0ac 07bc 5c8e 49be 5387 c4bd
00000010: d8e2 c33a 6e2d 873b 57ee 51bb ff46 e63a
00000020: 4d80 afbd b1a5 edbe 2e27 c9bc 1221 ae3d
0.3150748 -0.008280918 -0.19683212 -0.095961235 0.0014944924 0.0041252887 -0.003203293 0.0017568766
-0.08569393 -0.46415475 -0.024554815 0.085024014

encoder.layers.1.self_attn.out_proj.weight f4 [4, 4]
00000000: 9185 fb3c b170 423c 8ae8 133d db22 ae3d
00000010: 4237 ad3c 2785 ebbd 3157 cc3d 0e9e 31bc
00000020: 215f ce3c 6f96 0fbe be55 15bd e50e 5a3b
00000030: 5eac 083d 5892 1a3e a734 443c 415f 55bd
0.030703338 0.011867688 0.03611044 0.08502742 0.021144513 -0.11500006 0.09977568 -0.010840906
0.025191845 -0.1402223 -0.036458723 0.0033273038 0.033367507 0.15094888 0.011975444 -0.052092794

encoder.layers.1.self_attn.out_proj.bias f4 [4]
00000000: 93b1 513c 560e 0cbd d262 8fbd 4b0d 0d3d
0.012798685 -0.03419336 -0.0700127 0.034436505

encoder.layers.1.linear1.weight f4 [16, 4]
00000000: 3c74 7d3d 0b28 a43d 13ff 68be ebbb 93be
00000010: a720 643e 0732 1f3e 13f9 353e e2e7 7e3e
00000020: 1d86 2c3e 8c27 0b3f df6a c7bd 5e9d d2be
00000030: 96a0 ad3e 14a5 4b3e 214d 273d fbc9 ab3d
00000040: 60f0 8b3d 1c33 88bd 72ce 99be b225 4ebe
00000050: 0e60 313f 7083 c33e cbf2 02be 80a7 1fbe
00000060: 67ff 103f 8b11 893e 860b 473e 65aa 063e
00000070: 985f b5bd edbd e1bd 5ce6 78be 5cf3 90be
00000080: 7e26 b33e 7443 0f3f 5c26 e9be a98b f2be
00000090: cb1b 3b3f 655c 6a3f 6648 d4be 0c9b 0bbf
000000a0: 6a02 fabc abf2 193e 2810 adbe 0b77 0cbf
000000b0: 1b95 a5be 7a46 6e3e b2d0 16be 441d 803e
000000c0: 73a5 db3d 0604 b83e 817b 783e d74f 223f
000000d0: 88bd ed3e 5b1e 573f 2159 3cbe 9208 bcbe
000000e0: f96c f53d 2b7e 3d3e 8274 1ebe 3497 593e
000000f0: b3c4 3d3f 593a 8a3e dc88 473e d5b2 273d
0.061878428 0.0801545 -0.22753553 -0.28854308 0.22278081 0.15546428 0.17770796 0.24893144
0.16848035 0.5435722 -0.09737181 -0.41135687 0.3391158 0.19887191 0.04084504 0.08388134
0.06832957 -0.06650373 -0.30040318 -0.20131567 0.6928719 0.38186216 -0.1278793 -0.1559124
0.56639713 0.26771197 0.1943799 0.13150938 -0.08856124 -0.110225536 -0.24306625 -0.28310668
0.34990305 0.559623 -0.45537078 -0.47372177 0.73089284 0.9154723 -0.41461486 -0.5453346
-0.03051873 0.15033977 -0.3380139 -0.54869145 -0.3234032 0.23269072 -0.14728048 0.25022328
0.10724916 0.3594057 0.24265863 0.63403076 0.46433663 0.84030694 -0.18393375 -0.3672529
0.119836755 0.1850516 -0.15474132 0.21249086 0.74128264 0.2699764 0.19485801 0.040942032

encoder.layers.1.linear1.bias f4 [16]
00000000: 0b53 6cbf 81d1 74be fd27 98bf 4ad6 02bf
00000010: 25f9 84bf ee0d 71bf ed1f 0dbf 0f6f 2abf
00000020: cc94 8abf a894 8dbf b5fc 52bf c763 84bf
00000030: 7fbf 4fbf e72d 65bf 21cd 68bf f418 80bf
-0.92314214 -0.23908044 -1.1887203 -0.5110823 -1.0388533 -0.9416188 -0.5512684 -0.6657571
-1.0826659 -1.1060991 -0.8241685 -1.034295 -0.81151575 -0.89523166 -0.90938 -1.0007615

encoder.layers.1.linear2.weight f4 [4, 16]
00000000: 837e ea3d e818 c53c 1d5e 92bd 7fbb 483e
00000010: c40c b53d 0f75 863c 9e8b f3bc 9d40 143e
00000020: 7500 cebd c7f0 f0bd 110d 903d d123 4bbd
00000030: 7f1d 053d 0b5e aebe 0fed 023d c8c4 1c3e
00000040: 2ff3 143e 8ead d4bc e18a b9be 8088 f63d
00000050: b594 09be 545c f93d 9d03 73be 7967 31be
00000060: 513b 52be dafa a9be b607 0abc e56c d5bc
00000070: 130e 7d3e 5430 07be 1623 f4bc 63c5 fd3d
00000080: ac88 b53d fdaf 2cbc 6fcb 91bd f14d 0fbe
00000090: 32e7 4fbe 2a03 68bf c502 93bb e924 c93b
000000a0: ac28 3ebe d2ef c73e 4d59 a63d 8d9e 19be
000000b0: c54b 67bf a746 893e 9993 34be 7ad2 03be
000000c0: 18ae bebe cc6e 923d 7f18 e33e 06bb 333e
000000d0: 4c07 6ebe 2194 093e e284 00be 0c5d 2a3d
000000e0: 815a 8a3e 2a0e 633e 3e74 f5bd 1738 1dbe
000000f0: 3ff9 e53d 186b 633e 7236 c63d dd1d 48be
0.114499114 0.024059728 -0.07146857 0.19602774 0.088403255 0.01641324 -0.02972966 0.14477773
-0.10058681 -0.11764675 0.07033742 -0.049594704 0.032498833 -0.34056124 0.031964358 0.15309441
0.14545892 -0.025961664 -0.3623877 0.12037754 -0.13435633 0.12175813 -0.23731847 -0.17324628
-0.2053044 -0.33199197 -0.00842469 -0.026052902 0.247124 -0.1320203 -0.029801887 0.12391164
0.08863959 -0.010540006 -0.0711888 -0.13994576 -0.20303038 -0.9062983 -0.004486414 0.0061384332
-0.18570203 0.39050156 0.081225015 -0.15001889 -0.9034999 0.26811716 -0.17634429 -0.12873259
-0.37242198 0.07150039 0.44354627 0.17551813 -0.23244971 0.13435413 -0.12550691 0.041592643
0.27022174 0.22173372 -0.11985062 -0.15353428 0.112291805 0.22208822 0.09678353 -0.19542642

encoder.layers.1.linear2.bias f4 [4]
00000000: 7dd5 32bc fb17 383c 761b b03b 5ee1 cdbc
-0.010915157 0.011236186 0.0053743673 -0.025131878

encoder.layers.1.norm1.weight f4 [4]
00000000: a77f ae3f 76e2 cd3f c0ab d33f fab8 c33f
1.3632706 1.6084735 1.6536789 1.5290825

encoder.layers.1.norm1.bias f4 [4]
00000000: e2c2 99be f433 5ebf c2c8 aebe 607d e33e
-0.30031496 -0.86798024 -0.3413754 0.4443159

encoder.layers.1.norm2.weight f4 [4]
00000000: 78e3 bb3f 52a7 2440 5c0e ef3f e262 a43f
1.4678793 2.5727124 1.8676257 1.2842677

encoder.layers.1.norm2.bias f4 [4]
00000000: a818 09be 6f86 02be d094 9abe 8c01 dcbd
-0.13388312 -0.12746595 -0.3019166 -0.107424825

encoder.layers.2.self_attn.in_proj_weight f4 [12, 4]
00000000: dfb2 173f c134 4dbf 90a3 74bf 1e39 e73d
00000010: 7b25 55bf 4f58 983f a360 b7bf 7ee4 213f
00000020: 92d8 8d3e 360a 913f 2a0a 4cbe 3066 00bd
00000030: 45a8 0ac0 7e89 d93e 5875 99bf b552 55be
00000040: ff75 8b3f 23a7 92bd 2396 443f 89a8 22bf
00000050: 18e4 323f b9c8 f43e f853 a43f d3a7 c3bf
00000060: a161 113e d7f4 bb3e 9812 9cbe cce1 febd
00000070: 1446 cb3e d535 9f3e c4c1 813f c0c0 e1bf
00000080: 0cc6 1ec0 d177 6dbe 2e4b 593f 8ffe 87bc
00000090: 58de 1940 7a5d 2f3e b7c3 4cbf 0477 a3bf
000000a0: 93ed 493f 7937 9c3e 3a83 4c3f c517 993d
000000b0: 2148 2240 eacf 513e 8f4f 46bf f6e1 90bf
0.5925731 -0.8015862 -0.95562077 0.11290191 -0.83260316 1.190195 -1.4326366 0.63239276
0.27704293 1.1331241 -0.19925752 -0.031347454 -2.1665204 0.4248771 -1.1988935 -0.20832331
1.0895385 -0.07160785 0.7679159 -0.63538414 0.69879293 0.4780939 1.2838125 -1.5285591
0.14197399 0.36710235 -0.30482936 -0.12445411 0.39701903 0.31095758 1.0137258 -1.7636948
-2.4808378 -0.23190238 0.8488034 -0.016600875 2.4041958 0.17125502 -0.7998614 -1.2770696
0.78878134 0.30511072 0.79887736 0.07475237 2.5356524 0.20489469 -0.77465147 -1.1318958

encoder.layers.2.self_attn.in_proj_bias f4 [12]
00000000: 786f 3a3f c640 babe 7a9c 08bf ed77 61be
00000010: 5db3 9f3b dde8 a73d 95e4 fb3c 0c06 9ebd
00000020: d832 bb3d f727 9ebe e139 a5bc e67f b5bc
0.7282634 -0.36377543 -0.53363764 -0.22018404 0.0048736767 0.08198712 0.030748645 -0.07715997
0.09140557 -0.30889866 -0.0201692 -0.022155713

encoder.layers.2.self_attn.out_proj.weight f4 [4, 4]
00000000: a09e 02be 8c09 afbf c548 d53e 8d63 8bbf
00000010: 9045 8b3f 3a52 01bf 5ec5 173d d0d1 75bf
00000020: 9c56 99be d96f 7f3f 821f 5ebe 7ae9 293f
00000030: e869 bdbe df48 113f 76b6 a6bd 36ad 493f
-0.12755823 -1.3674788 0.4165708 -1.0889755 1.0880604 -0.5051609 0.03705346 -0.96023273
-0.2994889 0.9978004 -0.21691707 0.6637188 -0.36994863 0.5675182 -0.081402704 0.78779924

encoder.layers.2.self_attn.out_proj.bias f4 [4]
00000000: 3f6e 1abf 50b6 78bf 3b09 423f 197c 3d3f
-0.6032447 -0.97153187 0.75795335 0.74017483

encoder.layers.2.linear1.weight f4 [16, 4]
00000000: c1c4 cfbd 14c2 913e 984f f13e 0d9b 99bf
00000010: 256a 663e 59d8 f43d 7c71 1b3e 4e07 9a3e
00000020: 9765 3b3e 0653 8d3e cfae 3abe 7980 9fbe
00000030: 8c74 d53e f549 343f 863d 643b 570f 9dbe
00000040: fa15 793e f78e 0e3f afbc cb3e 4179 2bbf
00000050: ea6e 063f 3ef0 573e c866 7f3d 4f23 3ebf
00000060: 5ae9 093f b89d b23e 0729 ad3e ad0c 77bd
00000070: 8690 253e cc2d a63d a83e 643c e5ca babe
00000080: 94a9 933e 2ce9 1a3e e91c 283d ab32 05be
00000090: 3f58 a63e 0d40 6f3f 9a7c afbd 9398 73bf
000000a0: f5d7 d43e dac2 313f 53db d33d 5d03 a0bf
000000b0: 9715 d83e 2091 103e 8979 5b3e c0a7 38be
000000c0: c79e f53e 1ccf 8f3e 4984 04be a032 e83e
000000d0: 04e2 ee3e 5301 843e a89e 573d 7065 1bbe
000000e0: 3711 f23e a301 033e 151a 8d3e f50a bcbd
000000f0: e1c0 223f 6da9 2a3f 2f85 1c3f 3c3f a0be
-0.1014495 0.28468382 0.47131038 -1.2000443 0.22501428 0.119553275 0.1518001 0.30083698
0.18300472 0.27602404 -0.18230747 -0.31152704 0.4169048 0.7042535 0.003482671 -0.30675766
0.2432479 0.556869 0.39792392 -0.66981894 0.5251299 0.21087739 0.06235388 -0.74272627
0.5387169 0.34885955 0.33820364 -0.060314823 0.16168413 0.08114204 0.013930954 -0.3648292
0.28840315 0.1512801 0.041043196 -0.1300761 0.324892 0.9345711 -0.08568688 -0.95154685
0.41571012 0.69437945 0.10344567 -1.2501026 0.42203972 0.14117861 0.2143308 -0.18032742
0.479727 0.280877 -0.12941088 0.45351124 0.4665681 0.2578226 0.05264154 -0.15175414
0.4727876 0.12793593 0.27558962 -0.091817774 0.6357556 0.66664773 0.6114072 -0.31298244

encoder.layers.2.linear1.bias f4 [16]
00000000: 22fc 75bf 5742 89be e0f3 66bf 211f c2be
00000010: 5c1c 62bf a50b fcbe 9635 52bf e342 1dbf
00000020: 0a04 23bf 3d90 40be fa42 71bf 431e 73bf
00000030: 438a 8dbf 3132 71bf 9b89 46bf 24ad 55bf
-0.9608785 -0.26808426 -0.90215874 -0.37914374 -0.8832452 -0.49227634 -0.82113016 -0.61430186
-0.6367804 -0.18805023 -0.94242823 -0.9496805 -1.1057819 -0.9421721 -0.7755372 -0.83467317

encoder.layers.2.linear2.weight f4 [4, 16]
00000000: befa ae3e 10d1 e83c 2daf bb3d f320 df3e
00000010: 6fdf f0be 3498 70be 0441 ecbd 02af adbd
00000020: 4807 70be b405 543e 1606 1ebf 4551 64be
00000030: 9e3d f8bc 218e 10bd ef09 5fbe e397 3fbf
00000040: f52f ba3e 1865 febc 3c2f 363e f827 2a3e
00000050: c00f 0fbf fe1e 093e 1aa2 c8be 1023 96bb
00000060: f535 0dbe fdc0 8abd a629 6b3c d327 c33d
00000070: f946 4d3e 52f6 ba3d 99c7 38be a327 83be
00000080: 7bd8 7f3f 21ba 8dbc 6e58 debd 11ab 59bd
00000090: c8df 103e 868a a3be d0bb 1a3e bf98 403e
000000a0: 1a28 e4bd 82e9 4bbe 30e6 f23e adb7 96bd
000000b0: a4b5 3fbf 6237 2cbd 2129 1bbd 25ec 9e3e
000000c0: 972b a0bf 8bac 813d ee36 a23e 063f 64bb
000000d0: 3ba0 9dbe 88e1 a13d ae5d bcbd d9b7 e7bd
000000e0: 18e0 d0bd af26 33be 060d 0a3f 0688 0c3e
000000f0: 06df 893e f5bf 5abd 262e 813d 924c ee3c
0.34175676 0.028420001 0.091642715 0.43579826 -0.47045466 -0.23495561 -0.11535838 -0.08480646
-0.23440278 0.207053 -0.61728036 -0.22296627 -0.030302819 -0.035291795 -0.21781133 -0.74841136
0.36364713 -0.031054065 0.17791456 0.1661681 -0.5588341 0.13390729 -0.39186174 -0.0045818165
-0.13790114 -0.06775091 0.0143531915 0.0952908 0.20046605 0.09129013 -0.1804489 -0.25616178
0.999397 -0.017300667 -0.108567104 -0.053141657 0.14147866 -0.31941622 0.15110707 0.18808268
-0.11140461 -0.19913295 0.47441244 -0.07359252 -0.74886537 -0.042045005 -0.03788102 0.3103954
-1.2513303 0.06331738 0.31682533 -0.0034827604 -0.3078631 0.07904345 -0.091975555 -0.11314363
-0.101989925 -0.17495225 0.5392612 0.13723764 0.26927966 -0.05340572 0.0630763 0.029089246

encoder.layers.2.linear2.bias f4 [4]
00000000: 37f3 04bd 2250 a43d 4c02 783d f9bd 05bd
-0.03245851 0.080230966 0.060549065 -0.032651875

encoder.layers.2.norm1.weight f4 [4]
00000000: bfaf c53f 4e92 1340 9627 9a3f 409a 153f
1.5444258 2.3058047 1.2043331 0.5843849

encoder.layers.2.norm1.bias f4 [4]
00000000: ca6c febd 3a40 c5bf cfbb 9f3e 47e6 c23e
-0.124230936 -1.5410225 0.31197974 0.38066313

encoder.layers.2.norm2.weight f4 [4]
00000000: 4446 9b3f 9579 b53f 7070 cb3f 6659 e53f
1.2130818 1.4177729 1.5893688 1.7917907

encoder.layers.2.norm2.bias f4 [4]
00000000: 053a 36be a1af 1ebf 3bae 93bd 97e3 503f
-0.1779557 -0.6198674 -0.07210966 0.81597275

encoder.layers.3.self_attn.in_proj_weight f4 [12, 4]
00000000: 1245 aebe 7ea3 d03f ef03 32bf 1796 a8bf
00000010: 2f57 083f d3ce 6a3f 7e79 c6be af92 4dbe
00000020: 86b4 ad3e fa6a 1dbe 3ac1 bebe a68a 9c3f
00000030: 5e9b 833f 7040 8fbd 3bb6 91bf d958 7fbe
00000040: 52bf 263f 6499 22be 0480 4d3f f1e0 923c
00000050: f63c 833d 618b 0dbe ed4d 673e 6f77 a43f
00000060: 2985 1dbe c2c1 debe 55d8 603f 82c2 843e
00000070: 3ff7 f9be 874c c23e 0361 2a3f 963c 863c
00000080: ffd4 f83e c2ee 78bd d187 e6be f6a4 cbbe
00000090: 3776 5c3f 6b87 3d3e 37c0 7dbf 4442 7bbe
000000a0: 2f8c 90bf 416e cb3d 9f38 b23f 252e 01bf
000000b0: 36d0 bc3f e53a f3bd bebe 35bf f528 d43e
-0.3403707 1.6299894 -0.6953725 -1.3170804 0.5325803 0.9172184 -0.38764566 -0.20075487
0.3392679 -0.1537284 -0.37256795 1.2229812 1.0281789 -0.06994712 -1.1383737 -0.24936236
0.6513568 -0.15878826 0.8027346 0.017929526 0.06408112 -0.138227 0.2258832 1.2848948
-0.15382828 -0.435072 0.87830096 0.25929648 -0.48821446 0.3794901 0.6655428 0.016386312
0.48600003 -0.060774572 -0.45025495 -0.39774293 0.8611788 0.18508689 -0.9912142 -0.24536997
-1.1292781 0.09933139 1.3923529 -0.50461036 1.4751041 -0.118764676 -0.70994174 0.41437498

encoder.layers.3.self_attn.in_proj_bias f4 [12]
00000000: 5ad0 1dbf 6f35 f7be a263 ef3e f18a e7be
00000010: c82b e0bb ad04 d83b 02ac 8a3a f524 433c
00000020: 40a0 753e e320 ab3d 89c6 d93d e95e c2be
-0.61646044 -0.48282954 0.467557 -0.4522319 -0.0068411566 0.0065923543 0.0010579827 0.011910667
0.23986912 0.08355882 0.10633571 -0.37963036

encoder.layers.3.self_attn.out_proj.weight f4 [4, 4]
00000000: 23ac bfbe 539b 1bbe e502 493e 1a02 cdbd
00000010: 2933 07be 1036 a3bf 2fc4 8fbf bc2e c1bf
00000020: f8a5 6dbd da36 1a3d 722f 85be ded6 693d
00000030: 93b9 bb3e 19cf 603e 6516 a13e cda7 8c3e
-0.37436017 -0.1519597 0.1963001 -0.100101665 -0.1320311 -1.2750874 -1.1231745 -1.5092387
-0.05801961 0.037649967 -0.2601276 0.05708968 0.3666502 0.21954001 0.31462398 0.27471772

encoder.layers.3.self_attn.out_proj.bias f4 [4]
00000000: f9e5 aebc ced6 16bf 4c34 133d 9a9a 3abe
-0.021349894 -0.58921516 0.035938546 -0.18223038

encoder.layers.3.linear1.weight f4 [16, 4]
00000000: 0c12 1ebe 9c6a 643f 177c 743f 4f99 ecbe
00000010: 510f 6a3e d198 393e 13f3 673e 4864 813d
00000020: faa0 d6be db0b 1e3f be82 5dbe 7cfd d6bd
00000030: 10d3 ffbe 6d1e 1c3f 8ec8 413f 3a6f 01bf
00000040: 788d 69be 7a03 44bd 0d9c fabc 6b9e d0be
00000050: 2c7d 123f c3ff 4c3f dade bfbe 644c 0fbf
00000060: 4f5f 683e 0f57 1e3e ca42 953e 6011 5c3d
00000070: ef15 c23f 0162 793b aa27 72bf a5d0 e4be
00000080: 58f2 1e3d 8d17 c5bd d7df 283f 8e2c 6bbf
00000090: 2898 813f 80fe ee3e 3999 03bf 9d41 38be
000000a0: 2818 5cbf 40e3 2abf 2cfd 2c3f 12db 51bf
000000b0: fd8f 18bd bac8 9c3e bc88 db3e aaec 22bf
000000c0: 4765 e73d 9ec8 963f e50b 983e 74a1 073d
000000d0: adc2 633e 159e b73d 0eae c03d 17ae efbd
000000e0: 3162 e6bd f921 1c3e 246e 2a3f 0b7d e1be
000000f0: 18a6 bb3e abc0 3e3f 7965 4c3e 83b4 853c
-0.15436572 0.89225173 0.95501846 -0.46210715 0.22857405 0.18124701 0.22651319 0.06317955
-0.4191969 0.6173684 -0.21631905 -0.10497567 -0.49965715 0.60983926 0.7569665 -0.50560343
-0.22807872 -0.047854878 -0.030591989 -0.40745863 0.5722225 0.8007776 -0.3747471 -0.5597594
0.22692607 0.15462898 0.2915252 0.053727508 1.5162944 0.00380528 -0.9459177 -0.44690433
0.038805336 -0.096236326 0.6596655 -0.9186486 1.0124559 0.46678543 -0.51405674 -0.1799378
-0.8597436 -0.66753006 0.6757381 -0.819749 -0.037246693 0.30621892 0.42877758 -0.6364237
0.11298614 1.1779974 0.29696575 0.033112958 0.22242232 0.08965699 0.09408198 -0.11703127
-0.11249197 0.15247335 0.6657431 -0.44040713 0.36650157 0.7451274 0.19960584 0.016321426

encoder.layers.3.linear1.bias f4 [16]
00000000: 3eb9 12bf 1fa4 59be fdb7 46bf 8e92 cfbe
00000010: 804d 38bf 58b0 5dbe e526 91be bcf7 543c
00000020: 87bb f6be f91a 21bd 92ef 95bc acbc 04be
00000030: 5da3 84bf cbe9 1fbf 6fa7 99be b25b 62be
-0.5731391 -0.21254013 -0.77624494 -0.405415 -0.71993256 -0.21649301 -0.28349987 0.012998518
-0.48189947 -0.039332364 -0.018302713 -0.12962598 -1.0362355 -0.62466115 -0.30010554 -0.22105291

encoder.layers.3.linear2.weight f4 [4, 16]
00000000: ccf1 763e 1888 3f3d d048 a73d ff3f f1be
00000010: 75e7 57be e240 543e 454f a1bd cdea 8b3e
00000020: 64d3 22bf eff7 a03e b194 01bf 5b87 0abf
00000030: 2e25 9a3e 1877 b2bd 6782 38be 5964 933e
00000040: abf2 43bf 4479 1fbc 20a8 6bbc cc99 7cbe
00000050: 0251 9fbd 543d 84be 7cb2 11be 130c c93e
00000060: bb27 07be 2615 ac3a caba 8ebe 5e09 023e
00000070: ee5e 0a3c 9fa6 2a3c 6ac7 23be 3139 2ebe
00000080: dc2e 4d3f 603f dabc 0116 84be 0f36 e33e
00000090: aff3 9bbd 014c adbe da96 8ebd 1417 00bf
000000a0: 7127 1f3f f752 cfbe b82f 3a3f 2660 d23e
000000b0: f03a efbe 9d48 3cbe 54cd 153e cb23 2bbe
000000c0: 929b f0bd e940 6c3d 3f3a 383d 1bbe 073e
000000d0: 240b d1be c6f9 e53c 12c9 79bd 58f1 67be
000000e0: aca3 0d3f b35a 00bd afb6 46be b1a1 bf3d
000000f0: e7d0 4d3f 52fb 653d 6819 7fbd c28d 133d
0.24115676 0.04676065 0.08168185 -0.47119138 -0.21084388 0.20727876 -0.078764476 0.27327576
-0.63603806 0.31439158 -0.5061751 -0.54112786 0.3010649 -0.087141216 -0.18018495 0.28787497
-0.76542157 -0.009733502 -0.014383346 -0.24668044 -0.07779123 -0.2582804 -0.14228243 0.39267024
-0.1319875 0.0013128861 -0.27876884 0.12698886 0.008445485 0.010415702 -0.15994039 -0.17014004
0.80149627 -0.026641548 -0.25798038 0.4437718 -0.07614838 -0.3384705 -0.069623664 -0.50035214
0.6216956 -0.40492985 0.72729063 0.4108898 -0.46724653 -0.18387075 0.14629108 -0.16712873
-0.11748423 0.05767909 0.044977423 0.13256113 -0.40828812 0.028073203 -0.06098277 -0.22650659
0.5532787 -0.031336498 -0.19405626 0.09357012 0.80396885 0.05614788 -0.06228009 0.036023863

encoder.layers.3.linear2.bias f4 [4]
00000000: 85da 843c f209 4c3c 9ada 53bc d3d3 363d
0.01621748 0.012453543 -0.012930537 0.044635605

encoder.layers.3.norm1.weight f4 [4]
00000000: 799a 9a3f 6837 bd3f c178 e53e 2915 5340
1.2078391 1.4782534 0.4481869 3.2981665

encoder.layers.3.norm1.bias f4 [4]
00000000: c815 19be c4fe 36bf 9dd4 c0be 1b6b fd3f
-0.14949715 -0.7148249 -0.3766221 1.9798311

encoder.layers.3.norm2.weight f4 [4]
00000000: 8308 aa3f 3192 8e3f 7638 e13f 2b9c ba3e
1.3283848 1.1138364 1.7595356 0.36447272

encoder.layers.3.norm2.bias f4 [4]
00000000: acdc f2bd ca55 1dbd d3d0 873e f759 14bf
-0.11858496 -0.038411893 0.26526508 -0.57949775

output_layer.weight f4 [2, 4]
00000000: aff2 2dbf ea6e 5abe ea75 4b3f 5d06 acbe
00000010: 0e20 183f 87ad 3c3f a68e 99bf 8553 d4be
-0.6794843 -0.21331373 0.794768 -0.33598605 0.5942391 0.7370228 -1.1996658 -0.4146997

output_layer.bias f4 [2]
00000000: 404b 0e3f 7e47 b6be
0.5558357 -0.3560142
