checkpoints/RiffleOnlyShuffle_2rp_1l_best_model.pth (torch, 16642 bytes, 28 tensors)

embedding_layer.weight f4 [53, 4]
0.5321564 0.81063396 -4.661599 1.1544267 -0.3801741 0.21354258 0.20404801 0.007495022
-0.3611184 -0.075232714 0.06974145 -0.14521681 -0.3820098 -0.13471861 0.028348703 -0.16793306
-0.58272636 -0.16690023 -0.18108496 -0.3230824 -0.38425934 0.09517873 0.058621824 -0.07646224
-0.87703985 -0.620258 -0.43807563 -0.47517484 -0.9332557 -0.79141647 -0.4079574 -0.5100556
-0.37326205 0.120815225 0.14761174 -0.062121067 -0.4453963 0.0343475 0.0582065 -0.08570676
-0.13815148 0.29650804 0.27086553 0.15141504 -0.17749394 0.44384488 0.2970482 0.063449286
-0.5987226 -0.28695828 -0.18048008 -0.26223987 -0.44227433 0.16233225 -0.02438019 0.04229722
-0.36058345 0.03206706 0.094228 -0.17125088 -0.87031895 -0.70402557 -0.48999992 -0.54730034
-0.21754651 0.23967093 0.14071259 0.028638128 0.12033561 0.8847333 0.5666981 0.38749662
-0.3503246 0.16595404 0.11699927 0.015839579 -0.05798564 0.44606927 0.23053889 0.0068520093
-0.29683504 0.45408097 0.1824242 0.08993158 0.13878961 1.1857789 0.7961126 0.46350467
-0.2114125 0.53159505 0.31419885 0.19185507 -0.41765442 -0.20720118 -0.012518121 -0.094418995
-0.2692053 0.33500624 0.1582186 0.107041635 -0.397943 0.11486459 0.07385507 -0.046408772
-0.7566485 -0.47160047 -0.24211437 -0.293256 -0.22021917 0.3596628 0.24956398 0.004390293
-0.6300649 -0.39118606 -0.21744578 -0.27077717 -0.029368866 0.61610264 0.42192814 0.2323934
-0.31464687 0.23235281 0.24320598 0.041974675 -0.68581843 -0.63060236 -0.40670037 -0.46796575
-0.3550173 0.048475053 -0.071303174 -0.029994313 -0.5674201 -0.28792757 -0.18038127 -0.30719185
-0.7158877 -0.4819369 -0.31145838 -0.26852146 -0.22770639 0.2655627 0.12569639 0.09382895
-0.46286672 0.04347538 0.007911341 -0.08372106 -0.8011883 -0.60313255 -0.35031238 -0.3494025
-0.8539481 -0.6843469 -0.4966093 -0.5353444 -0.21652278 0.39128354 0.26114702 0.18344012
-0.44390708 -0.08809793 -0.052557677 -0.13114415 -0.56278706 -0.11439937 -0.109715655 -0.18677132
-0.50361115 -0.016606284 -0.030030495 -0.07904303 -0.2552926 0.19076726 0.19722784 0.04262899
-0.7711981 -0.64882344 -0.37739727 -0.40373993 -0.5059645 -0.14947067 -0.0814647 -0.17773035
-0.11729011 0.6361874 0.40185538 0.17804918 -0.49929917 0.016699048 0.08542529 -0.14638533
-0.53812546 -0.15885206 -0.13964385 -0.14129004 -0.39111748 -0.008785206 0.056754738 -0.097626835
-0.6490025 -0.43775216 -0.22672787 -0.42502287 -0.5016888 -0.15894838 -0.038703013 -0.053409506
-0.22848059 0.3610864 0.24731655 0.087438256
00000000: 673b 083f b585 4f3f d22b 95c0 41c4 933f
00000010: 2ea6 c2be e8aa 5a3e f6f1 503e cd98 f53b
00000020: 83e4 b8be 9c13 9abd 9bd4 8e3d b7b3 14be
00000030: ca96 c3be adf3 09be 8a3b e83c a5f6 2bbe
00000040: 8e2d 15bf e5e7 2abe 566e 39be 0e6b a5be
00000050: a4bd c4be 11ed c23d 701d 703d 3c98 9cbd
00000060: af85 60bf 3ac9 1ebf 734b e0be 1e4a f3be
00000070: d8e9 6ebf 459a 4abf cbdf d0be 0193 02bf
00000080: 341c bfbe f96d f73d 8827 173e a972 7ebd
00000090: fc0a e4be f7af 0c3d f069 6e3d 0787 afbd
000000a0: 9577 0dbe e7cf 973e e3ae 8a3e 8b0c 1b3e
000000b0: f9c0 35be a33f e33e b416 983e b3f1 813d
000000c0: e245 19bf 32ec 92be c5cf 38be 4e44 86be
000000d0: c871 e2be 6d3a 263e f7b8 c7bc da3f 2d3d
000000e0: 659e b8be c058 033d 9cfa c03d 645c 2fbe
000000f0: 39cd 5ebf 053b 34bf 45e1 fabe e01b 0cbf
00000100: 83c4 5ebe 4c6c 753e f616 103e 829a ea3c
00000110: 8472 f63d e27d 623f 2013 113f f565 c63e
00000120: bf5d b3be dbef 293e 509d ef3d 01c2 813c
00000130: 5a82 6dbd 3163 e43e 6312 6c3e d286 e03b
00000140: c3fa 97be 4d7d e83e 69cd 3a3e 0c2e b83d
00000150: dd1e 0e3e 9ac7 973f 09ce 4b3f 7c50 ed3e
00000160: 857c 58be 9d16 083f acde a03e a875 443e
00000170: cdd6 d5be 8c2c 54be ce18 4dbc bf5e c1bd
00000180: 47d5 89be f085 ab3e 0f04 223e a538 db3d
00000190: 2fbf cbbe 203e eb3d 5441 973d 2017 3ebd
000001a0: b7b3 41bf 9e75 f1be d4ec 77be a725 96be
000001b0: 2281 61be b925 b83e b38d 7f3e 72dc 8f3b
000001c0: ef4b 21bf 8a49 c8be 1baa 5ebe 4ea3 8abe
000001d0: fa96 f0bc e7b8 1d3f f706 d83e 89f8 6d3e
000001e0: 6519 a1be e5ed 6d3e fd0a 793e a3ed 2b3d
000001f0: cc91 2fbf 286f 21bf 083b d0be 3599 efbe
00000200: d4c4 b5be c78d 463d 6607 92bd a2b6 f5bc
00000210: 7242 11bf 3e6b 93be deb5 38be 4048 9dbe
00000220: 6b44 37bf 6fc0 f6be 7977 9fbe a57b 89be
00000230: dd2b 69be d6f7 873e 8eb6 003e 6429 c03d
00000240: defc ecbe 3d13 323d 929e 013c f275 abbd
00000250: ad1a 4dbf e566 1abf 255c b3be e2e4 b2be
00000260: 589c 5abf 5c31 2fbf 9343 febe 550c 09bf
00000270: 26b8 5dbe 5156 c83e 10b5 853e bad7 3b3e
00000280: ca47 e3be b06c b4bd b846 57bd a74a 06be
00000290: d012 10bf 384a eabd 9ab2 e0bd fb40 3fbe
000002a0: a9ec 00bf e709 88bc 8302 f6bc 50e1 a1bd
000002b0: b6b5 82be 7e58 433e 18f6 493e bc9b 2e3d
000002c0: 3d6d 45bf 4b19 26bf 373a c1be 00b7 cebe
000002d0: e486 01bf d70e 19be f7d6 a6bd f2fe 35be
000002e0: cc35 f0bd 2ddd 223f fdbf cd3e 8652 363e
000002f0: 24a4 ffbe 71cc 883c 74f3 ae3d 09e6 15be
00000300: 97c2 09bf 1daa 22be ccfe 0ebe 56ae 10be
00000310: 8d40 c8be d3ef 0fbc a877 683d 94f0 c7bd
00000320: 0725 26bf 0d21 e0be 5a2b 68be 999c d9be
00000330: ad6e 00bf 5dc3 22be 0d87 1ebd edc3 5abd
00000340: d1f6 69be 51e0 b83e 8d40 7d3e d412 b33d

positional_encoding.emb.weight f4 [200, 4]
0.5714465 -1.0902708 -0.8440828 1.1426725 -0.46405843 0.6421024 -0.016908985 0.51853305
-4.7623878 -0.27004302 1.8906395 1.0627449 -0.74446917 -1.8085377 -0.16402842 3.123091
-2.8095453 1.6907232 -0.71232283 1.292849 0.45513818 -0.21711676 -0.5771516 0.06935975
-2.4232235 2.071531 2.0428298 -1.0000796 -2.4823697 -0.6263417 1.0731131 0.4999572
0.08267108 -1.1861624 -1.1305602 -0.8503154 0.7730222 0.13819504 -0.16508888 -0.07810504
-4.218306 -2.7213678 1.0470297 0.94759834 0.5469183 0.47010827 1.0217757 2.5940607
-1.5750141 -0.39950874 -1.2964319 -0.33222607 0.8996248 0.03519043 -0.30181655 -0.18750575
-3.0515318 1.7051715 1.4374043 -1.5762812 -2.3106773 3.1810672 -0.29561803 1.3460584
-0.82189536 1.52777 -0.10372616 0.6480973 1.2907344 0.28433567 0.02513414 0.68984675
-2.2127068 2.076573 1.8618547 -1.35775 -2.0927842 -0.43227032 0.27228403 -0.19341101
-1.2197816 1.1067412 -0.22352457 0.19018908 1.7053748 0.46361834 0.11461315 1.0477242
-2.4274137 1.3859876 1.3653827 -1.9889499 -0.69465667 1.5148816 0.1213316 -0.671336
2.9814105 0.2981969 0.44001436 0.87560934 1.972301 -0.46473935 0.35105908 1.7757155
-0.7612854 -0.3103813 1.7148272 1.1120608 0.29790497 -0.13055329 0.94618726 -0.07150079
-0.46317446 0.26023299 0.46662644 0.4769078 -3.1393406 -0.50945157 -2.3225493 0.37947097
-3.710987 2.3278875 0.89990187 -2.251938 0.98235106 -1.1654435 -0.38472074 1.6433413
-0.47323358 1.385839 -0.7019641 -1.377887 -0.34404016 1.8886964 -0.39531195 -1.0521413
0.24469455 3.1439106 1.4337916 -1.7671949 -0.5516145 -0.11907604 0.018671881 -0.40370288
-0.0908916 0.9909777 -0.1798571 -0.14804655 2.5729885 -0.20870578 -0.70414877 0.18693107
-2.245064 0.3553565 0.9036025 0.4314725 -0.0883514 -0.20960216 -1.0215335 1.019407
-1.3132234 1.2621542 -1.8781399 -1.8372355 -0.89396644 1.2957745 -1.9420383 -1.9965123
1.4358578 1.0865862 -0.19076869 -2.9826148 -0.25228742 1.6897094 -1.904301 -1.2826629
2.4983878 -1.172655 0.33149827 0.9645508 -0.6773684 2.6939075 -1.5609915 -0.909115
-0.8135294 1.6311268 -0.06897519 -3.3320363 1.0189427 2.1537533 -1.1350571 -1.1460713
3.07874 -0.61611086 0.61616737 0.90886676 -0.53451186 2.0145862 -1.4763304 -1.258977
0.69750047 2.3502166 1.0298431 -3.588154 0.18200046 -1.0352612 -0.19643834 0.13056979
-0.52921903 0.2685703 -1.1034044 -0.49971563 -0.09758909 0.26795065 -0.9112 0.7869076
-1.7301482 -1.0144521 1.2664778 0.8224293 0.4833414 0.43397254 -1.3663498 0.9821648
2.8532908 -1.4914725 -1.2961254 0.9311686 0.59295505 -0.113772236 0.056463216 1.003042
-1.6994975 0.8114325 0.8796203 0.55233276 2.446246 1.5673294 -0.7118454 2.2663696
0.38545644 0.19913027 -0.65226394 0.025285797 0.09041699 1.0240526 -1.2050943 1.4688921
-0.5610198 2.2755892 -0.18015908 -4.4870915 1.2113606 0.46968728 -2.0744557 0.38909468
00000000: 514a 123f fe8d 8bbf cf15 58bf 1843 923f
00000010: 1199 edbe d360 243f b684 8abc 95be 043f
00000020: 7b65 98c0 1443 8abe 7a00 f23f 0608 883f
00000030: 8895 3ebf 2a7e e7bf 11f7 27be b9e0 4740
00000040: 97cf 33c0 9e69 d83f ca5a 36bf 137c a53f
00000050: df07 e93e db53 5ebe 35c0 13bf 7c0c 8e3d
00000060: 1816 1bc0 f793 0440 b9bd 0240 9c02 80bf
00000070: 25df 1ec0 ee57 20bf c55b 893f 64fa ff3e
00000080: 754f a93d 2bd4 97bf 32b6 90bf 45ae 59bf
00000090: c8e4 453f 0083 0d3e 0f0d 29be 89f5 9fbd
000000a0: 5dfc 86c0 e42a 2ec0 1205 863f ce95 723f
000000b0: d602 0c3f 08b2 f03e 8cc9 823f 1705 2640
000000c0: 109a c9bf 698c ccbe 7bf1 a5bf 8919 aabe
000000d0: d04d 663f d723 103d b387 9abe 8201 40be
000000e0: 4c4c 43c0 0f43 da3f ddfc b73f 95c3 c9bf
000000f0: 23e2 13c0 9b96 4b40 3f5b 97be a44b ac3f
00000100: bc67 52bf f88d c33f 626e d4bd b4e9 253f
00000110: c936 a53f 7294 913e 1de6 cd3c cc99 303f
00000120: fd9c 0dc0 92e6 0440 4151 ee3f c1ca adbf
00000130: 2df0 05c0 8952 ddbe d068 8b3e 890d 46be
00000140: ce21 9cbf b2a9 8d3f a0e3 64be edc0 423e
00000150: b949 da3f 625f ed3e 4dba ea3d d41b 863f
00000160: bf5a 1bc0 0b68 b13f dcc4 ae3f e995 febf
00000170: 05d5 31bf a4e7 c13f b47c f83d addc 2bbf
00000180: 6ecf 3e40 44ad 983e 9049 e13e ef27 603f
00000190: 5c74 fc3f 51f2 edbe 04be b33e a54a e33f
000001a0: 9ae3 42bf 4cea 9ebe 757f db3f 0258 8e3f
000001b0: 0087 983e c3af 05be 5439 723f 026f 92bd
000001c0: 3425 edbe 423d 853e a9e9 ee3e 422d f43e
000001d0: f5ea 48c0 6b6b 02bf a6a4 14c0 054a c23e
000001e0: d080 6dc0 1cfc 1440 f85f 663f c11f 10c0
000001f0: 5c7b 7b3f 412d 95bf 1efa c4be 0259 d23f
00000200: ac4b f2be 2c63 b13f ebb3 33bf 9a5e b0bf
00000210: 0826 b0be cec0 f13f 5466 cabe 91ac 86bf
00000220: 3591 7a3e d535 4940 7c86 b73f 7133 e2bf
00000230: 9c36 0dbf 24de f3bd c6f5 983c 25b2 cebe
00000240: 6025 babd b7b0 7d3f 762c 38be 8499 17be
00000250: d8ab 2440 f8b6 55be 1843 34bf dc6a 3f3e
00000260: 21af 0fc0 4af1 b53e 7e52 673f f7e9 dc3e
00000270: 94f1 b4bd f3a1 56be 9cc1 82bf ee7b 823f
00000280: b417 a8bf 458e a13f e366 f0bf 882a ebbf
00000290: fcda 64bf f0db a53f b694 f8bf b78d ffbf
000002a0: 30ca b73f 4215 8b3f de58 43be 29e3 3ec0
000002b0: d12b 81be 6648 d83f 23c0 f3bf 4c2e a4bf
000002c0: 96e5 1f40 8f19 96bf 24ba a93e cdec 763f
000002d0: 0468 2dbf fb68 2c40 92ce c7bf c3bb 68bf
000002e0: 7643 50bf c3c8 d03f dd42 8dbd 1540 55c0
000002f0: b76c 823f 18d7 0940 8d49 91bf 77b2 92bf
00000300: 130a 4540 71b9 1dbf 25bd 1d3f 7eab 683f
00000310: c5d5 08bf fbee 0040 65f8 bcbf 2926 a1bf
00000320: 648f 323f f369 1640 e6d1 833f 51a4 65c0
00000330: 545e 3a3e 7083 84bf 2227 49be 16b4 053e
00000340: e67a 07bf 0c82 893e 5b3c 8dbf bada ffbe
00000350: cadc c7bd d430 893e 6744 69bf c772 493f
00000360: 7f75 ddbf 91d9 81bf f21b a23f ba8a 523f
00000370: 8678 f73e a631 de3e 8de4 aebf 276f 7b3f
00000380: 519c 3640 92e8 bebf 70e7 a5bf 1161 6e3f
00000390: e7cb 173f 6b01 e9bd f945 673d ae63 803f
000003a0: 2289 d9bf 0aba 4f3f cc2e 613f ae65 0d3f
000003b0: 4b8f 1c40 409e c83f 803b 36bf 330c 1140
000003c0: 8c5a c53e cee8 4b3e c5fa 26bf 2924 cf3c
000003d0: 8b2c b93d 2814 833f 8840 9abf a804 bc3f
000003e0: fe9e 0fbf 41a3 1140 9f7b 38be 4196 8fc0
000003f0: dd0d 9b3f da7a f03e e2c3 04c0 6b37 c73e

encoder_layer.self_attn.in_proj_weight f4 [12, 4]
0.06608415 0.14968467 0.17148882 0.536441 0.1899085 0.0822404 -0.39305937 -0.58721524
-0.19424576 0.31435686 0.075665295 -0.32611457 0.5880255 -0.43118423 -0.16995025 -0.09383452
0.38373405 0.45820206 -0.5148543 -0.30568904 -0.34750414 0.262111 0.13379377 -0.31618154
-0.25517896 0.16836017 0.019059598 0.071822286 -0.20718604 -0.5859088 -0.41039878 0.5138809
-0.3431336 -0.06880385 -0.21618488 0.3944748 0.5162924 0.31024295 -0.14501706 0.30475396
-0.08644837 -0.294595 -0.22253394 0.33084857 0.2905501 0.10722196 -0.3140421 -0.35999852
00000000: 2057 873d f046 193e c49a 2f3e 3354 093f
00000010: 6077 423e a86d a83d 143f c9be bd53 16bf
00000020: 5ce8 46be 62f3 a03e 68f6 9a3d 7df8 a6be
00000030: d788 163f 2ec4 dcbe 7007 2ebe 502c c0bd
00000040: ca78 c43e 7699 ea3e 7ecd 03bf 4683 9cbe
00000050: 10ec b1be 6a33 863e 3c01 093e 8ce2 a1be
00000060: d1a6 82be 9c66 2c3e e022 9c3c 9017 933d
00000070: 9428 54be 1efe 15bf ca1f d2be b38d 033f
00000080: 35af afbe 08e9 8cbd 925f 5dbe 9af8 c93e
00000090: bd2b 043f 2ad8 9e3e 5a7f 14be b608 9c3e
000000a0: d80b b1bd 28d5 96be f0df 63be fc64 a93e
000000b0: fcc2 943e 3097 db3d 20ca a0be ba51 b8be

encoder_layer.self_attn.in_proj_bias f4 [12]
0.0 0.0 0.0 0.0 0.0 0.0 0.0 0.0
0.0 0.0 0.0 0.0
00000000: 0000 0000 0000 0000 0000 0000 0000 0000
00000010: 0000 0000 0000 0000 0000 0000 0000 0000
00000020: 0000 0000 0000 0000 0000 0000 0000 0000

encoder_layer.self_attn.out_proj.weight f4 [4, 4]
0.13379234 -0.12775469 -0.42103136 0.49578232 0.30487 -0.22015971 0.021601379 0.056274235
-0.09987968 0.09965211 -0.0539124 -0.30431545 -0.16483682 0.32309794 0.40125674 -0.4523509
00000000: dc00 093e 20d2 02be 6c91 d7be 2ed7 fd3e
00000010: ec17 9c3e 8c71 61be 60f5 b03c d07f 663d
00000020: b88d ccbd 6816 cc3d 40d3 5cbd 3ccf 9bbe
00000030: fcca 28be 186d a53e 8671 cd3e 8a9a e7be

encoder_layer.self_attn.out_proj.bias f4 [4]
0.0 0.0 0.0 0.0
00000000: 0000 0000 0000 0000 0000 0000 0000 0000

encoder_layer.linear1.weight f4 [16, 4]
0.37691444 -0.29285544 -0.49124616 -0.19112402 0.320458 -0.42920828 -0.2149356 0.26863325
0.4043064 0.24955541 -0.2233972 0.07676375 0.3426035 0.20650667 0.29118532 -0.40898854
-0.40973508 0.20355576 0.27553236 0.31717283 -0.16751027 -0.17261022 0.47817206 -0.2720791
0.25260013 -0.0012144446 -0.14599329 0.2569996 0.2567097 0.15534037 -0.46444136 0.4747762
-0.1487034 0.04558432 0.2740203 -0.30474395 0.22009462 0.037297904 0.14494723 0.41732872
-0.2454238 0.33663118 -0.37471902 0.17010915 0.49530435 -0.47460073 -0.13366413 -0.19582278
-0.48080903 0.4140547 -0.48184818 -0.36674827 0.33780771 0.40663588 0.2753368 -0.16149813
-0.2392267 -0.04515159 -0.23601466 -0.37469178 0.38822943 -0.300156 -0.409325 0.16717738
00000000: eefa c03e 26f1 95be 9e84 fbbe 04b6 43be
00000010: 1213 a43e 30c1 dbbe 1418 5cbe 4c8a 893e
00000020: 4001 cf3e 748b 7f3e 3cc2 64be 5036 9d3d
00000030: ba69 af3e 7c76 533e 3e16 953e f266 d1be
00000040: ccc8 d1be ec70 503e 9412 8d3e 7a64 a23e
00000050: d087 2bbe bcc0 30be f8d2 f43e f44d 8bbe
00000060: ce54 813e 002e 9fba 447f 15be 7495 833e
00000070: 746f 833e 8c11 1f3e 42cb edbe de15 f33e
00000080: b445 18be a0b6 3a3d 644c 8c3e 6607 9cbe
00000090: 7c60 613e b0c5 183d 0c6d 143e 1cac d53e
000000a0: 6050 7bbe ec5a ac3e 2cdb bfbe 1831 2e3e
000000b0: 8898 fd3e defe f2be 40df 08be c485 48be
000000c0: 9a2c f6be fafe d33e ceb4 f6be 6ec6 bbbe
000000d0: 22f5 ac3e 9432 d03e f2f8 8c3e c45f 25be
000000e0: d8f7 74be e0f0 38bd d4ad 71be 9ad7 bfbe
000000f0: 02c6 c63e 0cae 99be 0c93 d1be 8c30 2b3e

encoder_layer.linear1.bias f4 [16]
-0.1967544 -0.21315414 0.3776508 0.08556497 0.26342094 -0.27474445 -0.17571545 -0.2833845
-0.35587364 0.47679025 0.4712504 -0.29698676 -0.2939418 -0.15510535 0.010065556 0.40054113
00000000: fc79 49be 1445 5abe 725b c13e b03c af3d
00000010: 1cdf 863e 4eab 8cbe c0ee 33be c617 91be
00000020: 1235 b6be da1d f43e bc47 f13e a60e 98be
00000030: 8a7f 96be f0d3 1ebe 00ea 243c ba13 cd3e

encoder_layer.linear2.weight f4 [4, 16]
0.012785345 0.017067105 0.06241423 0.23256668 -0.15308195 0.16405502 0.04579112 0.12310007
0.1878607 -0.12594709 0.2289004 0.24194571 0.03497711 0.201338 -0.12628588 0.06253901
0.22811773 0.06666523 0.051056355 0.23275346 0.15526786 0.12450981 -0.08212313 -0.22812
-0.22501466 -0.029723078 0.23658738 -0.21095943 0.23394194 0.011616081 -0.24753168 0.1105212
0.2441467 -0.08667606 -0.18474671 -0.04143071 0.051090866 -0.06776431 0.01480341 -0.16383648
-0.034355104 -0.01260829 0.0969848 -0.16366267 0.021298468 0.151142 0.14122957 0.024267554
0.07729301 -0.20230353 0.148386 0.16243005 0.11431754 0.12653765 -0.21109843 -0.09894225
-0.23045576 -0.16085896 0.106363624 -0.13814867 -0.21676704 -0.031201988 0.10334587 -0.09783238
00000000: a079 513c 50d0 8b3c 10a6 7f3d f625 6e3e
00000010: 84c1 1cbe 0afe 273e 788f 3b3d e41b fc3d
00000020: 8e5e 403e 46f8 00be de64 6a3e 9ec0 773e
00000030: 2844 0f3d 8c2b 4e3e 1651 01be 7414 803d
00000040: b297 693e c887 883d 7820 513d ec56 6e3e
00000050: 8afe 1e3e 00ff fe3d 2c30 a8bd 4a98 69be
00000060: 3e6a 66be d07d f3bc f643 723e c005 58be
00000070: 7a8e 6f3e 6051 3e3c f278 7dbe f058 e23d
00000080: 9801 7a3e 3883 b1bd 3e2e 3dbe 40b3 29bd
00000090: a844 513d 04c8 8abd 008a 723c c0c4 27be
000000a0: f0b7 0cbd 0093 4ebc f89f c63d 3097 27be
000000b0: 207a ae3c f8c4 1a3e 7c9e 103e c0cc c63c
000000c0: cc4b 9e3d a828 4fbe 80f2 173e 1054 263e
000000d0: 501f ea3d 1693 013e 302a 58be 3ca2 cabd
000000e0: 98fc 6bbe 36b8 24be 2cd5 d93d d876 0dbe
000000f0: 2ef8 5dbe 509b ffbc 00a7 d33d 585c c8bd

encoder_layer.linear2.bias f4 [4]
0.048849493 -0.12979978 0.049745202 0.24726874
00000000: 6816 483d 3cea 04be a0c1 4b3d 0434 7d3e

encoder_layer.norm1.weight f4 [4]
1.0 1.0 1.0 1.0
00000000: 0000 803f 0000 803f 0000 803f 0000 803f

encoder_layer.norm1.bias f4 [4]
0.0 0.0 0.0 0.0
00000000: 0000 0000 0000 0000 0000 0000 0000 0000

encoder_layer.norm2.weight f4 [4]
1.0 1.0 1.0 1.0
00000000: 0000 803f 0000 803f 0000 803f 0000 803f

encoder_layer.norm2.bias f4 [4]
0.0 0.0 0.0 0.0
00000000: 0000 0000 0000 0000 0000 0000 0000 0000

encoder.layers.0.self_attn.in_proj_weight f4 [12, 4]
-2.0795615 0.37145227 1.1118789 0.23215847 0.89080244 -0.15321195 -0.6038742 -0.05673781
-0.88016903 0.49204773 -0.83004886 0.96560293 0.3065893 -0.49891034 0.033480298 0.35813752
0.40056244 0.8366606 -1.0358409 -0.7587649 -0.6399542 0.34928823 -0.35756454 0.3553262
-1.1712445 0.566887 0.89484316 -0.992199 0.55368227 -0.5113602 -0.5930773 1.0470665
0.35447684 -0.57451063 -0.80852646 1.6963906 1.1037685 0.019577025 -0.9311754 -0.004868839
-0.5417863 0.8460692 -1.300187 0.5786869 -0.4024973 0.7611929 -1.247037 0.4678404
00000000: 8917 05c0 fe2e be3e 0c52 8e3f f3ba 6d3e
00000010: a10b 643f 98e3 1cbe 8097 1abf e865 68bd
00000020: c252 61bf aeed fb3e 157e 54bf c131 773f
00000030: 46f9 9c3e 2d71 ffbe a322 093d cd5d b73e
00000040: 8516 cd3e 642f 563f 6f96 84bf 6b3e 42bf
00000050: 0ad4 23bf e8d5 b23e b312 b7be 51ed b53e
00000060: 57eb 95bf 821f 113f 7114 653f c100 7ebf
00000070: 1fbe 0d3f 81e8 02bf ead3 17bf 4606 863f
00000080: fd7d b53e 2113 13bf 97fb 4ebf 5423 d93f
00000090: 4948 8d3f ff5f a03c 8361 6ebf c88a 9fbb
000000a0: 82b2 0abf fe97 583f 876c a6bf d324 143f
000000b0: 2014 cebe 8add 423f e99e 9fbf c788 ef3e

encoder.layers.0.self_attn.in_proj_bias f4 [12]
-0.38931203 0.813811 -1.5599358 0.7784253 0.48068213 -0.047349557 0.12069462 0.0023360325
-0.50878084 -1.109256 -1.1981877 -0.41672498
00000000: e853 c7be eb55 503f faab c7bf e146 473f
00000010: f81b f63e 9cf1 41bd be2e f73d 1f18 193b
00000020: 763f 02bf 1afc 8dbf 375e 99bf fa5c d5be

encoder.layers.0.self_attn.out_proj.weight f4 [4, 4]
-0.65441215 1.1318909 -1.079171 0.4033789 0.77063173 -1.2571665 1.4010615 0.61583805
-0.36374834 0.26176122 -0.33698255 -0.5949853 0.61756927 -0.5818451 0.6534492 0.8359784
00000000: 8e87 27bf cde1 903f 4622 8abf ae87 ce3e
00000010: 1f48 453f d5ea a0bf fc55 b33f 90a7 1d3f
00000020: 393d babe 9105 863e fa88 acbe f550 18bf
00000030: 0519 1e3f cdf3 14bf 7248 273f ae02 563f

encoder.layers.0.self_attn.out_proj.bias f4 [4]
-0.9031584 1.0372819 -0.45211628 1.0878693
00000000: 6435 67bf a7c5 843f c97b e7be 4d3f 8b3f

encoder.layers.0.linear1.weight f4 [16, 4]
0.24229561 -0.07049621 -0.82776743 0.67873764 0.9640679 -0.8545195 -0.9581961 0.8386226
1.1555667 -0.41748077 -0.46233976 0.35309625 1.3614523 -0.5912262 -0.17702 -0.037405595
0.81614524 -0.19601224 0.3769191 -1.4004586 0.44910288 -0.27446648 0.30310568 -0.57785505
0.41518062 -0.94368386 1.4824666 0.08149985 0.039825637 0.07331549 -0.5315615 0.8403628
0.0024687941 -0.11165033 0.10200267 -0.11905946 1.5397173 -0.51113683 -0.6583497 0.7323695
0.5574483 -1.1274686 1.1693411 -0.31318748 0.2691089 -0.4224746 0.076520585 -0.69698364
0.90998906 -0.34268343 0.46312258 -1.8712932 0.20438723 0.21844617 0.17236894 0.007885997
0.4735872 -0.84010124 -0.6631034 0.19294745 0.4667676 0.22619037 -1.1268426 0.53007746
00000000: 571c 783e 5160 90bd 91e8 53bf c0c1 2d3f
00000010: 27cd 763f cac1 5abf 574c 75bf f9af 563f
00000020: 9ce9 933f 0ac0 d5be ccb7 ecbe 08c9 b43e
00000030: 1244 ae3f 9a5a 17bf bb44 35be 9c36 19bd
00000040: e5ee 503f 6fb7 48be 8afb c03e 3a42 b3bf
00000050: d0f0 e53e df86 8cbe ab30 9b3e 4fee 13bf
00000060: 8e92 d43e 4495 71bf 77c1 bd3f 65e9 a63d
00000070: 3520 233d 6e26 963d 6a14 08bf 0422 573f
00000080: 7ecb 213b eea8 e4bd c7e6 d03d 72d5 f3bd
00000090: 7515 c53f ddd9 02bf 9b89 28bf 917c 3b3f
000000a0: efb4 0e3f e450 90bf f8ac 953f 1c5a a0be
000000b0: a4c8 893e 974e d8be d3b6 9c3d 856d 32bf
000000c0: 0bf5 683f 3474 afbe 671e ed3e 8986 efbf
000000d0: e34a 513e 5ab0 5f3e 7c81 303e 4534 013c
000000e0: 057a f23e e010 57bf 25c1 29bf 0494 453e
000000f0: 2afc ee3e 739e 673e 613c 90bf 28b3 073f

encoder.layers.0.linear1.bias f4 [16]
-0.45338523 -0.6744383 -0.46104386 -0.33384696 0.67363834 -0.47974348 -0.6375651 -1.0621605
-0.5275295 -0.3664563 0.33439553 -0.62521166 0.0032939995 -0.31964415 -0.40781057 -0.56050897
00000000: 1c22 e8be fda7 2cbf f10d ecbe fded aabe
00000010: 9073 2c3f f0a0 f5be 7737 23bf e0f4 87bf
00000020: 2c0c 07bf 29a0 bbbe e435 ab3e df0d 20bf
00000030: 24e0 573b 66a8 a3be 8ccc d0be 847d 0fbf

encoder.layers.0.linear2.weight f4 [4, 16]
-0.58745456 -0.10576363 -0.5945223 -0.0052179927 0.3069502 -0.06223848 0.43414554 0.08594395
0.023693133 -0.74650735 0.71752393 0.13192709 0.69015867 -0.018298222 -0.42581686 -0.5311831
0.4058556 0.06644863 0.31959924 0.37910298 -0.18298954 0.31542313 -0.830847 0.4790666
-0.08101981 0.23297688 -0.5337528 0.0024792112 -0.766214 0.1754018 0.1928478 0.026471173
-0.13327116 -0.29756948 -0.13535607 -0.19276883 0.34002557 -0.22961795 0.6030967 0.0040018586
-0.18635991 -0.070320025 0.41169557 -0.3594651 0.5758648 -0.023717292 -0.35912216 0.12191464
0.23024698 0.66860837 0.24779338 0.25823814 -0.6641771 0.036337838 -0.8989275 -0.49580187
-0.30236202 0.16255511 -0.30184254 0.090253316 -0.54364264 0.19604734 0.4933532 0.037431706
00000000: 6c63 16bf 9a9a d8bd 9d32 18bf b2fb aabb
00000010: 9428 9d3e c7ed 7ebd 5348 de3e 6203 b03d
00000020: 1a18 c23c 1b1b 3fbf a6af 373f e517 073e
00000030: 3dae 303f 27e6 95bc ab04 dabe 9efb 07bf
00000040: 4ecc cf3e 3816 883d 83a2 a33e c919 c23e
00000050: 9c61 3bbe 247f a13e 64b2 54bf 3848 f53e
00000060: b7ed a5bd 7e91 6e3e 06a4 08bf 437a 223b
00000070: 9a26 44bf 889c 333e e579 453e 13da d83c
00000080: 3c78 08be 075b 98be c89a 0abe 3165 45be
00000090: d517 ae3e f820 6bbe 8c64 1a3f 0622 833b
000000a0: 22d5 3ebe f203 90bd c3c9 d23e cf0b b8be
000000b0: e06b 133f c44a c2bc dcde b7be 62ae f93d
000000c0: ddc5 6b3e eb29 2b3f 8cbd 7d3e ca37 843e
000000d0: 8307 2abf fcd6 143d 1d20 66bf bed9 fdbe
000000e0: 32cf 9abe d974 263e 1b8b 9abe bbd6 b83d
000000f0: 2a2c 0bbf a2c0 483e ca98 fc3e fd51 193d

encoder.layers.0.linear2.bias f4 [4]
0.27106652 -0.1338697 -0.043401785 0.08984717
00000000: 3bc9 8a3e 2315 09be 12c6 31bd cb01 b83d

encoder.layers.0.norm1.weight f4 [4]
0.9434036 0.60303843 1.6600055 0.9682343
00000000: e682 713f ba60 1a3f 0f7b d43f 34de 773f

encoder.layers.0.norm1.bias f4 [4]
-1.1226656 0.48569047 -0.7743462 0.6621713
00000000: 82b3 8fbf 6cac f83e 8d3b 46bf 0f84 293f

encoder.layers.0.norm2.weight f4 [4]
1.0078663 1.1428769 1.1687964 1.4063532
00000000: c301 813f ca49 923f 1f9b 953f 6203 b43f

encoder.layers.0.norm2.bias f4 [4]
0.88234615 -0.12888671 0.2511008 -0.3238193
00000000: 70e1 613f e1fa 03be 4990 803e a5cb a5be

output_layer.weight f4 [2, 4]
-0.18183106 0.38455856 -0.4553686 0.41187537 0.6527781 -0.65423405 0.29692093 -0.6334283
00000000: ec31 3abe dce4 c43e 1326 e9be 54e1 d23e
00000010: 771c 273f e27b 27bf 0506 983e 5b28 22bf

output_layer.bias f4 [2]
-0.3728441 -0.12340954
00000000: 6ce5 bebe 24be fcbd
