checkpoints/RiffleOnlyShuffle_2rp_2l_best_model.pth (torch, 22062 bytes, 40 tensors)

embedding_layer.weight f4 [53, 4]
0	0x40582f9f	3.3779066
1	0x3fbcb091	1.4741384
2	0xbed4ef2f	-0.41588733
3	0xc05ff5aa	-3.4993691
4	0xbea903f8	-0.3301084
5	0x3f212782	0.6295091
6	0xbee3ee49	-0.44517735
7	0x3e00d3c2	0.12580779
8	0x3e347d16	0.17625841
9	0x3ed6fbf2	0.41989094
10	0xbec33a27	-0.38130304
11	0x3eb79bb8	0.3586099
12	0x3e52f098	0.20599592
13	0x3e913abe	0.2836513
14	0xbedd94a2	-0.4327746
15	0x3e99e197	0.30054924
16	0x3e792927	0.24332105
17	0x3e810aa7	0.2520344
18	0xbef74a5f	-0.48298928
19	0x3e8eafed	0.27868596
20	0x3eaf95d3	0.34293994
21	0x3ea16895	0.31525102
22	0xbee864dc	-0.4538945
23	0x3ed1b58d	0.40958825
24	0xbeb25135	-0.3482758
25	0x3f294fed	0.6613758
26	0xbee5eabc	-0.4490565
27	0xbd550d32	-0.052014537
28	0x3ea3d8d6	0.3200137
29	0x3edaa9e2	0.42707735
30	0xbee3d0bd	-0.44495192
31	0x3e5cbbb2	0.21555975
32	0xbe7737ef	-0.2414243
33	0x3f207d83	0.62691516
34	0xbeb8021a	-0.35939103
35	0x3e488f05	0.19585808
36	0x3e19f8d8	0.15036333
37	0x3ebf884a	0.37408668
38	0xbed441c1	-0.41456416
39	0x3e8988b2	0.26862103
40	0xbcf91a04	-0.030407913
41	0x3ee67e23	0.4501811
42	0xbedd4e3c	-0.4322375
43	0x3e3151e1	0.1731639
44	0x3f195888	0.5990071
45	0x3e55564f	0.20833705
46	0xbf032369	-0.51225907
47	0x3f0bf7b4	0.5467484
48	0xbe244e04	-0.16045386
49	0x3f3c3435	0.7351716
50	0xbef18c37	-0.47177288
51	0x3da737f0	0.08164966
52	0x3de34e50	0.11098921
53	0x3f063e4d	0.52438813
54	0xbeeb17c4	-0.4591657
55	0x3e92af8f	0.28649566
56	0xbe9c6908	-0.30548882
57	0x3f3922c3	0.7231867
58	0xbecbc2bb	-0.39797005
59	0xbd904f2a	-0.07046349
60	0x3e897056	0.26843518
61	0x3e94b1c5	0.29041877
62	0xbed85bd1	-0.4225755
63	0x3ea25285	0.31703582
64	0x3e918864	0.2842437
65	0x3e821868	0.25409245
66	0xbeefb6ce	-0.46819156
67	0x3e8de7f1	0.2771602
68	0x3e9d4592	0.3071714
69	0x3ebd5f87	0.36986944
70	0xbeef00a8	-0.46680188
71	0x3e4e4559	0.20143642
72	0xbed33ee2	-0.41258913
73	0x3f3cc45e	0.7373713
74	0xbf093af4	-0.5360558
75	0x3cc857f2	0.024455998
76	0xbd4af8a2	-0.04955352
77	0x3eff9efa	0.49925977
78	0xbefec61d	-0.49760523
79	0x3dd90068	0.105957806
80	0x3d5543e7	0.05206671
81	0x3f05bb33	0.5223877
82	0xbef7ab8a	-0.4837306
83	0x3ea3eaa4	0.32014954
84	0x3e04b1ba	0.12958422
85	0x3eb2fec2	0.3495999
86	0xbed9d382	-0.4254418
87	0x3e880693	0.26567516
88	0x3d9d7b61	0.07689548
89	0x3f019d7e	0.5063094
90	0xbedd4f29	-0.43224457
91	0x3e44e9bc	0.19229788
92	0xbd688d94	-0.056775644
93	0x3f07701b	0.52905434
94	0xbee6ddb8	-0.45091033
95	0x3e4597fa	0.19296256
96	0xbe03a193	-0.12854604
97	0x3ef2031b	0.47267994
98	0xbef86e29	-0.48521546
99	0x3da42425	0.080147065
100	0x3f1538ce	0.582898
101	0x3e9c0b5b	0.30477414
102	0xbec5d6d0	-0.3864045
103	0x3edcfe87	0.4316294
104	0xbc8ade5c	-0.016951732
105	0x3f1cc42a	0.6123682
106	0xbed0ce02	-0.4078217
107	0x3d366449	0.044529233
108	0xbe7c06d7	-0.24611984
109	0x3f1be1f9	0.6089168
110	0xbee42ff5	-0.44567838
111	0x3e16c05f	0.14721821
112	0xbd4a93c4	-0.049457327
113	0x3f001950	0.50038624
114	0xbef9c11f	-0.48780152
115	0x3e26257e	0.1622524
116	0x3e798fb8	0.2437123
117	0xbf471dd9	-0.7777992
118	0xbf2a0496	-0.6641325
119	0xbefa037d	-0.48830786
120	0x3e3aff4a	0.18261448
121	0x3ed03aee	0.4066996
122	0xbee2635b	-0.44216427
123	0x3ea02c15	0.31283632
124	0x3e520cea	0.20512739
125	0x3ed582dc	0.417014
126	0xbeda6d44	-0.42661488
127	0x3e8a4b05	0.2701036
128	0x3e7b4d07	0.24541102
129	0x3ed25264	0.41078484
130	0xbee2fc0f	-0.4433293
131	0x3e85976e	0.26092094
132	0x3d062257	0.032747593
133	0x3ebc3450	0.3675866
134	0xbf01d987	-0.50722545
135	0x3e419a4a	0.18906513
136	0xbe1896d9	-0.14901294
137	0xbf4640db	-0.7744271
138	0xbf32dadc	-0.698652
139	0xbf29f937	-0.66395897
140	0x3e649711	0.22323252
141	0x3e895f17	0.2683036
142	0xbeed6e45	-0.4637319
143	0x3edfc3cc	0.4370407
144	0x3cdb3838	0.026760206
145	0x3ec11944	0.3771459
146	0xbeff671f	-0.49883363
147	0x3ea33d7c	0.31882846
148	0xbe0e7eb1	-0.13915516
149	0x3f1da319	0.6157699
150	0xbedc5d12	-0.43039757
151	0x3e20709e	0.1566796
152	0x3e9af3e7	0.30264208
153	0x3ec4911f	0.3839197
154	0xbee56de6	-0.44810408
155	0x3e4de895	0.20108254
156	0xbe516a03	-0.20450597
157	0xbf639b57	-0.88908905
158	0xbf3c3bb2	-0.7352859
159	0xbf7da9c7	-0.99087185
160	0x3fac7081	1.3471833
161	0xbe783972	-0.24240664
162	0xbed3acef	-0.41342875
163	0x3f248f4e	0.64281166
164	0x3c4262ec	0.011864405
165	0x3ec546f4	0.38530695
166	0xbeffaf8a	-0.49938613
167	0x3e4b2076	0.19836602
168	0x3d2ea904	0.042641655
169	0x3ef890b4	0.485479
170	0xbef37b80	-0.4755516
171	0x3e2f7e91	0.17138125
172	0xbe568353	-0.20948534
173	0x3f1518c9	0.58240944
174	0xbf003469	-0.5007997
175	0x3d36e514	0.04465206
176	0x3ecaf491	0.39639714
177	0x3e5d927a	0.21637908
178	0xbeff8242	-0.49904066
179	0x3ea594de	0.3234014
180	0xbe6d2b93	-0.23161153
181	0xbf635a9c	-0.88810134
182	0xbf4c5477	-0.79816383
183	0xbf6b1bc6	-0.91839254
184	0x3e8d5188	0.27601266
185	0x3e8794b0	0.26480627
186	0xbf03014e	-0.51173866
187	0x3e9b068c	0.30278432
188	0x3e08e3e7	0.13368188
189	0x3edc0579	0.42972925
190	0xbef7efcc	-0.48425138
191	0x3eadf090	0.33972597
192	0xbe8cfc9d	-0.2753648
193	0x3f10a7ef	0.56506246
194	0xbede90cc	-0.43469846
195	0x3d4437e6	0.04790487
196	0x3ed0af37	0.40758678
197	0x3e9a047a	0.3008154
198	0xbefb4462	-0.4907561
199	0x3eaa0bf8	0.33212256
200	0xbe2b09d3	-0.16702966
201	0x3edb65b8	0.42851043
202	0xbf009ecd	-0.5024231
203	0x3e779f2a	0.2418181
204	0xbe51c895	-0.20486672
205	0x3f205859	0.6263481
206	0xbec1fcb0	-0.37888098
207	0x3dc57822	0.09642054
208	0xbdd91cad	-0.106011726
209	0x3ee13746	0.43987483
210	0xbece3f6c	-0.40282762
211	0x3db71ecb	0.0894142

positional_encoding.emb.weight f4 [200, 4]
0	0x3f6ab987	0.9168934
1	0xbf7005ee	-0.9375905
2	0xbd49dc59	-0.049282406
3	0xbf071ecf	-0.52781385
4	0x3f7a14a6	0.97687757
5	0xbf9627dd	-1.1730915
6	0x3e0d6b73	0.1381052
7	0xbf0b559d	-0.5442751
8	0x3f8f764a	1.1207974
9	0xbfff4997	-1.9944333
10	0xbf275227	-0.6535973
11	0x3fd137af	1.6345118
12	0xbf0cfd54	-0.5507405
13	0x3f975ac1	1.1824571
14	0x3ff69b4f	1.9266146
15	0xbf903467	-1.1265992
16	0xbe2395f4	-0.15975171
17	0x3faea4da	1.3644059
18	0x3dee28e7	0.11628895
19	0xbf8f7a6d	-1.1209236
20	0x3f8f7262	1.1206782
21	0x3f789e35	0.97116405
22	0xbe75219f	-0.23938607
23	0xbefb0126	-0.49024314
24	0x3e170dfb	0.14751427
25	0xbf31bdd1	-0.6943026
26	0xbf9cea26	-1.2258956
27	0x3fef4d66	1.8695495
28	0x3ead552f	0.33854052
29	0xbf3704fb	-0.71491975
30	0x3e912eb1	0.28355935
31	0x3db53a6a	0.08849032
32	0xbfa33f89	-1.2753764
33	0xc024f6cc	-2.5775633
34	0xbfaac849	-1.3342372
35	0xc0027550	-2.0384102
36	0x3d86633f	0.065618984
37	0x3f55f9f0	0.835845
38	0xbee7d6da	-0.45281106
39	0xbf412066	-0.7544006
40	0x3f5b6798	0.85704947
41	0xbfef1e44	-1.8681111
42	0xbf9f041e	-1.2423131
43	0x3fdcba6c	1.7244391
44	0xbf8aa219	-1.0830718
45	0xbfcc5b8a	-1.5965436
46	0xbf73c8f0	-0.9522848
47	0xbf63a004	-0.8891604
48	0x3d9dd51c	0.07706663
49	0x3f0ce5ba	0.55038035
50	0xbf8542bd	-1.0410992
51	0xbdc45b9f	-0.09587788
52	0x3ec56cfc	0.3855971
53	0x3f561b25	0.8363517
54	0x3de713aa	0.112830475
55	0x3e3fa1c4	0.18714052
56	0x3efb0ebc	0.4903468
57	0xbf8a8e40	-1.0824661
58	0xbf0eb144	-0.55739236
59	0x3fe9e13d	1.8271862
60	0xc01b04f0	-2.4221764
61	0xbe138cfc	-0.1440925
62	0xbfeebaac	-1.8650718
63	0xc01bec7a	-2.4363084
64	0xbdfabc23	-0.122429155
65	0x3f960d28	1.1722765
66	0x3ed086f2	0.40727955
67	0xbe77e0bc	-0.24206823
68	0x3f944ea9	1.1586505
69	0x3f507438	0.81427336
70	0xbf509873	-0.8148262
71	0x3ea4be24	0.32176316
72	0xbf67e1ad	-0.9057873
73	0x3e019613	0.12654905
74	0xbf7db6ca	-0.9910704
75	0x3fe1d6fc	1.7643733
76	0x3e86ff4c	0.2636665
77	0xbf2ea333	-0.6821777
78	0xbfbfb221	-1.4976236
79	0xbe8dcacb	-0.2769378
80	0x3e9fb56a	0.31193095
81	0xbfd069d0	-1.6282291
82	0xbef7e4b0	-0.48416662
83	0xbff8f31d	-1.9449192
84	0xbf13747b	-0.5759961
85	0x3fb2e2ea	1.3975499
86	0x3e63c2e2	0.2224231
87	0x3d856d3d	0.06514976
88	0xbfb6c44d	-1.4278656
89	0x3f96256c	1.173017
90	0x3da342b7	0.07971709
91	0x3fdbe130	1.7178097
92	0xbfb2b1b5	-1.3960482
93	0x3f9757b8	1.1823645
94	0xbfb19bff	-1.3875731
95	0x3f1e20a3	0.6176855
96	0xbf94eb48	-1.1634302
97	0x3efab69b	0.48967442
98	0xbddb859f	-0.107188456
99	0xbfc0e8ff	-1.5071105
100	0x3ff1a971	1.8879834
101	0xbf5815ef	-0.8440847
102	0x4000de84	2.0135813
103	0x3f5871db	0.8454873
104	0xbff2bf8c	-1.8964705
105	0xbfa5f11c	-1.2964206
106	0x3e17a9a3	0.14810805
107	0xbf96f658	-1.1793928
108	0x3e6e825a	0.23291913
109	0x3f9f237a	1.2432702
110	0xb879bb00	-5.9540384e-05
111	0x3fd0652b	1.6280874
112	0x3d964e8e	0.07339202
113	0xbf30edbd	-0.6911276
114	0xbfe8ae0d	-1.8178116
115	0xbd82fa88	-0.06395441
116	0x3f142fa2	0.5788518
117	0x3fac0ca6	1.344136
118	0xbd5b4a1b	-0.05353747
119	0x3f261c68	0.64887094
120	0x3f09369f	0.5359897
121	0xbfb1fc43	-1.3905109
122	0xc01c85b1	-2.4456599
123	0x3f72f2fa	0.94902
124	0xbecf4cf4	-0.40488398
125	0x3ea61bfe	0.3244323
126	0x3e9cf6ba	0.30656987
127	0xbf9810d3	-1.1880134
128	0xbca103ed	-0.019655192
129	0xc01be72a	-2.4359841
130	0x3f995426	1.1978805
131	0xbff6d0dd	-1.928249
132	0x3ea561eb	0.32301268
133	0x3fdace9a	1.70943
134	0xbce68682	-0.02814031
135	0x3ee2f6b7	0.44328853
136	0xbea44afa	-0.32088453
137	0xbe582ccd	-0.2111084
138	0xc0485ab2	-3.1305356
139	0x3ff6cc15	1.9281031
140	0x3f9545b2	1.1661894
141	0xbf886ab1	-1.065756
142	0xbf1ecb3d	-0.62028867
143	0xbec45df3	-0.38352928
144	0x3fd7a2ba	1.6846535
145	0x3f4f418b	0.80959386
146	0x3e85c77a	0.2612875
147	0x3f8bbcc6	1.0916984
148	0x3fbedc47	1.4910973
149	0xbf31c3a1	-0.6943913
150	0xc0291363	-2.6418083
151	0xbe05512f	-0.1301925
152	0x3ec05569	0.37565163
153	0xbf5d03d2	-0.86333954
154	0xbe4d4ac8	-0.20048058
155	0x3fa8b151	1.3179113
156	0x400a3b1f	2.1598585
157	0x3ef0bb7b	0.47018036
158	0x3eb907d1	0.36138776
159	0x3d0934be	0.033497564
160	0x3fccce77	1.6000508
161	0x40085c05	2.1306164
162	0xc00966bc	-2.1468954
163	0x4010ac4a	2.2605157
164	0x3f117a15	0.5682691
165	0x3fbb1069	1.4614383
166	0x3eccfb57	0.40035507
167	0x3f0c2100	0.54737854
168	0x3f463f00	0.7743988
169	0xbfe5ef9b	-1.7963747
170	0x40211eb3	2.5174987
171	0x400a479f	2.1606214
172	0x3e0fb9df	0.14035748
173	0xbe0b20ca	-0.13586727
174	0xbf8e59a2	-1.1121104
175	0xc0047af0	-2.0700035
176	0xbf4e1e43	-0.80514926
177	0x4052a2de	3.2911906
178	0xbdc1eb4b	-0.09468707
179	0x3eff85e7	0.49906847
180	0x3f4dd681	0.8040543
181	0x40104880	2.254425
182	0x3f187e97	0.5956816
183	0x3f8b9b76	1.0906818
184	0x3e7183bb	0.23585407
185	0xbff6291d	-1.9231297
186	0x3f9c901d	1.223148
187	0x402dc883	2.7153633
188	0x3e7c0afc	0.24613565
189	0x3dd1d6bd	0.10246036
190	0x3ecaa56a	0.39579326
191	0xbf3c5906	-0.7357334
192	0x3f33f764	0.70299363
193	0x402cf182	2.7022405
194	0xbe3d5002	-0.18487552
195	0x3f72cd42	0.9484445
196	0x3fa4c6b0	1.2873135
197	0x40032fc1	2.0497897
198	0x3f2599b0	0.64687634
199	0x3f4d9d66	0.80318296
200	0xbf548e44	-0.8302958
201	0x3f00badc	0.50285125
202	0x3f6f56c5	0.93491775
203	0x3e6360b5	0.2220486
204	0x3ebd9a88	0.3703196
205	0x3f6de51c	0.9292772
206	0x3f0b518f	0.54421324
207	0x3e811b33	0.25216064
208	0xbed897a3	-0.4230319
209	0x403cf667	2.9525392
210	0x3fd0caa3	1.631184
211	0x3de87914	0.11351219
212	0x3fd992a9	1.6997882
213	0x40261c72	2.5954862
214	0xbc91d745	-0.017802844
215	0x3f933478	1.1500387
216	0xbfee7056	-1.8628032
217	0x3e5682f9	0.209484
218	0xbe92374f	-0.28557822
219	0xbe9c6c32	-0.30551296
220	0x3ffa3306	1.9546821
221	0x3f32cc78	0.69843245
222	0xbfe00e1c	-1.7504306
223	0xbf2866b8	-0.65781736
224	0xbed6cdf3	-0.41954002
225	0x404916d1	3.1420176
226	0x3f9faaca	1.2473996
227	0xbf6f342b	-0.93438977
228	0x3f51fa21	0.8202229
229	0x3e44d48b	0.19221704
230	0x3ffc9b4a	1.973489
231	0xbf865be6	-1.0496795
232	0xbf239fdf	-0.6391582
233	0x3d95ce0a	0.073146895
234	0xc067653d	-3.615554
235	0x40072882	2.1118474
236	0x3ed013e6	0.4064018
237	0xbfea2c22	-1.8294718
238	0xc00330cd	-2.0498536
239	0xbf92c751	-1.1467077
240	0x3fa64e14	1.2992578
241	0x3fda6190	1.7061024
242	0x4020aaed	2.5104325
243	0x3d2121eb	0.039338987
244	0x40177dc4	2.3670511
245	0x3fe12c2b	1.7591604
246	0x3f2f7014	0.6853039
247	0x3f14c68f	0.58115476
248	0x3efcc34d	0.49367753
249	0xbfa57039	-1.2924873
250	0xbeb1941c	-0.3468331
251	0x4006251f	2.0960157
252	0x3f316303	0.69291705
253	0x406a104c	3.6572447
254	0xbfca0395	-1.5782343
255	0x3f34720e	0.70486534

encoder_layer.self_attn.in_proj_weight f4 [12, 4]
0	0x3e394718	0.18093526
1	0xbee02378	-0.4377706
2	0xbe83402b	-0.25634894
3	0xbe8462db	-0.2585667
4	0xbe3187be	-0.17336938
5	0x3e96cd98	0.2945373
6	0xbf0a3340	-0.5398445
7	0xbe27e8be	-0.16397378
8	0x3f011ca5	0.50434333
9	0xbeeab718	-0.45842814
10	0x3ed63c1e	0.4184274
11	0xbf18e4b9	-0.59724003
12	0x3ee7751e	0.4520654
13	0x3f10278f	0.5631036
14	0xbf01b99b	-0.50673836
15	0xbeea76b8	-0.457937
16	0xbeed4ed0	-0.46349192
17	0xbcc34c40	-0.02384007
18	0x3e4e93f8	0.20173633
19	0x3f0eac3f	0.55731577
20	0xbea56951	-0.32306913
21	0xbed4d988	-0.41572213
22	0xbf09cc7f	-0.5382766
23	0xbea7d8b1	-0.3278251
24	0xbf12cc9b	-0.57343453
25	0x3f12857f	0.5723495
26	0x3eeab962	0.4584456
27	0xbe54cf5a	-0.20782223
28	0x3e591568	0.21199572
29	0x3d5197c0	0.05117011
30	0xb9bb0000	-0.0003566742
31	0x3e7fe2e0	0.2498889
32	0xbcd278e0	-0.025692403
33	0xbe8cd2f8	-0.27504706
34	0x3d6fb7a0	0.058524728
35	0xbf046c0b	-0.5172736
36	0x3ecbb406	0.39785784
37	0xbcfc3340	-0.030786157
38	0x3dfe95d8	0.12430924
39	0xbf07c61f	-0.53036684
40	0x3ed7a0da	0.42114908
41	0xbd201010	-0.03907782
42	0x3dfd9f38	0.12383884
43	0x3e342978	0.17593944
44	0xbf0d839d	-0.5527895
45	0x3d3ce0a0	0.046112657
46	0x3e8f5fce	0.2800278
47	0x3ec86f6a	0.39147502

encoder_layer.self_attn.in_proj_bias f4 [12]
0	0x00000000	0.0
1	0x00000000	0.0
2	0x00000000	0.0
3	0x00000000	0.0
4	0x00000000	0.0
5	0x00000000	0.0
6	0x00000000	0.0
7	0x00000000	0.0
8	0x00000000	0.0
9	0x00000000	0.0
10	0x00000000	0.0
11	0x00000000	0.0

encoder_layer.self_attn.out_proj.weight f4 [4, 4]
0	0x3e9fa0e2	0.3117743
1	0xbe817b58	-0.25289416
2	0xbcafa8a0	-0.021442711
3	0x3e996c90	0.2996564
4	0xbec5f346	-0.38662165
5	0x3db6c158	0.08923596
6	0x3ee30a12	0.4434362
7	0xbee6f83a	-0.45111257
8	0xbe52499c	-0.20535892
9	0xbda49458	-0.08036107
10	0xbefdfaf8	-0.49605536
11	0xbe8afbf2	-0.27145344
12	0xbd8d2d78	-0.06893438
13	0x3e2b5cd8	0.16734636
14	0xbe94081c	-0.28912437
15	0x3e5298c8	0.20566094

encoder_layer.self_attn.out_proj.bias f4 [4]
0	0x00000000	0.0
1	0x00000000	0.0
2	0x00000000	0.0
3	0x00000000	0.0

encoder_layer.linear1.weight f4 [16, 4]
0	0xbebf1020	-0.3731699
1	0xbe839d6c	-0.2570604
2	0x3e829ade	0.2550878
3	0x3eca93ea	0.39565974
4	0x3e7f51e0	0.24933577
5	0xbda911e8	-0.082553685
6	0x3ed7df50	0.4216256
7	0x3ee8461a	0.45365983
8	0xbd6623f0	-0.056186616
9	0xbef1012a	-0.470712
10	0x3dcd91f0	0.10037601
11	0x3ec0c4c4	0.3765012
12	0x3e5aa620	0.21352434
13	0x3ec9f84a	0.39447242
14	0x3ecf8b50	0.40535975
15	0x3e008948	0.12552369
16	0xbee54cbc	-0.44785106
17	0xbe0bc50c	-0.13649386
18	0xbed4a70a	-0.4153369
19	0xbd41a660	-0.04727781
20	0x3ea2833a	0.31740743
21	0xbed3fe24	-0.4140483
22	0xbebbe9e8	-0.36701894
23	0x3ea470a4	0.32117188
24	0x3e955e58	0.2917354
25	0xbe92386c	-0.2855867
26	0xbd9e5b60	-0.07732272
27	0x3ecc2ffc	0.3988036
28	0xbee0a282	-0.43873984
29	0xbeae888a	-0.34088546
30	0xbe781370	-0.24226165
31	0x3ef85dac	0.48508966
32	0x3e7d6ba8	0.24748099
33	0xbea56578	-0.32303977
34	0xbe962352	-0.29323822
35	0x3e8b1f8e	0.27172512
36	0xbe3e3154	-0.18573505
37	0xbe7e19bc	-0.24814504
38	0xbe962382	-0.29323965
39	0xbda75f48	-0.0817247
40	0x3e8f02a2	0.27931696
41	0x3ba2ef80	0.0049723983
42	0xbee4269c	-0.44560707
43	0xbd049d10	-0.03237635
44	0xbc7b9140	-0.0153544545
45	0xbc34e9c0	-0.0110420585
46	0x3e2e8b24	0.17045265
47	0xbd5c9aa0	-0.0538584
48	0x3be71180	0.0070516467
49	0xbedb0622	-0.42778116
50	0xbe99b18e	-0.30018276
51	0xbe960f0c	-0.29308355
52	0xbeb7755e	-0.35831732
53	0x3ecca8c0	0.39972496
54	0xbee2a5b8	-0.44267058
55	0x3d973e60	0.07384944
56	0xbeaf94be	-0.3429317
57	0xbec344d2	-0.38138443
58	0x3e703d48	0.23460877
59	0xbd8aa390	-0.06769478
60	0xbdd11810	-0.10209668
61	0x3eb461d0	0.35230875
62	0xbe8cfb58	-0.2753551
63	0x3e17bd3c	0.14818281

encoder_layer.linear1.bias f4 [16]
0	0xbed36a2e	-0.41291946
1	0xbe711394	-0.23542625
2	0x3ea33930	0.31879568
3	0x3ef4f9be	0.47846788
4	0xbeefb124	-0.46814835
5	0x3ccdb4a0	0.025110543
6	0x3b66cd00	0.0035217404
7	0x3dbaaf50	0.091154695
8	0xbe90d80e	-0.28289837
9	0x3eb15786	0.34637088
10	0x3efb74c4	0.49112523
11	0xbe4c728c	-0.19965571
12	0xbe6b3b54	-0.2297185
13	0x3ec5fd08	0.3866961
14	0x3eb87a00	0.3603058
15	0x3ea6c146	0.3256933

encoder_layer.linear2.weight f4 [4, 16]
0	0xbe69e4aa	-0.22841135
1	0x3e1c01ec	0.15235108
2	0xbdd74794	-0.10511699
3	0x3e059498	0.13044965
4	0xbe538f8c	-0.20660228
5	0x3e3ee42a	0.18641725
6	0xbd334690	-0.043768466
7	0xbd1ee1f8	-0.03878972
8	0x3e5843e6	0.21119651
9	0xbd8aeffc	-0.06784055
10	0x3d949edc	0.072568625
11	0xbe2e4134	-0.1701706
12	0x3e52eb62	0.20597604
13	0x3e17baf4	0.1481741
14	0x3cc2b3d0	0.023767382
15	0xbe4f03a4	-0.20216233
16	0x3e7adbfc	0.2449798
17	0x3dc663b8	0.096869886
18	0x3e7d63a4	0.24745041
19	0xbe7c417a	-0.24634352
20	0x3d2afc78	0.04174468
21	0xbd9ad878	-0.075608194
22	0xbe1f49d0	-0.15555501
23	0xbc021d80	-0.007941604
24	0x3e2b3070	0.16717696
25	0x3e5163ae	0.20448181
26	0xbe538b5a	-0.20658627
27	0x3d59e348	0.053195268
28	0xbd117ff0	-0.0355224
29	0xbce7f330	-0.028314203
30	0x3d0fc158	0.035096496
31	0xbe0bf64c	-0.13668174
32	0x3e2bbf1e	0.16772124
33	0x3e5119ce	0.2042
34	0x3e3c7c5c	0.18406814
35	0x3df2f9cc	0.11864051
36	0x3d532cb0	0.05155629
37	0x3e050638	0.12990654
38	0xbcfbde40	-0.030745625
39	0xbc660160	-0.014038414
40	0xbe02323a	-0.12714472
41	0xbe12ef1a	-0.14349023
42	0xbe641e46	-0.22277173
43	0x3bbb8400	0.0057225227
44	0xbdefd924	-0.11711338
45	0x3e22de04	0.15905005
46	0xbc901e90	-0.017592698
47	0xbe34ff1c	-0.17675442
48	0x3da7c3b4	0.08191624
49	0x3e59b5d2	0.21260765
50	0x3db6f00c	0.08932504
51	0xbcdd3d80	-0.027006865
52	0xbd674cb0	-0.05646962
53	0xbe2ad4be	-0.16682717
54	0x3e719746	0.23592862
55	0xbdbc7960	-0.09202838
56	0xbdd2edb4	-0.102992445
57	0xbd9bdbf0	-0.07610309
58	0x3e2b4f86	0.16729555
59	0x3df36664	0.11884764
60	0x3e0da682	0.13833049
61	0x3b20ab80	0.0024516284
62	0xbd984e54	-0.07436815
63	0x3e5dad4c	0.21648139

encoder_layer.linear2.bias f4 [4]
0	0xbe7716d6	-0.24129805
1	0x3c420740	0.011842549
2	0x3e7f0bac	0.24906796
3	0x3e165fd6	0.14684996

encoder_layer.norm1.weight f4 [4]
0	0x3f800000	1.0
1	0x3f800000	1.0
2	0x3f800000	1.0
3	0x3f800000	1.0

encoder_layer.norm1.bias f4 [4]
0	0x00000000	0.0
1	0x00000000	0.0
2	0x00000000	0.0
3	0x00000000	0.0

encoder_layer.norm2.weight f4 [4]
0	0x3f800000	1.0
1	0x3f800000	1.0
2	0x3f800000	1.0
3	0x3f800000	1.0

encoder_layer.norm2.bias f4 [4]
0	0x00000000	0.0
1	0x00000000	0.0
2	0x00000000	0.0
3	0x00000000	0.0

encoder.layers.0.self_attn.in_proj_weight f4 [12, 4]
0	0x3ee5ace5	0.4485847
1	0xbe40185b	-0.18759291
2	0xbf020d76	-0.5080179
3	0x3db760c0	0.089540005
4	0x3f42b9bd	0.76064664
5	0x3f57e3f4	0.84332204
6	0xbf310909	-0.6915441
7	0xbf8af104	-1.0854802
8	0x3ea02797	0.31280205
9	0xbde493a2	-0.11160971
10	0x3fdb7383	1.7144626
11	0xbe02d828	-0.1277777
12	0x3ec06598	0.3757751
13	0x3f5a17da	0.85192645
14	0x3ddf90c0	0.10916281
15	0xbf80f13c	-1.0073619
16	0xbeff45a9	-0.49857834
17	0x3d1b3dca	0.037900724
18	0xbf9d8ecf	-1.2309207
19	0x3f0e715b	0.55641717
20	0xbf476f0b	-0.77903813
21	0xbfad22b2	-1.3526213
22	0xbf026f19	-0.5095077
23	0x3e3c9236	0.1841515
24	0xbeefb779	-0.46819666
25	0xbf0fcaf5	-0.5616906
26	0x3fb55a99	1.4168273
27	0x3ed1cabf	0.40974995
28	0x3e83ba76	0.25728196
29	0xbd3d9969	-0.04628888
30	0x3ed5bcfa	0.4174574
31	0xbf4cb7ab	-0.79967755
32	0x3f567710	0.83775425
33	0x3f418d54	0.75606275
34	0xbf1a62e1	-0.6030713
35	0xbf64e3e8	-0.8941026
36	0x3e9f47d3	0.31109485
37	0xbf6758c7	-0.9036984
38	0xbe0eede9	-0.13957943
39	0xbfbfbaca	-1.4978878
40	0x3d6d69fc	0.057962403
41	0x3e80aae1	0.2513037
42	0x3f79d49e	0.97590053
43	0xbf2f240c	-0.6841438
44	0xbf6d403f	-0.92676157
45	0xbf4eeaa0	-0.8082676
46	0x3eeca743	0.4622136
47	0x3f30dbaf	0.6908521

encoder.layers.0.self_attn.in_proj_bias f4 [12]
0	0xbf985091	-1.1899587
1	0xbed3e780	-0.41387558
2	0xbf0a7b1f	-0.5409412
3	0x3f63d508	0.88996935
4	0xbc9d26a7	-0.01918347
5	0x3da6aa23	0.0813792
6	0x3d9f3c59	0.07775182
7	0x3a3f4eb3	0.0007297799
8	0xbf0f82dc	-0.5605905
9	0xbf4beb10	-0.7965555
10	0x3d895955	0.06706492
11	0xbf246771	-0.6422034

encoder.layers.0.self_attn.out_proj.weight f4 [4, 4]
0	0x3eda36dc	0.4261998
1	0x3f60ca0e	0.8780831
2	0x3f59fea3	0.8515417
3	0xbe948436	-0.2900712
4	0x3f6bd5aa	0.921229
5	0x3f628e47	0.8849835
6	0x3fbb5d69	1.4637882
7	0xbf7b0494	-0.9805386
8	0xbf11aee0	-0.56907463
9	0xbf58f13f	-0.8474311
10	0xbf753149	-0.9577833
11	0x3dd8927a	0.10574813
12	0xbf23e5b8	-0.640224
13	0xbf063823	-0.5242941
14	0xbf019d8e	-0.50631034
15	0x3f1fbab3	0.62394255

encoder.layers.0.self_attn.out_proj.bias f4 [4]
0	0x3f8ca346	1.0987327
1	0x3f7d7528	0.9900689
2	0xc00aac06	-2.1667495
3	0xbebacd15	-0.3648459

encoder.layers.0.linear1.weight f4 [16, 4]
0	0xbf620742	-0.88292325
1	0xbe3fd104	-0.18732077
2	0x3f8244e2	1.0177271
3	0x3dfaceb7	0.12246459
4	0x3e3dab0a	0.18522277
5	0x3dc7d1c4	0.097568065
6	0x3e252dce	0.16130754
7	0x3db85d46	0.090021655
8	0x3dc0d136	0.09414904
9	0xbf3b28a0	-0.73108864
10	0x3f304e81	0.6886979
11	0xbf02ab29	-0.5104242
12	0x3e5bb166	0.21454391
13	0x3f48ec5d	0.7848566
14	0x3c2ab94a	0.010420153
15	0xbeaef033	-0.34167632
16	0xbea5f685	-0.32414642
17	0xbe68ee40	-0.22747135
18	0xbea70e76	-0.3262822
19	0xbe17fd2a	-0.14842668
20	0xbd8cae47	-0.06869178
21	0x3f11affa	0.56909144
22	0xbeee3ec8	-0.46532273
23	0xbf372b32	-0.71550286
24	0x3dcefefa	0.10107227
25	0xbeec51d7	-0.4615619
26	0x3eea6a41	0.4578419
27	0x3d576cd0	0.052594006
28	0xbec82a6b	-0.39094862
29	0xbec8ffb0	-0.39257574
30	0x3d3c0827	0.045906212
31	0xbd8e3e44	-0.0694547
32	0x3ea13b29	0.31490448
33	0xbf17a3ec	-0.592345
34	0x3eba4772	0.36382633
35	0xbe32490c	-0.17410678
36	0x3d9ede4d	0.07757244
37	0x3cadb879	0.021206127
38	0xbeaeb8f6	-0.3412549
39	0xbf5af672	-0.85532296
40	0x3e9a9af8	0.30196357
41	0xbedb1b50	-0.42794275
42	0x3e0b7695	0.13619454
43	0xbf1ab228	-0.60428095
44	0x3d926726	0.0714858
45	0x3da9a3b7	0.08283179
46	0x3d9d15c3	0.07670166
47	0x3d21293f	0.039345976
48	0xbe6de6f4	-0.23232633
49	0xbeed2f71	-0.46325257
50	0xbc3ec9a1	-0.011644752
51	0xbe477506	-0.19478235
52	0xbe2fc0e5	-0.17163427
53	0x3f1f5dbd	0.6225241
54	0xbf054a5a	-0.52066576
55	0xbf5f9643	-0.87338656
56	0x3e20fdbd	0.15721793
57	0xbed777de	-0.4208364
58	0x3e7d6fe5	0.24749716
59	0xbf24fc02	-0.64447033
60	0x3e85465f	0.2603025
61	0x3c882fbb	0.016624322
62	0x3e39f40e	0.18159506
63	0xbdecb512	-0.11557974

encoder.layers.0.linear1.bias f4 [16]
0	0xbf59c9d7	-0.8507361
1	0xbf0607eb	-0.5235583
2	0x3ddaafe1	0.106780775
3	0xbd8ebadb	-0.069692336
4	0xbf0fe6ea	-0.5621172
5	0xbdd75e6b	-0.10516056
6	0xbed3ae94	-0.4134413
7	0xbe924eef	-0.28575847
8	0xbedd537a	-0.4322775
9	0x3ebee4ac	0.37283838
10	0x3e192555	0.14955647
11	0xbe955e24	-0.29173386
12	0xbedc918b	-0.4307979
13	0xbda2b7df	-0.07945227
14	0x3ec42107	0.38306448
15	0xbe2dfa41	-0.16989996

encoder.layers.0.linear2.weight f4 [4, 16]
0	0xbf0d8d00	-0.55293274
1	0x3e6ba11a	0.23010674
2	0x3e5f10bc	0.21783727
3	0x3bef8e6b	0.0073106787
4	0xbddf2171	-0.1089505
5	0x3e801935	0.2501923
6	0xbc30a91e	-0.010782508
7	0xbe060472	-0.13087633
8	0xbe7f2fb8	-0.24920547
9	0x3e184d66	0.14873275
10	0x3e2c903c	0.16851896
11	0xbdaa4f69	-0.083159275
12	0x3d93de06	0.07220082
13	0x3e4d9d46	0.20079526
14	0xbcd68f96	-0.026191514
15	0x3cc59568	0.024119094
16	0xbdb35971	-0.08757294
17	0x3e990cac	0.2989248
18	0x3f3c77b1	0.73620135
19	0xbd4da02c	-0.05020158
20	0x3e07ff6d	0.13281031
21	0x3e04b768	0.12960589
22	0x3ed877ea	0.42278987
23	0xbdd72062	-0.105042234
24	0x3eb1fa2d	0.3476118
25	0x3ea7d0cb	0.32776484
26	0x3d36d8f8	0.04464051
27	0x3e0e4439	0.13893212
28	0x3e6214dd	0.22078271
29	0x3e391836	0.18075642
30	0x3e475e48	0.19469559
31	0x3d1bafff	0.03800964
32	0x3ef896ee	0.4855265
33	0xbc92be78	-0.017913088
34	0xbdcd753c	-0.10032126
35	0xbde7f205	-0.113254584
36	0xbd30d5b6	-0.04317256
37	0xbe334679	-0.17507352
38	0x3b07d723	0.0020727597
39	0xbd33aa70	-0.043863714
40	0xbca01fa6	-0.019546341
41	0xbe6e3745	-0.23263271
42	0xbe85bec4	-0.26122105
43	0xbda73b88	-0.081656516
44	0xbe331f2a	-0.17492357
45	0xbdc98446	-0.09839682
46	0xbea46764	-0.3211013
47	0xbdd187a8	-0.102309525
48	0x3de92ee1	0.113858946
49	0x3e04a24b	0.12952535
50	0x39ccedf0	0.0003908719
51	0xbe915bb3	-0.28390273
52	0xbe183790	-0.14864945
53	0xbeec61ac	-0.46168268
54	0xbd4789c9	-0.048715387
55	0x3d9f01b2	0.07763995
56	0x3e53509e	0.20636222
57	0xbf09572f	-0.53648657
58	0xbe52174b	-0.20516698
59	0x3d0639ba	0.032769896
60	0x3ea31396	0.3185088
61	0xbeb5bcde	-0.35495657
62	0xbde8f9f3	-0.11375799
63	0xbdf62a94	-0.1201984

encoder.layers.0.linear2.bias f4 [4]
0	0xbb15df85	-0.0022868824
1	0xbe29441f	-0.16529892
2	0x3cd885f5	0.026431063
3	0x3e505822	0.2034612

encoder.layers.0.norm1.weight f4 [4]
0	0x3f29bacc	0.66300654
1	0x3f2b514b	0.6692092
2	0x3f99a84a	1.2004483
3	0x4017457b	2.3636158

encoder.layers.0.norm1.bias f4 [4]
0	0x3e868808	0.2627566
1	0x3e9f5fd4	0.311278
2	0xbf01733e	-0.5056647
3	0xbc5de175	-0.013542523

encoder.layers.0.norm2.weight f4 [4]
0	0x3f9ef960	1.2419853
1	0x3f16882d	0.5880154
2	0x3f27c8d4	0.65540814
3	0x3f491c73	0.78559035

encoder.layers.0.norm2.bias f4 [4]
0	0x3efb2dd5	0.49058405
1	0x3edce7d2	0.43145615
2	0xbe8ac452	-0.27102906
3	0xbeba25f2	-0.36357075

encoder.layers.1.self_attn.in_proj_weight f4 [12, 4]
0	0x3cbac132	0.0227972
1	0xbf94a4b7	-1.1612767
2	0xbeded780	-0.43523788
3	0x3e69ee2b	0.2284476
4	0x3e21ecca	0.15812984
5	0x3f20162b	0.62533826
6	0xbf5928e1	-0.84828
7	0xbda83c54	-0.08214632
8	0xbdb1251d	-0.08649657
9	0x3dbf9f98	0.09356612
10	0x3ec1c345	0.3784429
11	0xbed435f0	-0.414474
12	0x3f16ac7f	0.5885696
13	0x3eb0d7e4	0.3453971
14	0xbf4f0cb0	-0.80878735
15	0xbde4df43	-0.11175396
16	0xbf25fc8a	-0.6483847
17	0x3e7715bc	0.24129385
18	0x3ed67ba4	0.41891205
19	0x3ed02d0f	0.40659377
20	0xbf5f968d	-0.873391
21	0xbed3d5f4	-0.4137417
22	0xbe2cf60d	-0.16890736
23	0x3d822b58	0.063559234
24	0xbd62fab8	-0.055414885
25	0x3f042464	0.5161803
26	0xbe6f5ebc	-0.23375982
27	0xbf0f3620	-0.55941963
28	0xbe4e59fc	-0.20151514
29	0xbe932405	-0.28738418
30	0x3facaeb7	1.3490819
31	0x3f1081b9	0.5644794
32	0x3ca745fe	0.020419117
33	0xbd77be07	-0.06048396
34	0xbccd0c87	-0.025030388
35	0xbf66d17a	-0.90163386
36	0x3f3297df	0.69762987
37	0x3ddca738	0.10774082
38	0xbd627ccd	-0.0552948
39	0xbf215097	-0.63013595
40	0xbd66b205	-0.056322116
41	0xbe7ca916	-0.24673876
42	0x3e937192	0.28797585
43	0x3f3c8b98	0.73650503
44	0xbf0d2ccd	-0.55146486
45	0x3e3dfbd4	0.18553096
46	0x3e8ceb8f	0.27523467
47	0x3e81d44f	0.2535729

encoder.layers.1.self_attn.in_proj_bias f4 [12]
0	0x3eedec9a	0.46469575
1	0x3f0aab11	0.54167277
2	0xbeb3cdfd	-0.35118094
3	0x3f6037a1	0.8758488
4	0x3a83558d	0.0010020003
5	0x3cab8af1	0.020940276
6	0xbae03eb9	-0.0017108537
7	0x3baeb9b7	0.0053321975
8	0xbeccb27a	-0.39979917
9	0xbeb2ee4c	-0.3494743
10	0x3edbd2a6	0.4293415
11	0x3ec05aa8	0.37569165

encoder.layers.1.self_attn.out_proj.weight f4 [4, 4]
0	0xbaa7e2d2	-0.0012808687
1	0xbe8abf8b	-0.2709926
2	0x3d7e5361	0.062091235
3	0x3ea97177	0.3309438
4	0xbe705994	-0.23471671
5	0xbeb4da1c	-0.35322654
6	0x3eb02604	0.34404004
7	0xbca1dafe	-0.019757744
8	0x3ec60cd5	0.38681665
9	0x3e1819c0	0.14853573
10	0xbf35d1c0	-0.7102318
11	0xbd047e17	-0.03234681
12	0x3c4c71bc	0.012478288
13	0x3e6584af	0.22413896
14	0xbc1f5e57	-0.009727082
15	0xbeb9e8cc	-0.36310422

encoder.layers.1.self_attn.out_proj.bias f4 [4]
0	0x3e151045	0.14556988
1	0x3eb3a9da	0.35090524
2	0xbee2e515	-0.443154
3	0xbe53b3d7	-0.20674072

encoder.layers.1.linear1.weight f4 [16, 4]
0	0xbe08552d	-0.13313742
1	0xbf8c8952	-1.0979407
2	0x3e44dcf3	0.1922491
3	0x3f807300	1.0035095
4	0x3e4bd309	0.19904722
5	0xbd8a22ce	-0.0674492
6	0x3ee8dcc9	0.45480946
7	0x3eaec9c8	0.34138322
8	0x3d90de9a	0.07073708
9	0xbf6f6304	-0.9351046
10	0x3f437d78	0.76363325
11	0x3d64b68a	0.055838145
12	0x3e580837	0.21096884
13	0xbe44e5c3	-0.19228272
14	0x3f815a61	1.0105706
15	0x3e054c0d	0.13017292
16	0xbeb56939	-0.3543184
17	0xbea6849e	-0.32523054
18	0xbe9a9f2b	-0.3019956
19	0xbe20486c	-0.15652627
20	0x3ddc762b	0.10764726
21	0xbf41d0c0	-0.7570915
22	0x3eb6cfeb	0.35705504
23	0xbe91814f	-0.28418967
24	0x3da28965	0.07936362
25	0xbe0ee37f	-0.1395397
26	0x3e538327	0.206555
27	0x3dfebdc9	0.124385424
28	0xbe25505b	-0.16143934
29	0xbf89e4a9	-1.0772907
30	0xbd55417a	-0.052064396
31	0x3f79113b	0.97291917
32	0x3d5d9551	0.054097477
33	0xbf2409df	-0.6407756
34	0x3eaae1b3	0.3337532
35	0xbec5e7dd	-0.3865346
36	0x3e9b490f	0.30329177
37	0xbf30a5f4	-0.69003224
38	0x3ec07980	0.37592697
39	0xbed4eee9	-0.41588524
40	0xbe972d65	-0.2952682
41	0x3d195bb3	0.037440967
42	0x3e41003d	0.18847747
43	0xbed41f5b	-0.41430172
44	0x3db1d8e2	0.08683945
45	0x3da4c434	0.08045235
46	0x3d9a3310	0.07529271
47	0x3d2e464e	0.042547517
48	0xbdd5cfe4	-0.104400426
49	0xbf00d8a0	-0.50330544
50	0x3f1cd8ae	0.61268127
51	0xbf3c3f0b	-0.73533696
52	0xbd4dca48	-0.05024174
53	0xbe77fd8a	-0.24217811
54	0x3ea39fa0	0.31957722
55	0xbe4f6e9c	-0.20257038
56	0xbe16270f	-0.14663337
57	0xbf74860d	-0.95517045
58	0x3f43a610	0.76425266
59	0xbef1865a	-0.47172815
60	0xbdf3e715	-0.1190931
61	0x3cf4201f	0.029800473
62	0x3ebfcd85	0.37461486
63	0xbec1a8e3	-0.37824163

encoder.layers.1.linear1.bias f4 [16]
0	0xbdb93fe9	-0.09045393
1	0xbef2414d	-0.47315446
2	0x3e2c96e2	0.16854432
3	0x3db217ca	0.08695944
4	0xbf223cfe	-0.63374317
5	0xbefae261	-0.49000838
6	0xbe9825a7	-0.29716226
7	0x3e8e2cfe	0.277687
8	0xbf1bc295	-0.60843784
9	0x3e85557b	0.2604178
10	0x3e932727	0.28740808
11	0xbe961d28	-0.2931912
12	0xbecc6744	-0.39922535
13	0xbe41f657	-0.18941627
14	0x3e6c82da	0.23096791
15	0xbd96b516	-0.07358758

encoder.layers.1.linear2.weight f4 [4, 16]
0	0xbee89f06	-0.45433825
1	0x3e87ad0d	0.26499215
2	0xbe6299fe	-0.22129056
3	0x3d5b0e13	0.05348022
4	0xbe022420	-0.12709093
5	0x3e7f988d	0.24960537
6	0x3db3dba7	0.0878213
7	0xbeb64640	-0.35600471
8	0x3e441c84	0.19151503
9	0x3e814d09	0.25254086
10	0x3dd880e0	0.10571456
11	0xbda8b8f3	-0.08238401
12	0x3ecd5e21	0.40110877
13	0x3d4cce5c	0.050001487
14	0xbc403930	-0.011732385
15	0x3c595ab0	0.0132662505
16	0xbeb4351a	-0.35196763
17	0x3e41ba39	0.18918695
18	0x3f03e5e9	0.5152269
19	0x3e16d8dd	0.14731164
20	0x3e12190b	0.14267366
21	0x3e018de5	0.12651785
22	0xbd45fe95	-0.04833849
23	0xbf03b95c	-0.5145471
24	0x3e9f56f5	0.3112103
25	0x3eb12399	0.3459747
26	0xbe606483	-0.21913342
27	0x3e12ebc8	0.14347756
28	0x3d8478ea	0.06468375
29	0x3e166422	0.14686635
30	0x3ec041e8	0.37550282
31	0xbdc0fc46	-0.09423117
32	0x3ee91bad	0.45528927
33	0x3ecd73a8	0.401273
34	0x3b879767	0.0041379216
35	0xbe207a9e	-0.15671775
36	0xbd35d2c8	-0.04439047
37	0x3d54e148	0.051972657
38	0xbc4d5c1c	-0.012534168
39	0x3eac6f38	0.33678603
40	0xbe500013	-0.20312528
41	0xbebe8dce	-0.37217563
42	0xbe113b5b	-0.14182799
43	0xbdc2fd0d	-0.09520922
44	0xbed35e15	-0.41282716
45	0xbd39c411	-0.045353
46	0xbeab17b6	-0.33416528
47	0xbe79a192	-0.2437804
48	0x3eb49182	0.35267264
49	0x3da78042	0.0817876
50	0xbdc15f9e	-0.09442066
51	0xbe0ce691	-0.13759829
52	0xbe1fc574	-0.15602666
53	0xbe874b39	-0.26424578
54	0x3d41d55a	0.04732261
55	0x3edee0e9	0.43530968
56	0xbe8fd405	-0.28091446
57	0xbe952f5b	-0.29137692
58	0x3e08ee0b	0.13372056
59	0x3d02630b	0.031832736
60	0xbdefef96	-0.11715619
61	0xbcbb476c	-0.022861205
62	0xbe74fe10	-0.23925042
63	0x3d8934bf	0.06699514

encoder.layers.1.linear2.bias f4 [4]
0	0x3da450ad	0.080232
1	0x3db328a2	0.087479845
2	0xbce61228	-0.02808483
3	0xbcc8450d	-0.024446988

encoder.layers.1.norm1.weight f4 [4]
0	0x3fe53878	1.7907858
1	0x3fd6084e	1.6721284
2	0x3f6e0727	0.92979664
3	0x3f9f2f4b	1.2436308

encoder.layers.1.norm1.bias f4 [4]
0	0x3ead98ac	0.33905542
1	0x3efc8cf0	0.49326277
2	0xbedf0f84	-0.43566525
3	0xbeb65030	-0.35608053

encoder.layers.1.norm2.weight f4 [4]
0	0x3fae21e8	1.3604097
1	0x3f95b2cd	1.1695191
2	0x3f531b4d	0.8246353
3	0x3f90400b	1.1269544

encoder.layers.1.norm2.bias f4 [4]
0	0xbee3ca78	-0.4449041
1	0xbe778645	-0.24172314
2	0x3f1d459b	0.61434335
3	0x3f60cf8a	0.8781668

output_layer.weight f4 [2, 4]
0	0x3f20bc72	0.62787545
1	0x3f1a7825	0.60339576
2	0x3db2389f	0.08702206
3	0xbe6d2fab	-0.23162715
4	0xbee5fe7b	-0.44920716
5	0xbdc28fbd	-0.09500072
6	0x3f291070	0.66040707
7	0x3f214ede	0.63010967

output_layer.bias f4 [2]
0	0x3ed81d52	0.4220987
1	0x3d94fd4a	0.072748736
