checkpoints/RiffleOnlyShuffle_6rp_4l_best_model.pth (torch, 32774 bytes, 64 tensors)

embedding_layer.weight f4 [53, 4]
00000000: dfe2 26bf 2070 0a40 9ef3 70c0 0293 0340
00000010: b504 3abe 1d07 f83e 44bc ab3e 36c3 6ebf
00000020: 0071 8fbe 066c 523e dc41 793e e161 9bbf
00000030: dfb9 12bf b66c 6ebe 141b 86bd 5b5c c3bf
00000040: e83e 29be 0cf3 133f 9567 053f 5a7d 5cbf
00000050: 1aa6 59bd 0067 3f3f 7a88 143f e04f 56bf
00000060: 6490 dfbe 6616 923e 38b8 7c3e 9c38 96bf
00000070: fbb1 85be 4bf9 153e 9c4d 7a3e 5d40 a1bf
00000080: e4c3 b5be ed71 1e3f 6ea4 d63e b6b8 83bf
00000090: ade5 63be 734c 943e 349a a43e ed77 8cbf
000000a0: 12b7 8dbe da7f ad3e 0281 a13e 073f 88bf
000000b0: 6685 b9be ecb1 9b3d 185f 153e 02e1 9fbf
000000c0: 20a3 cdbe 4f96 563e b5b0 893e 97cf 90bf
000000d0: b6d4 96be 90cc 263f eaad 073f a9eb 6bbf
000000e0: de1c 28be 4452 ca3e 5022 073f 5dd1 7fbf
000000f0: 39ea 143e 80f8 653f 4db1 453f 0c1b 33bf
00000100: e926 30bd ce9c 3f3f ed21 2f3f 4dfc 6ebf
00000110: 9ec1 22bf 36fe a0bd 45fc 82bc a433 bdbf
00000120: 6853 22bf 8ebb 91be 57a9 81bd c2c8 c0bf
00000130: 307d 90be e2be 193f 67a0 c63e 1f1b 71bf
00000140: 6690 dbbe 9961 843e b7c2 223e 37f8 94bf
00000150: 7bd6 93be a344 223f fcf8 e43e baa0 5cbf
00000160: d1ef 43bb ac8a 5c3f 3724 103f 3277 3cbf
00000170: 0fee 28bf 1833 bd3c db6b 963d d761 a6bf
00000180: c9da e4be c20c 8f3e 8772 d53e f7e8 99bf
00000190: a138 77be cdb1 0a3f b769 c83e 65b5 84bf
000001a0: 11e0 6fbe f6cd 1c3f 90e0 013f c7cc 77bf
000001b0: 2bc1 3fbf e6ca 57be f4c0 22be 4e42 b8bf
000001c0: 803e 8abe 1c6e b13e 91af b93e abd7 88bf
000001d0: f0df 103e 80be 653f b2f8 233f 1ef3 3dbf
000001e0: 81c1 46be 6190 c73e 5f29 ec3e c73b 85bf
000001f0: 0e52 afbc 70c1 2a3f e1c2 003f 0f4d 5ebf
00000200: 932e 2dbf c1c8 73bd 16a2 2bbc b72a b9bf
00000210: 27e0 29be af7f 053f 4c7d fd3e e261 82bf
00000220: 6e96 8cbe edfd 873e d800 553e 8dd6 94bf
00000230: b9b5 88be e630 ae3e b3b1 b83e d750 91bf
00000240: 2872 e9bd 0544 163f 4436 fe3e 95b1 8abf
00000250: 0ab2 4cbf 266e 863d 21bd 843c 20cd b0bf
00000260: e06b 4cbe 9356 1f3f ff84 ea3e 985a 56bf
00000270: 65e1 89be 57d5 883e 57e1 803e 7d3b 93bf
00000280: ff9c 31be 83c2 c13e 31e9 b73e 1ee4 8dbf
00000290: 8598 2fbe f1fd cd3e 9eb7 c13e 392c 96bf
000002a0: 89e6 9c3c 216b 1c3f f629 0a3f 8ecb 51bf
000002b0: fca4 cebe 6026 6c3e 97a3 813e bb11 a0bf
000002c0: c4c0 f23c 596e 163f dd09 fc3e 6987 72bf
000002d0: 09c2 f7be 9f34 883e 00f2 823e 78e7 9abf
000002e0: d76c d8be f395 623e bdfb 913e 4938 9abf
000002f0: 31d4 84bd ebd3 303f e7f5 163f e2b1 5abf
00000300: 24cc 05bf 68e3 fd3d 0bd2 173e e1a9 98bf
00000310: 4ab0 17bf 7307 dd3e 1a0e 5b3e 1b29 8ebf
00000320: 8cfc 333e ea26 4f3f 3e9b 2f3f 9c62 35bf
00000330: 48d3 50bf dd86 11be b0f0 dbbd 7f7d cebf
00000340: 3f4f 093e 6c7e 4b3f b29d 383f a470 34bf
-0.6518993 2.1630936 -3.7648692 2.0558476 -0.18165858 0.48442927 0.33542073 -0.9326662
-0.280159 0.2054902 0.2434153 -1.2139245 -0.57314867 -0.23283657 -0.065481335 -1.526256
-0.16527903 0.57792735 0.5211118 -0.8612877 -0.053136922 0.7476654 0.58020747 -0.8371563
-0.4366485 0.28532714 0.24679649 -1.1736026 -0.2611235 0.14645879 0.24443668 -1.2597767
-0.35501015 0.61892587 0.41922325 -1.0290744 -0.22255583 0.28964576 0.32148898 -1.0974098
-0.27678734 0.33886606 0.31543738 -1.0644234 -0.36234587 0.07602295 0.14587057 -1.2490542
-0.40163517 0.20955776 0.2689263 -1.1313351 -0.2945916 0.6515589 0.52999747 -0.92156464
-0.16417262 0.3951589 0.5278673 -0.9992884 0.14542474 0.89832306 0.77223665 -0.69963145
-0.043005858 0.7484864 0.6841114 -0.9335373 -0.63576686 -0.07860987 -0.015989432 -1.4781384
-0.6340852 -0.28463405 -0.06331127 -1.5061266 -0.2822051 0.6005689 0.38794252 -0.9418201
-0.42883605 0.2585571 0.1589459 -1.1638249 -0.28874573 0.6338598 0.4472121 -0.8618275
-0.002989758 0.86149096 0.5630526 -0.7361938 -0.6598825 0.023095652 0.073447905 -1.2998608
-0.4469817 0.2793942 0.4168894 -1.202422 -0.24142696 0.5417755 0.39143154 -1.0367857
-0.23425318 0.6125177 0.5073328 -0.9679684 -0.74904126 -0.21073493 -0.15893918 -1.4395235
-0.2700081 0.3465432 0.3626676 -1.0690817 0.14147925 0.89743805 0.64051354 -0.7419909
-0.19409753 0.3897734 0.46125314 -1.0408868 -0.021401431 0.6670141 0.5029736 -0.8683633
-0.6764919 -0.059517626 -0.010475656 -1.446616 -0.16589414 0.52147955 0.49509656 -1.0186121
-0.2745852 0.26560917 0.20801103 -1.1627976 -0.26701143 0.34021682 0.36073074 -1.1352795
-0.11398727 0.5869754 0.49650776 -1.0835444 -0.79959166 0.06563978 0.016203465 -1.3812599
-0.19963026 0.62241477 0.45804593 -0.83731985 -0.26929775 0.26725265 0.2517192 -1.1502529
-0.17345046 0.37843713 0.35920098 -1.1085241 -0.17148025 0.40232804 0.378354 -1.1732246
0.019152896 0.61100966 0.5397028 -0.81951225 -0.40360248 0.23061514 0.25320122 -1.2505411
0.029632933 0.5876213 0.49226275 -0.9473787 -0.48390225 0.26602647 0.25575256 -1.2101889
-0.42270538 0.22127514 0.28512374 -1.2048427 -0.06485785 0.6907336 0.5896897 -0.8542768
-0.5226462 0.1239689 0.14826219 -1.1926843 -0.5925337 0.43169746 0.21392098 -1.1106294
0.17576808 0.80918753 0.68596256 -0.7085359 -0.8157239 -0.14211603 -0.10739267 -1.6132048
0.13409136 0.7948978 0.72115624 -0.70484376

positional_encoding.emb.weight f4 [200, 4]
00000000: 34f6 96bf 05ad 1340 c9b5 933c ac96 1a40
00000010: f3d8 c3bf b4cb f73f c2e3 11be 7f66 0940
00000020: 9956 be3f e965 4bc0 05bb 423f 0129 cf3e
00000030: 10b5 5fc0 ba98 043f 571d f23f 36b0 203f
00000040: 7433 e3be 7836 e83c 26d9 0240 5b9c 5fbf
00000050: 4c38 f9bf f685 0b3f 9e69 ca3f 212f 713f
00000060: 7eb2 8c3f 2be6 18c0 870d 923f 5e49 05bf
00000070: 92de b8bf 9d0b 0a3e a979 e03f a900 2e3f
00000080: ac51 29c0 4428 9bbe af48 9d3e 20df 4b3e
00000090: 34f9 d9bf 427c 023f 1605 d33f c65b 913f
000000a0: 6cb9 693f 629d 04c0 bace 973f efc9 b83f
000000b0: b9c0 2fc0 a995 d63e a804 a73f 82c8 56bd
000000c0: e048 fabf cbe0 7b3f d45a aa3f be47 853f
000000d0: 9640 22c0 7a8c 5bbd b870 203f cbdd 963d
000000e0: 2736 a43f d1eb b2bf 3335 c53f eb95 f93f
000000f0: 937d 8dbf c19e 493e 243a 943f 4ad9 553e
00000100: d0b0 f2bf 5ed7 a93e f4cf c73f c62a 0e3f
00000110: 7f5e 03c0 d610 2f3f d541 393f e341 b83e
00000120: 3bb9 6b3f e38c 01c0 6747 863f d8bf 2a3f
00000130: bb42 01c0 b1c3 093f ef87 5b3f 3277 cbbe
00000140: a34c 29c0 f971 2a3f d3d7 253f 61cb 9bbe
00000150: 5216 26c0 d29d 6c3f f528 e73e be27 893e
00000160: 6a99 5b3f 7142 bfbf 39f8 953f a0b3 233f
00000170: 2939 f3bf 5cc3 f73e db01 d53d 5851 09bf
00000180: c60d 85bf f5e1 3d3f 8049 a83e 9002 1ebf
00000190: 86ef 4fbf 2f0b 8d3f 21db 223f e129 a7be
000001a0: e997 143f 6b36 93bf b5f2 9b3f a248 45bf
000001b0: aaf3 2cc0 ffea 8a3f 4233 8bbd a517 84bf
000001c0: d827 94bf 95ea d33f e9f9 df3e e878 47bf
000001d0: 6d00 debf cbe4 933e 374d c2be 674a adbf
000001e0: c3e0 b33e a557 2dc0 7989 103f a8d7 443f
000001f0: 0051 59bf 8adf 0540 6c00 013f c8e5 85be
00000200: ef0a b0be d3c5 963f df38 2abe b194 fbbe
00000210: 1135 c8bd 0ae5 9f3f adbb d0bc 07ad 14bf
00000220: 13c2 bb3f 4f8f 55bf 64c3 d23f a6b8 87bf
00000230: 817a 41bf 612e b63e ffac e0be 6c6c b6bf
00000240: d5bf 86bf cb82 ad3f da90 fdbe 745e 92bf
00000250: 26c2 5bbf 2eae d43f bdfc aabe 4c2b 85bf
00000260: c128 1240 0f07 ecbf 59a0 0a3f ef89 753e
00000270: 263a 823f 041b d73f 07d4 e23e 15e2 203e
00000280: 7f7e 24bc 003d ad3f cc57 1ebf 65ca 59bf
00000290: a108 57be 3789 6c3f 1349 51bf 2445 84bf
000002a0: e419 a33f 4b65 cdbf 3f7e fb3f 483e c5bf
000002b0: c86e e0be 659b fa3f 26d0 33be 06c2 a7bf
000002c0: b01c 803c 30e7 0140 088f d8be f6ca d0bf
000002d0: 00ea 2dbf d0f2 b23f ca18 6dbf cc22 fbbf
000002e0: 1c14 663f a3b6 86bf 6b94 943f 9719 843f
000002f0: b30b cfbf 2be5 cd3f 8d5a c7bf c619 18c0
00000300: 058f 943d 75ed db3f 1281 49bf 8321 cebf
00000310: 5b3a cc3e d1c7 1b40 412d 4fbf 5cb6 e3bf
00000320: 8c4b 1b40 3b6f 2dbf 8d3d 3b40 11a9 83bf
00000330: d232 f4bf c44b 0240 f823 dfbf cb4f 43c0
00000340: 183a d0bf d816 0c40 9768 9cbf c4fb 43c0
00000350: f355 c6bf ea4b df3f ab3a b1bf ad9c 56c0
00000360: 7580 0dbf 4f07 32c0 4921 8e3e 53ed 45bf
00000370: 5649 0bbf a646 a13f dde4 06c0 71f8 5ac0
00000380: f4ef 5cbd 112d 1f40 aca2 b9bf bc7f 14c0
00000390: 8ea5 b03d ed9a 3b40 ee32 75bf dc41 01c0
000003a0: 6297 243f 79c8 02c0 41c6 e23e 3b15 c1bf
000003b0: 113c 953f 1dc9 3140 7e7f b0bf 24de c0bf
000003c0: 3df0 9b3f 346a 0440 a903 b8bf 481c f0bf
000003d0: 7c15 843f 4670 0440 f9ba bdbf 7367 ecbf
000003e0: 084f 283f bff9 a3bf 0690 c13f 72d6 19be
000003f0: 98b6 bd3f d234 883f 32c6 96bf 4359 abbf
-1.1793885 2.3074353 0.018031018 2.4154463 -1.5300583 1.935904 -0.14247039 2.1468809
1.4870178 -3.178095 0.7606662 0.4046097 -3.4954262 0.5179554 1.8915204 0.62768877
-0.44375193 0.028346285 2.0445037 -0.87347955 -1.9470305 0.54501283 1.5813482 0.9421254
1.0991971 -2.3890483 1.1410378 -0.52065074 -1.4442923 0.13480993 1.7537128 0.6796976
-2.6456099 -0.30304158 0.30719516 0.19909334 -1.7029176 0.5097085 1.6485927 1.1356132
0.91298556 -2.072106 1.1859963 1.4436625 -2.7461379 0.41911057 1.3048296 -0.052437313
-1.955349 0.9838988 1.3308969 1.0412519 -2.535192 -0.053600766 0.62671995 0.073665224
1.2829026 -1.3978215 1.540686 1.9498876 -1.1053947 0.19689466 1.1580243 0.2088367
-1.8960209 0.33172125 1.5610337 0.5553402 -2.0526426 0.68385065 0.72366077 0.35987768
0.92079514 -2.024224 1.049054 0.6669898 -2.019698 0.53814226 0.85754293 -0.39739376
-2.6453025 0.6658016 0.64782447 -0.30428603 -2.5951123 0.92428315 0.45148435 0.26788133
0.85780966 -1.4942151 1.1716377 0.6394596 -1.9001819 0.48391235 0.104007445 -0.53639746
-1.0394828 0.7417291 0.32868576 -0.6172266 -0.8122486 1.1019038 0.63615614 -0.3264914
0.58044297 -1.1500982 1.2183443 -0.77063954 -2.702372 1.0852965 -0.06796886 -1.0319716
-1.1574659 1.6555964 0.43745354 -0.77918863 -1.734388 0.28885493 -0.37949535 -1.3538331
0.35132417 -2.7084744 0.56459767 0.76891565 -0.8488922 2.0917687 0.5039127 -0.26151872
-0.34383342 1.1779121 -0.16623257 -0.4913688 -0.097757466 1.2491772 -0.025480116 -0.5807652
1.4668602 -0.83421797 1.6465878 -1.0603225 -0.7557755 0.3558226 -0.43881986 -1.4251838
-1.0527292 1.355554 -0.49524575 -1.1435075 -0.8584312 1.6615655 -0.3339595 -1.0403838
2.2837374 -1.8439654 0.5415092 0.23978399 1.0173995 1.680512 0.4430239 0.15711243
-0.010039925 1.3534241 -0.6185272 -0.85074455 -0.20999385 0.92396873 -0.8175213 -1.03336
1.2742276 -1.6046537 1.9647902 -1.5409632 -0.4383452 1.9578673 -0.17559871 -1.3106086
0.01563868 2.0297356 -0.42296624 -1.6311939 -0.6793518 1.398035 -0.9261595 -1.9619994
0.89874434 -1.0524486 1.1607794 1.0320309 -1.6175445 1.6085562 -1.5574509 -2.376573
0.07253841 1.7181841 -0.7871257 -1.6103977 0.39888272 2.4340708 -0.80928427 -1.7790027
2.426486 -0.6774785 2.9256318 -1.028597 -1.9078009 2.0358744 -1.7432852 -3.0517452
-1.6267729 2.1888943 -1.2219418 -3.0622416 -1.549498 1.7445042 -1.3846029 -3.3533127
-0.55274135 -2.781696 0.2775977 -0.77315253 -0.54408777 1.2599685 -2.1077187 -3.4214137
-0.053939775 2.4871256 -1.4502769 -2.3202963 0.08625327 2.931331 -0.9578084 -2.0196447
0.6429349 -2.0434859 0.4429188 -1.5084604 1.1658956 2.7779 -1.3788908 -1.5067792
1.218269 2.0689821 -1.4376117 -1.8758631 1.0319057 2.0693526 -1.4822685 -1.846907
0.6574559 -1.2810591 1.5122077 -0.1502321 1.4821348 1.064112 -1.1779234 -1.3386616

encoder_layer.self_attn.in_proj_weight f4 [12, 4]
00000000: 96a3 dc3e e80a 74be cc9a ccbe 701a 1fbd
00000010: d863 0dbe da93 c93e 8003 25bc 7808 41be
00000020: 5290 82be e07d a43d 50a5 793e 207d d03d
00000030: 5e32 57be 8062 9e3b 824a abbe 0a8b 01bf
00000040: 4803 75be 3867 edbe 58a9 f23d ee69 ef3e
00000050: 1a0d 99be 66c6 e73e 6379 163f 7e32 adbe
00000060: 48f0 6d3e 0288 3bbe 4cca 3e3e 1c64 13bf
00000070: 8a5d 74be 2ce3 9d3e 1ce5 13bf 1c45 443e
00000080: 9270 e43e fe70 f33e 80ba 373d 6a32 ec3e
00000090: e7a4 043f c0f6 89bc 6492 4a3e eee1 b1be
000000a0: 1ce3 eabe f08e 5b3e bead 01bf 60cf 84bd
000000b0: fb3d 1b3f cc5d c7be f595 80be cad9 45be
0.43093556 -0.23832285 -0.3996185 -0.038843572 -0.13807619 0.39370614 -0.010071635 -0.18850887
-0.25500733 0.08031821 0.24379468 0.10180116 -0.21015307 0.0048335195 -0.33455282 -0.5060278
-0.23927033 -0.46367812 0.11848706 0.46760505 -0.29892808 0.45268553 0.5877897 -0.33827585
0.23236191 -0.18313602 0.18631858 -0.5757463 -0.23863807 0.3083738 -0.5777147 0.19166988
0.44617134 0.47547144 0.044855595 0.46132213 0.5181412 -0.016841292 0.19782406 -0.34742683
-0.45876396 0.21441245 -0.50655735 -0.06484866 0.6064145 -0.3893875 -0.25114408 -0.19321361

encoder_layer.self_attn.in_proj_bias f4 [12]
00000000: 0000 0000 0000 0000 0000 0000 0000 0000
00000010: 0000 0000 0000 0000 0000 0000 0000 0000
00000020: 0000 0000 0000 0000 0000 0000 0000 0000
0.0 0.0 0.0 0.0 0.0 0.0 0.0 0.0
0.0 0.0 0.0 0.0

encoder_layer.self_attn.out_proj.weight f4 [4, 4]
00000000: 608c c5bc fcd3 1ebe 3410 9d3e f083 61be
00000010: 1017 bb3e 983e d7bd 5c26 bbbe 785b b4be
00000020: b636 bd3e f030 093e 6a49 f43e 3052 c33e
00000030: 3079 3dbd c088 ba3d 9688 ae3e 4c77 f2be
-0.024114788 -0.15510553 0.30676425 -0.22022986 0.36541033 -0.10509986 -0.36552703 -0.35226035
0.36955804 0.13397574 0.4771226 0.38148642 -0.04625815 0.09108114 0.34088582 -0.4735664

encoder_layer.self_attn.out_proj.bias f4 [4]
00000000: 0000 0000 0000 0000 0000 0000 0000 0000
0.0 0.0 0.0 0.0

encoder_layer.linear1.weight f4 [16, 4]
00000000: 4064 423d 0843 07be c068 b9bc 8c4b fa3e
00000010: 804f 11bc c077 09bd 022f 853e 2075 99bc
00000020: 282f ffbe 20e5 60bd 688b bb3e f255 94be
00000030: c88d b63d 24e8 0c3e 2c4b 90be 7c14 28be
00000040: d4d5 1abe 20f6 1e3e 9c29 53be 4040 fc3c
00000050: 6053 963c 74c0 23be 2cf5 cdbe 201a e03c
00000060: 729a ae3e b6ec b6be 0caf 363e 2054 833e
00000070: 3000 5c3d 5807 5ebe 40f7 2b3c 1496 e1be
00000080: 9ce8 f73e c018 1c3e a097 f33c 10d2 223e
00000090: 1658 ddbe 98d8 933d 8850 30be fa6b c7be
000000a0: 20b3 cebd 140b de3e f0f5 df3d 965d b63e
000000b0: 48e0 bcbe fa48 fdbe ea84 813e a419 82be
000000c0: e82c 9cbe 1e62 8abe 5899 923e 5405 bfbe
000000d0: cce6 7bbe 6e49 8bbe a0fd 72bd cc69 20be
000000e0: 4a2a 823e e0b9 f53c b029 4e3d a074 ba3d
000000f0: 4885 c33d b05f 9f3d faa3 c1be f490 39be
0.047458887 -0.13209164 -0.022632957 0.48885763 -0.008869052 -0.033561468 0.26012427 -0.018732607
-0.49840665 -0.05490601 0.36629796 -0.2897182 0.089137614 0.1376043 -0.28182352 -0.16414064
-0.15120631 0.15523577 -0.20621341 0.030792356 0.018350303 -0.15991384 -0.40226114 0.027356207
0.34102207 -0.3572747 0.17840213 0.2565012 0.053711116 -0.21682489 0.010495961 -0.44059813
0.48419654 0.15243816 0.029735386 0.15900445 -0.43231267 0.07219046 -0.1721822 -0.38949567
-0.10092759 0.43367827 0.10935581 0.35618275 -0.36889863 -0.4946974 0.25296718 -0.25410187
-0.3050301 -0.27027982 0.28632617 -0.37308753 -0.24599761 -0.2720446 -0.059323907 -0.15665358
0.2542289 0.029995859 0.050332725 0.09104276 0.09546906 0.07781923 -0.37820417 -0.18121701

encoder_layer.linear1.bias f4 [16]
00000000: a874 953d f8a9 debe 46d8 cf3e c8e6 93bd
00000010: 0025 0a3d 88a0 1cbe b472 68be aa73 ff3e
00000020: f0e3 763d 40d1 973d 4c22 44be 38c8 203e
00000030: a056 8dbd 2839 73be 0c04 e73e 72d9 973e
0.07297641 -0.4348905 0.4059469 -0.072217524 0.033726692 -0.15295613 -0.22700006 0.49892932
0.060275972 0.07412958 -0.19153708 0.15701377 -0.06901288 -0.23752272 0.45120275 0.29658085

encoder_layer.linear2.weight f4 [4, 16]
00000000: c682 773e 1c43 6dbe 2034 51be a255 1d3e
00000010: 80aa 1cbb 3475 0ebe 70ab cbbc f884 6b3d
00000020: ee93 56be c892 4c3d 44a0 d43d 625e 19be
00000030: 4603 0b3e f00e 8d3d 20bd 0d3d 3c61 e43d
00000040: 804e babc 92e8 07be 60d2 5cbc 40e7 e7bb
00000050: 0002 063d d8cb a7bd 7c1c fdbd f8b2 443d
00000060: 6084 c5bc c497 663e 5646 2abe 9827 ef3d
00000070: 08df bd3d b801 ce3d 841a e4bd 8432 f9bd
00000080: c8ff 943d 5451 7f3e 2041 a23d 0803 4fbe
00000090: 84c8 95bd c890 5e3e 9041 4b3d 60ff ea3d
000000a0: b07c 8ebc 0011 3a3d ccc6 48be 30e6 a5bd
000000b0: 963b 513e 34fa 70be 22a6 303e 4297 1f3e
000000c0: f436 7dbe ba17 6abe c05a 743c e001 973c
000000d0: 7cff a1bd 50bf d43d 4000 bdbb 54ff 4c3e
000000e0: 1068 2bbe 1080 5b3e f25b 203e c8df f83d
000000f0: 3651 563e e069 62be 585e c43d 205c cfbc
0.2417098 -0.23170131 -0.2043004 0.15364698 -0.0023905337 -0.13911897 -0.024862021 0.057499856
-0.20954868 0.04994467 0.10382131 -0.1497741 0.13575467 0.06887615 0.03460419 0.111513585
-0.02274251 -0.13272312 -0.013477892 -0.0070771277 0.03271675 -0.08193177 -0.123589486 0.04802224
-0.024110973 0.22518831 -0.16628394 0.11677474 0.092710555 0.100589216 -0.1113787 -0.12167838
0.07275349 0.24933368 0.07922578 -0.20216 -0.07313636 0.21734917 0.049623072 0.1147449
-0.01739344 0.04542637 -0.19607085 -0.081005454 0.20432886 -0.23532945 0.17250875 0.15585044
-0.24727994 -0.22860613 0.014914215 0.018433511 -0.07910058 0.103880525 -0.005767852 0.20019275
-0.16738915 0.2143557 0.15660074 0.12152058 0.20929417 -0.221107 0.09588307 -0.025312483

encoder_layer.linear2.bias f4 [4]
00000000: cc3f f2bd 98bc 21bd 141b c23d a08e 57bc
-0.118285745 -0.039486498 0.09477821 -0.013156563

encoder_layer.norm1.weight f4 [4]
00000000: 0000 803f 0000 803f 0000 803f 0000 803f
1.0 1.0 1.0 1.0

encoder_layer.norm1.bias f4 [4]
00000000: 0000 0000 0000 0000 0000 0000 0000 0000
0.0 0.0 0.0 0.0

encoder_layer.norm2.weight f4 [4]
00000000: 0000 803f 0000 803f 0000 803f 0000 803f
1.0 1.0 1.0 1.0

encoder_layer.norm2.bias f4 [4]
00000000: 0000 0000 0000 0000 0000 0000 0000 0000
0.0 0.0 0.0 0.0

encoder.layers.0.self_attn.in_proj_weight f4 [12, 4]
00000000: 9c28 c2be d481 a83f c3df 4ebf bec3 443d
00000010: f32d 2ebf 53f1 663f b6bb 4dbe 444b c03d
00000020: e895 6fbf b07c 683e d05d 43bf 2a56 a93f
00000030: 936e b43e 1292 2bbf 55a9 dd3d 7eb1 f73e
00000040: 23bb 043f 0a4c b8bf 6071 5b3f 960a 5c3f
00000050: e4d9 273d 0de8 f03e c4a4 c4bc 763c 28bf
00000060: a76b 73be cb0a b1bf 6efc ad3f 6c22 773f
00000070: 4a90 90be 6d66 30bf 2154 b63e b59e 74be
00000080: 0354 7bbe 066f a73e bb45 443f 75b0 59bf
00000090: 85ee 093f bcc0 313e c067 d4be eac1 19be
000000a0: fe2e 6fbe b65e 783e 4098 2e3f 6746 2dbf
000000b0: 3302 143f 05c0 13bf 94ff 32be d925 213f
-0.37921607 1.316462 -0.80810183 0.048038237 -0.6803886 0.9021198 -0.20091137 0.09389356
-0.93588114 0.22703815 -0.7631502 1.322942 0.3524061 -0.6701976 0.10823313 0.48377603
0.5184805 -1.4398205 0.8571987 0.8595365 0.04097928 0.4705204 -0.024004348 -0.65717256
-0.23771535 -1.3831419 1.359266 0.965369 -0.28235084 -0.6890629 0.3561106 -0.23888667
-0.24543767 0.32701892 0.766689 -0.8503488 0.53879577 0.17358679 -0.41485405 -0.15015379
-0.2335777 0.2425488 0.68201065 -0.6768555 0.57815856 -0.57714874 -0.17480308 0.62948376

encoder.layers.0.self_attn.in_proj_bias f4 [12]
00000000: 8112 633f 883b 0cbf d0e0 b7bf f9e9 823f
00000010: a0bb 6c3c 2620 143d 7aeb 75bd 8633 cbbb
00000020: b41b 4fbe a47e ecbc 6ae1 85bd 0cf7 b43f
0.8870011 -0.5477834 -1.4365482 1.0227653 0.01444903 0.03616347 -0.06003902 -0.0062012104
-0.20225412 -0.02886898 -0.06537135 1.4137893

encoder.layers.0.self_attn.out_proj.weight f4 [4, 4]
00000000: 61fc 333e 1f3f b63d 3047 b43e cd31 2dbd
00000010: 3c8a 99be fcdd ddbe e204 cbbe 2a8e 25be
00000020: 1c4a f6bd dc5c 493d 9f07 c7bd cf7f 363e
00000030: 90a9 0f3f 7d65 993d bdca fb3c faf6 b6be
0.17576744 0.08898758 0.35210562 -0.04228382 -0.29988277 -0.43333423 -0.39652163 -0.16167513
-0.12025854 0.049160823 -0.097182505 0.17822193 0.56118107 0.074900605 0.030736322 -0.35735303

encoder.layers.0.self_attn.out_proj.bias f4 [4]
00000000: 68d7 10be cddb 993e 4f22 013e db6b 5bbe
-0.14144671 0.30050507 0.12610744 -0.21427862

encoder.layers.0.linear1.weight f4 [16, 4]
00000000: e5f9 223f 051f d1bf 9aec 3dbd 31ae 5d3f
00000010: 30a2 2e3c ee74 613d 4a3e 123e 90c0 423e
00000020: 504b 16bd 7dd1 e6bd c9f5 3cbe 6f5d 11be
00000030: dd19 13bd 15ce b8bd 082f 09be 998a 65bd
00000040: 21fc 973d 6744 8ebd f39e 7e3d a44c 0dbe
00000050: 036a 283f 5162 cabf 264a 0fbf 5ea4 aa3e
00000060: 301e 6c3e 1a31 1ebe 4419 c43d 6c4d 353e
00000070: 6449 8c3f ac89 04c0 a3bd c83e 2fd7 85bd
00000080: d7a8 673f 18a3 50bf 53f5 0a3f 508f 343e
00000090: 799e 5dbe 661e 54be 28f8 78be fa61 9fbe
000000a0: 11dd 853e c139 3abd e67a a73c 318d 0c3e
000000b0: b38a babe 938f 94bf 1478 0f3f 6872 d33e
000000c0: d2c7 1fbc 5c45 19be ac6d 79bd e490 83be
000000d0: 463b 313f eb5f a0bf c59a 863e 8e09 b1be
000000e0: 6563 9e3f 3e55 c9bf 35d1 293f 9957 0c3e
000000f0: fa22 913f e21c e7bf 1daf ea3e 8355 1bbe
0.6366256 -1.6337591 -0.04636822 0.8659392 0.010658786 0.055043153 0.14281574 0.1901877
-0.036692917 -0.112704255 -0.18453135 -0.14195798 -0.035913337 -0.09023682 -0.13396847 -0.05604038
0.07421137 -0.069466405 0.062163305 -0.13798767 0.6578676 -1.5811254 -0.55972517 0.33328527
0.2305839 -0.15448418 0.095751315 0.17705315 1.0959897 -2.0709028 0.3920718 -0.06535184
0.90492004 -0.8149886 0.54280585 0.17632794 -0.21642484 -0.20714721 -0.24313414 -0.31129438
0.26145223 -0.045465235 0.020444345 0.13725735 -0.36433944 -1.1606315 0.560426 0.41298223
-0.009752231 -0.14967865 -0.060895607 -0.2569648 0.6923107 -1.2529272 0.26289955 -0.34577602
1.2374083 -1.5729139 0.6633485 0.13705291 1.1338799 -1.8055689 0.45836726 -0.15169339

encoder.layers.0.linear1.bias f4 [16]
00000000: c56c 97bf 6ef0 11bf d5f9 e4be 8ec0 9fbe
00000010: b0ba 08bf ba41 c0bf 817e 75bf baaa 88bf
00000020: aefb 61bf e98a 0cbf ff19 4cbf bc1d 29bf
00000030: 3882 1dbf 0830 96bf 06dd 78bf 1edc 93bf
-1.1830069 -0.5700749 -0.44721857 -0.31201595 -0.5340986 -1.5020058 -0.95896155 -1.0677102
-0.8827466 -0.5489946 -0.79727167 -0.66060996 -0.61526823 -1.1733408 -0.97212255 -1.155155

encoder.layers.0.linear2.weight f4 [4, 16]
00000000: ca2a 1fbe 4a1f fbbd bd87 883c ecb7 2e3e
00000010: 179b 01be 86bf 21bf d8d8 e53d 90b6 863f
00000020: abd8 9cbd 7ec8 743e a8c3 09be 9a46 07be
00000030: fb7b df3e f8d1 af3e ed1d 7d3f 4993 013f
00000040: f5bd 883e e18c 7ebd f55a a63b 83bf e93d
00000050: 837f a93d 6d97 323f 4319 8ebe 90c7 02be
00000060: ee9d 56bd d257 423e e9c1 703e 58a9 d63e
00000070: fe52 023e 7783 30be 2462 c8bd e6dd 1fbe
00000080: 5e57 ac3f 11a9 cb3d d5db bbbd 3d55 89bd
00000090: 1b4d ffbb b705 2e3f 302b cb3e 04d2 f63f
000000a0: 8938 9e3f 3634 983e ba41 c53e cd62 4abd
000000b0: 204c 533d e900 863f 5203 f03f 4360 d53f
000000c0: 0ae3 71bf c696 bcbe d242 95bd 9c43 d5bd
000000d0: 6e08 f2be b513 a2bf 5b8c 64be c5c1 c4bd
000000e0: 0dff cc3d f058 173e 73a0 71be 9dff 9ebe
000000f0: e15f 37bc 1c6a 503e fd94 0bbe 6e25 31bd
-0.15543666 -0.12261827 0.016666288 0.17062348 -0.12656818 -0.63182867 0.11223 1.0524464
-0.07658514 0.23904607 -0.13453543 -0.13210526 0.43649277 0.3433988 0.9887379 0.50615364
0.26707426 -0.06214607 0.005076761 0.11413481 0.08276274 0.6976231 -0.27753648 -0.1277144
-0.052396707 0.18978813 0.23511471 0.41926074 0.12726972 -0.1723765 -0.09784344 -0.15611991
1.3464162 0.09944356 -0.09172789 -0.06705711 -0.007791174 0.6797747 0.39681387 1.9282842
1.2361003 0.29727334 0.38526708 -0.04941063 0.05158627 1.0469028 1.8751013 1.6670002
-0.9448706 -0.3683378 -0.072881356 -0.10413286 -0.47272056 -1.2662264 -0.22319166 -0.09607271
0.100095846 0.1478002 -0.23596363 -0.31054392 -0.011192293 0.20352978 -0.13631053 -0.043248586

encoder.layers.0.linear2.bias f4 [4]
00000000: 5adb 043d 166f 7cbb 9ada 373c 7e78 083c
0.032435752 -0.003851836 0.011221552 0.008329509

encoder.layers.0.norm1.weight f4 [4]
00000000: 3dbf 1a40 c831 b73f 1478 eb3f ae58 ae3f
2.4179223 1.4312067 1.839602 1.3620813

encoder.layers.0.norm1.bias f4 [4]
00000000: 8340 27bf e5ed 933f 30e6 a73b 1487 bfbe
-0.6533281 1.1556975 0.005123876 -0.37407744

encoder.layers.0.norm2.weight f4 [4]
00000000: b341 d03f 34c0 cd3f 1cd9 d43f 2847 0040
1.627005 1.6074281 1.6628757 2.004343

encoder.layers.0.norm2.bias f4 [4]
00000000: 0b41 593f aa69 8c3d c2c1 003f 78b6 a5be
0.8486487 0.06856091 0.5029565 -0.32365775

encoder.layers.1.self_attn.in_proj_weight f4 [12, 4]
00000000: 9db5 e7bd 7cb3 ff3d 30ff 88bf d1bf af3f
00000010: dbb8 6abe 6455 25bd a256 e53e e2f7 9dbe
00000020: 2152 c33e f511 32bf 5e61 353e dd71 633e
00000030: 1c78 71bf bcbb ae3f 4280 25bf 65ef 8f3d
00000040: 6b9c d1be 0cea 903f ee37 28bf 2253 5d3e
00000050: 9e8a 34be 58c0 033e bb9f a23e d936 acbd
00000060: 86b3 5e3f 1689 11bf 90bb e6be 5c4d bfbf
00000070: 9c47 d6be af7d cb3e c6e6 b8bf 89a2 b23f
00000080: 8df4 393f d465 c33d bf21 fe3d 2058 5f3f
00000090: c54f 943e 5955 433e a6ed eabd d572 06be
000000a0: 9697 893e 4d6c 173e 9b5d 01bf 45fe 1bbf
000000b0: a82b 793e a11d 51be 7a85 bebd 8007 b3bd
-0.11313937 0.12485406 -1.0702877 1.3730413 -0.2292208 -0.040364638 0.44792658 -0.30853182
0.38148597 -0.6955865 0.17712924 0.22211404 -0.943239 1.3651042 -0.6464883 0.07028083
-0.4093965 1.1321425 -0.6571034 0.21613744 -0.17631003 0.12866342 0.3176249 -0.08408899
0.8699268 -0.568498 -0.45064974 -1.4945483 -0.4185151 0.39744326 -1.4445426 1.3955852
0.7263878 0.095409065 0.1240878 0.87243843 0.2896711 0.19075526 -0.11471109 -0.13129742
0.26873463 0.14787407 -0.50533456 -0.6093486 0.2433306 -0.20421459 -0.093028024 -0.08741665

encoder.layers.1.self_attn.in_proj_bias f4 [12]
00000000: 24c6 7b3e d0f8 253f 9605 19bf 9837 ed3f
00000010: 06e2 7dbd 00d7 74bb 0977 b43c 3a2d 593b
00000020: cdd1 473f 2d69 dbbc 53b7 af3e 8c5c 123f
0.24587303 0.6483278 -0.5977415 1.8532591 -0.06198313 -0.0037359595 0.022029417 0.003313853
0.78054506 -0.02678355 0.34319553 0.57172465

encoder.layers.1.self_attn.out_proj.weight f4 [4, 4]
00000000: 29cf 13bd 7239 373d 4d5a 37be e232 d93c
00000010: db35 943c 8dfa 34be b6ca 8fbc d3db 2bbe
00000020: defd 183d ff65 08bd 8ba0 313e 9171 e23d
00000030: b80d c5bd 7080 b73d 83e8 01bd 05ae 85bc
-0.036086235 0.04473252 -0.17905541 0.02651352 0.018092087 -0.17673703 -0.017552715 -0.16783075
0.03735148 -0.033300396 0.17346399 0.11056817 -0.09621757 0.089600444 -0.03171588 -0.01631833

encoder.layers.1.self_attn.out_proj.bias f4 [4]
00000000: c3c0 84bc 6e38 403c 4903 71bc 89e8 54bc
-0.016205197 0.011732204 -0.014710256 -0.012994894

encoder.layers.1.linear1.weight f4 [16, 4]
00000000: d33b 4e3e 7a8d 8abf 6fb8 39bd e42d 613f
00000010: cb4b 413f bc00 3dbf f928 6dbe f557 0940
00000020: 7e1c a03e 2afc 10bf c59f 32bf 9cf7 d33e
00000030: c6e5 5bbd 05de 81bc bb8a 14be 7939 36bc
00000040: 6aba 8a3e f44f 71bf 3e86 06bf 99f7 ed3f
00000050: e3d5 9a3e b356 b4be 5006 9bbe 92ad c03d
00000060: 18ad cd3e 7d6b ddbd 39fb d0be e2d5 483e
00000070: 2b17 313f 97f9 e6be 1708 a3bf eb88 833e
00000080: 7f59 703f 18f5 2ebf a179 d9bd f6c2 623f
00000090: bb7a 1ebe b966 87bf d624 f1be 3626 b93f
000000a0: ca25 c2be bb54 44bf 6b61 203e 0d66 f33f
000000b0: 0eec 8d3e 37d8 31bf f504 0cbf f569 4f3f
000000c0: 2ba6 2abd 59dc b4bd 7b7c 1cbe 26c1 fd3d
000000d0: c600 1abe a69c b9bd 91e5 00be 5e06 85bc
000000e0: e998 183f ae3f aabf 06b7 c7bb 6189 133e
000000f0: 09fd bf3e a86b 07bf 4b7f 91bf 07c9 643f
0.20140009 -1.0824425 -0.045341905 0.8796065 0.75506276 -0.73829246 -0.23160161 2.1459935
0.31271738 -0.5663477 -0.6977504 0.41399848 -0.053685926 -0.015852937 -0.14506046 -0.011122101
0.27095348 -0.94262624 -0.5254859 1.8591186 0.30241308 -0.35222396 -0.30278254 0.09408106
0.40171123 -0.108115174 -0.40816668 0.1961284 0.69175977 -0.45112297 -1.2736844 0.25690398
0.9388656 -0.68342733 -0.10618902 0.88578737 -0.15476505 -1.0578223 -0.47098416 1.4464786
-0.37919456 -0.7669179 0.15662162 1.9015518 0.27719158 -0.6947054 -0.54695064 0.8102105
-0.041662376 -0.088310905 -0.1528186 0.12390356 -0.15039358 -0.090630814 -0.12587573 -0.016238388
0.5960832 -1.3300683 -0.006094816 0.14407875 0.37497738 -0.52898645 -1.1366972 0.89369243

encoder.layers.1.linear1.bias f4 [16]
00000000: 0d5a 6d3e 8738 acbf aa1f 52bf 71a0 60be
00000010: e78f 3dbf b95e 83bf 3143 79bf dfd9 8ebf
00000020: 8549 3abf d123 87bf 8ccb 7bbe a063 58bf
00000030: 8692 5fbf bc6f c8be e78c f8bd 6e65 6dbf
0.23178883 -1.3454751 -0.82079566 -0.21936204 -0.740477 -1.0263282 -0.9736815 -1.1160239
-0.7276843 -1.0557805 -0.24589366 -0.84527016 -0.8733295 -0.39147747 -0.1213625 -0.92732894

encoder.layers.1.linear2.weight f4 [4, 16]
00000000: 7b4e f8bd d2db debe ab37 6e3e bd23 4b3c
00000010: de99 98bd 477f 2f3e fbfe a7bc c67f 0d3e
00000020: d4ea 0abf 2344 5b3e 0655 3dbf e4f2 4cbf
00000030: f8aa 863e a6b0 383e 71aa b6be ae93 0abe
00000040: cb04 383e cab8 c1be bb1d 173e 18f2 da3d
00000050: b459 ff3e 5bb2 aebe 30fe 3fbe 7fd0 fa3e
00000060: 4d81 c8bd 773f 153f 193b 753f c2c0 5b3e
00000070: 964d 033d 21fb 3fb9 5bf0 84bd 283c 463e
00000080: 957f 0b40 d9b5 bebf 7e4e d1be 3791 66bd
00000090: 5f30 5ebf c9ad 933e f19e 1b3e 1032 4cbe
000000a0: 3616 363f 71fb c8be e9ff 54be b815 91be
000000b0: bbd4 863e c74e 52be 4455 3140 1b8a 03be
000000c0: 9ec7 c3bd 11b5 ad3f 43fe 97bc 5ea6 d5bd
000000d0: d6eb 48be 7cd5 f9bc d265 1abe 4ed7 74bd
000000e0: 9f32 b0be c0b8 4cbe 509b 54bd b629 edbd
000000f0: 145d 0c3e 3d52 9bbe d557 b63c 5e79 d13d
-0.12124344 -0.43527085 0.23263423 0.012398657 -0.07451223 0.17138396 -0.020507326 0.13818273
-0.5426457 0.21412711 -0.7395786 -0.8005812 0.26302314 0.18036136 -0.3567691 -0.13532898
0.17970578 -0.37836295 0.14757435 0.10690707 0.49873126 -0.3412045 -0.18749309 0.48987195
-0.09790287 0.58299965 0.957933 0.2146025 0.032056414 -0.00018308732 -0.06491157 0.19358885
2.179662 -1.4899246 -0.40880197 -0.05629083 -0.8679256 0.28843525 0.1519735 -0.19940972
0.7112764 -0.39254335 -0.20800747 -0.28336883 0.26334175 -0.20537864 2.7708292 -0.12845652
-0.09559558 1.3570882 -0.018553859 -0.10432123 -0.19621214 -0.030497305 -0.15077904 -0.059775643
-0.3441362 -0.19992352 -0.05190593 -0.11580221 0.13707381 -0.3033618 0.022258678 0.10228227

encoder.layers.1.linear2.bias f4 [4]
00000000: 5dd5 98bc 3016 fa3c d9a1 b93c 2c3b c93c
-0.018656427 0.030528158 0.022660183 0.024564348

encoder.layers.1.norm1.weight f4 [4]
00000000: c940 a73f 5183 1840 0a29 b53f 7e57 9e3f
1.3066646 2.383015 1.4153149 1.237045

encoder.layers.1.norm1.bias f4 [4]
00000000: 374a 09bf b56f 28be e127 5a3f d646 16bf
-0.5362887 -0.16448863 0.852171 -0.5870184

encoder.layers.1.norm2.weight f4 [4]
00000000: 265a c73f 6f12 f93f 0116 0a40 eb45 ac3f
1.5574386 1.945875 2.157593 1.3458837

encoder.layers.1.norm2.bias f4 [4]
00000000: c3b3 1d3f 6e09 10bf be41 173e 6390 ecbe
0.6160242 -0.5626439 0.14771172 -0.46203908

encoder.layers.2.self_attn.in_proj_weight f4 [12, 4]
00000000: a444 883d 3430 e13e 1f72 ef3d c2cf 96bf
00000010: e8b8 c4be 6e5f b93e cbb1 62bf 848e 643f
00000020: 0110 d93d a42b d8be 1029 bd3e dbd3 1dbe
00000030: e7ff 263f 692d 003e 40c6 1dbe 0c63 46bf
00000040: f670 9e3e a48c 8b3e 12e3 61bf f0be 483e
00000050: 067a 4bbf a845 18bf a612 9d3f 1517 7f3f
00000060: 4ae9 823f 7bb4 3b3f 59b3 61bf 430b cbbe
00000070: 4815 9ebf 754d 553e 9073 02be 8191 043f
00000080: b9fd 27bf 785a 8b3e 7ad3 1dbf 6028 763f
00000090: 060d 35bf 3688 0c3e f4a4 82bf ee7d c83e
000000a0: f001 1cbf 01b1 f73d 4037 67bf ce34 d93e
000000b0: cedc a53e 551d f63d 26ff 2fbf e289 39be
0.06653717 0.4398209 0.11691689 -1.1782153 -0.38422322 0.3620562 -0.8855254 0.8927996
0.10598756 -0.42220795 0.3694539 -0.15412848 0.65234226 0.12517323 -0.15407658 -0.77494884
0.30945557 0.27255738 -0.88237107 0.19604087 -0.7948307 -0.59481287 1.2271316 0.99644595
1.0227444 0.73322266 -0.8816429 -0.3965703 -1.2350245 0.20830329 -0.12739396 0.5178452
-0.65621525 0.2721746 -0.6165081 0.9615536 -0.70723 0.13723835 -1.020659 0.39158577
-0.60940456 0.12094308 -0.9031868 0.424231 0.32395023 0.120173134 -0.687487 -0.18119004

encoder.layers.2.self_attn.in_proj_bias f4 [12]
00000000: 009f 543f 698b e0bf 674c 2140 d8ff f13e
00000010: 6e0c 35bd e464 b6bd bf4d a93c 645d 94bc
00000020: 2eb2 c43d e0f5 a53d c4e0 8f3d 5e52 123f
0.83055115 -1.7542545 2.5202882 0.47265506 -0.044201307 -0.08905962 0.020666955 -0.018110938
0.096042976 0.081035376 0.070252925 0.5715693

encoder.layers.2.self_attn.out_proj.weight f4 [4, 4]
00000000: ac22 9b3e 3ded c8bd 5a39 cabe 7840 9bbe
00000010: 7487 ea3d 6573 b03e bac4 e13e a7bf 553e
00000020: 3f79 ae3e da1f 1a3e dc2c 6c3c 8d9d c43e
00000030: 16f4 e2be f3d3 aabe db34 d7be 8f73 5bbe
0.3029989 -0.098108746 -0.3949688 -0.30322623 0.11451617 0.3446304 0.44095403 0.20873891
0.34076878 0.15051213 0.014414992 0.38401452 -0.44326848 -0.3336483 -0.42032513 -0.21430801

encoder.layers.2.self_attn.out_proj.bias f4 [4]
00000000: 1ad9 9dbe 22ec 793e ea9b 673d 2a1b fbbe
-0.30829698 0.24406484 0.056545176 -0.49044162

encoder.layers.2.linear1.weight f4 [16, 4]
00000000: 5372 b23d 820d b7bc 5c7c b0be 2614 9a3f
00000010: fa17 563f e2eb 1abe 0b37 ffbe 7550 783d
00000020: 302b cf3e 182d 32be cbaf 6bbf 2b52 713f
00000030: 18ce 263e 4397 2abe c22e 28be beec 303e
00000040: bc12 043f 563c b5be eb6b 41bd 6394 433f
00000050: fcc4 223f cb73 cfbe 42fb 28bf eef7 013f
00000060: c668 2c3f b1dd b1be 979e acbd 426e 423f
00000070: f259 e6be 14e5 d8be a957 73bf c547 9a3f
00000080: 22c4 1e3f d408 99be b0a6 04bf 7028 c33f
00000090: c4b2 a0be b686 483d bb3a 48bf fd2a 0540
000000a0: 90ae 703f e1f7 26be cafb 783e 4d9e 253f
000000b0: 2769 14bf c91e 85be 8759 6dbf 2398 be3f
000000c0: db92 40bd 06f2 fbbd e5bc eabd 9db6 36bc
000000d0: f8fb babe cd9b 18be 0118 85be d6c6 6cbe
000000e0: 42fd 1d3f e5a5 3bbf 1fec 96be 8df6 6b3f
000000f0: 88b2 173f f28b 03bf ae3e 3dbf 388a f43e
0.08713212 -0.022345308 -0.3446988 1.2037399 0.83630335 -0.15129045 -0.49846682 0.060623605
0.40462637 -0.17400014 -0.92065114 0.94266003 0.16289556 -0.16659264 -0.16424087 0.1727781
0.51591086 -0.35397595 -0.04722206 0.76398295 0.63581824 -0.4051803 -0.6600839 0.50768936
0.6734737 -0.3473945 -0.08428686 0.7594949 -0.44990498 -0.42362273 -0.95055634 1.2053152
0.62018025 -0.29889548 -0.51816845 1.5246716 -0.31386387 0.048956595 -0.78214616 2.0807488
0.9401636 -0.16305496 0.243148 0.6469467 -0.5797295 -0.2600005 -0.9271473 1.4890178
-0.047015052 -0.12302022 -0.1146181 -0.011151937 -0.36520362 -0.14903183 -0.25994876 -0.23122725
0.61714566 -0.7330001 -0.2947702 0.9217308 0.5925679 -0.51385415 -0.73923767 0.47761703

encoder.layers.2.linear1.bias f4 [16]
00000000: 6c01 b5be a4d4 5bbf 20d1 99be 15ad 4abf
00000010: 3eaa bcbf 847e 6fbf 72f8 ecbf 56b4 ddbe
00000020: 854b 20be 677e dfbd 8673 c2bf 36ca 84bd
00000030: 9143 e7be 6878 f7be 931a 27bf f35f 76bf
-0.35352647 -0.8587134 -0.30042362 -0.7917035 -1.4739454 -0.9355242 -1.851332 -0.43301648
-0.15653808 -0.10912781 -1.5191505 -0.06483881 -0.45168737 -0.4833405 -0.65274924 -0.96240157

encoder.layers.2.linear2.weight f4 [4, 16]
00000000: d916 4bbe dcec 88bd aee0 c7bd df18 17be
00000010: 8c7f 03bf 0cfb 4b3c 9caa da3c 50e9 1bbf
00000020: 5895 d8bd 6acd 6dbf ea92 48bf 832a 7dbf
00000030: 272f 723e e34e a23e d49f 39bf db82 6abe
00000040: 8bf7 143e 7528 173f 1eaf 753f 7354 263e
00000050: 6e99 9b3e 5a5e e73e ddcb 313f 72fc e93f
00000060: 10e3 d73e cd00 d63f 7035 a63e 1aa9 a03f
00000070: 0843 263e 0796 1fbc 8033 d1bd 113d 423e
00000080: 68cb 603e bebe 9a3c cbc1 ad3e 48e5 3bbd
00000090: 26aa ecbc dae9 bfbe d5cf 40be 83cb 933c
000000a0: 8c6c f73e c599 1e3e 7b5c d9be 7f80 fe3e
000000b0: 06f2 a53e 1663 71be 0b5e 623f fdaf f03f
000000c0: 9d8c 0fbe 4f3f 73bd 0900 b4be 1a6b cfbd
000000d0: 8bb6 6cbd 3006 21be 51a6 1fbe 8735 1cbe
000000e0: ac93 92be 3918 e0bd 6ffc 643d babd cabe
000000f0: 6461 ab3d c9dc 32be 928d 6e3d 14c7 8dbd
-0.19832934 -0.06685802 -0.09759651 -0.14755581 -0.51366496 0.012449991 0.026692681 -0.6090288
-0.1057536 -0.9289156 -0.78349173 -0.9889299 0.236508 0.3170081 -0.72509503 -0.2290148
0.14547555 0.5904611 0.9597033 0.16243152 0.30390495 0.45189172 0.69451696 1.8280165
0.42165422 1.6718994 0.32462645 1.2551606 0.16236508 -0.009740359 -0.10214901 0.18968607
0.21952593 0.018889781 0.33936915 -0.045872957 -0.028889727 -0.37483102 -0.18829282 0.018041378
0.48325002 0.15488346 -0.4245337 0.4970741 0.32411212 -0.23572955 0.8842475 1.8803707
-0.14018483 -0.059386548 -0.35156277 -0.1012785 -0.057791274 -0.15725017 -0.15590788 -0.15254794
-0.2862829 -0.1094212 0.055904802 -0.39597875 0.08368185 -0.17467035 0.05824048 -0.06922737

encoder.layers.2.linear2.bias f4 [4]
00000000: d089 0c3c 51d8 aaba 78c5 c23b cd63 a93c
0.008577779 -0.0013034438 0.0059439503 0.020677472

encoder.layers.2.norm1.weight f4 [4]
00000000: 38d7 c53f 3b9b 1b40 8187 953f f7bf e63f
1.5456305 2.4313495 1.1681978 1.8027333

encoder.layers.2.norm1.bias f4 [4]
00000000: c60e 10be 9f3e 46bd b0d1 4d3f 00dc dfbe
-0.14068136 -0.048399564 0.8039808 -0.43722534

encoder.layers.2.norm2.weight f4 [4]
00000000: 2539 993f 48c0 0440 9c30 653f 274a f03f
1.1970564 2.074236 0.895273 1.877263

encoder.layers.2.norm2.bias f4 [4]
00000000: 96bf 2d3d c763 e9bd 344e 013f 125d 16bf
0.04241904 -0.11395984 0.50509953 -0.58735764

encoder.layers.3.self_attn.in_proj_weight f4 [12, 4]
00000000: d281 413f fc28 55be 1d20 61be 2d89 753f
00000010: 6334 7fbf 58fb 1d3f 21ad 25bf fba7 0b3f
00000020: 7e41 76bf ccfb 3dbf 439c bf3f 0d29 7ebf
00000030: 0e87 8dbf 0d04 ce3f 821a ccbe 885a abbf
00000040: 262a 37bf 2718 84bf 75fa 453f ca11 a43e
00000050: 02d0 f7be 1d61 d2be 43fc 9e3f 212e 913f
00000060: b302 e93f 6662 5c3f ecc8 adbf 124e 8dbe
00000070: 8553 69bf 98ed 783f 9fdb 09c0 db38 ab3f
00000080: d59f 45bf 2350 663f 2c13 b1bf 3da3 4d3f
00000090: 6eab 9d3f 9575 babe 661e f83d 3bf9 f1be
000000a0: 762d d2be be57 153f 0b83 a1bf 0b48 873e
000000b0: fd10 a73d 6c32 2dbf 1245 9cbe 5041 67bd
0.75588715 -0.20816416 -0.21984906 0.9591244 -0.9968931 0.61711645 -0.647173 0.5455319
-0.96193683 -0.74212337 1.4969562 -0.9928139 -1.105684 1.6094986 -0.39863974 -1.3387003
-0.7154869 -1.0319871 0.7733529 0.32044822 -0.48400885 -0.41089717 1.2420734 1.1342202
1.8203949 0.86087644 -1.3576941 -0.27598625 -0.91143066 0.9723754 -2.1540296 1.3376726
-0.7719701 0.8996603 -1.3833976 0.80327207 1.2317941 -0.36417833 0.12115173 -0.4726046
-0.4105031 0.5833701 -1.2618116 0.26422152 0.08157537 -0.6765506 -0.30521446 -0.05645877

encoder.layers.3.self_attn.in_proj_bias f4 [12]
00000000: 5182 7abf e2d4 62bf fc4a 9e3f 4f7a 813e
00000010: 4104 cdbd 683f aabc 14b1 14bd 0476 023d
00000020: daff 493e a201 2ebf d0bf d6bd 6dc7 86be
-0.978551 -0.88606083 1.2366633 0.25288627 -0.10010577 -0.020782188 -0.036301687 0.03185083
0.19726506 -0.6797124 -0.10485804 -0.26324025

encoder.layers.3.self_attn.out_proj.weight f4 [4, 4]
00000000: 22d9 313f 4398 99bf 79bb 8f3d c213 133e
00000010: c411 363f e846 a53c d631 4d3f 4780 c7be
00000020: 9f70 313f ffc0 febe 0d0f 10bf 7b33 a13d
00000030: fc81 0bbf 3c0a 3a3d 90c3 cabe c37f 2b3e
0.69471943 -1.1999592 0.070181794 0.14363006 0.7112086 0.020175412 0.8015417 -0.38965055
0.6931247 -0.4975662 -0.56272966 0.07871147 -0.54495215 0.045419917 -0.39602327 0.16747956

encoder.layers.3.self_attn.out_proj.bias f4 [4]
00000000: d4d8 433f 8d97 083f a350 dcbe 4ca4 d7be
0.7650273 0.5335625 -0.4303027 -0.42117536

encoder.layers.3.linear1.weight f4 [16, 4]
00000000: 0cf3 9ebf a5a0 9c3f 0fa5 b3bf 32ba 783f
00000010: 2a2a a73e a6d4 833c 9eaa 10bd 9fb9 ac3d
00000020: eb87 a43f 40f2 43bf 5865 c8be 4344 8c3f
00000030: ce33 ef3c 6b5c afbc 41a1 07be 884a 8139
00000040: f0bc 2ebe c479 363f ac30 d6bf 0e56 993e
00000050: 15e1 47be 128a 523e da99 63bf d628 7f3e
00000060: f2e6 af3e 27ac 1e3e c528 21bf 8aea ce3e
00000070: 24f0 673f 4caf 0fbf ec32 77bf 0133 383e
00000080: f654 9e3f 5ed3 3a40 dc9b 9fbe b88b 4f3f
00000090: f3d8 db3c 4ece cbbe 5527 30bf 65bb 2d3e
000000a0: ef4a 92be d496 963f 0e30 22bf 109a 333f
000000b0: 0870 b8be 461e d1bf a50c 1dbe c0be 883f
000000c0: 1fb7 aebd a948 79be a54a 4abe a567 5b3d
000000d0: 792f 84bf 00ca 163f 1f57 5abf 32e4 5d3f
000000e0: 4e76 4f3e dc9c 873e 1617 0fbf c7a8 d03d
000000f0: 436a 163e 2467 89be 893d 1ebf 6a7f 3e3e
-1.2417922 1.2236525 -1.4034747 0.9715911 0.32649356 0.01609261 -0.035318963 0.08433842
1.2853979 -0.7654152 -0.3913982 1.0958332 0.029199507 -0.021406373 -0.13245107 0.00024660327
-0.17064261 0.7127955 -1.6733603 0.29948467 -0.19519456 0.20560482 -0.88906634 0.24917921
0.34355885 0.15495358 -0.62952834 0.40413314 0.906008 -0.56126857 -0.96562076 0.17988206
1.2369678 2.9191508 -0.311736 0.8107257 0.026836848 -0.39805835 -0.68810016 0.16966017
-0.28572795 1.1764779 -0.63354576 0.70156956 -0.36022973 -1.6337364 -0.15336855 1.0683212
-0.08531021 -0.24344124 -0.19755037 0.05356564 -1.0326988 0.5890198 -0.85289186 0.86676323
0.20259973 0.26486862 -0.558946 0.10188442 0.14688973 -0.26836503 -0.61812645 0.18603292

encoder.layers.3.linear1.bias f4 [16]
00000000: 7c98 4abf 416d 4dbf 17ea 42bf ed0c 6abe
00000010: f106 e43e cf08 dabe 1504 89bf 27c1 173f
00000020: ded6 e93e cc22 f8be 9014 32bf a738 b2be
00000030: 5621 c6be a5f0 2bbf 4d9b 69be 0530 08bf
-0.7913892 -0.80244833 -0.7613844 -0.22856493 0.44536546 -0.42584845 -1.0704371 0.592791
0.45671743 -0.48464048 -0.69562626 -0.34808847 -0.38697308 -0.6716407 -0.22813149 -0.5319827

encoder.layers.3.linear2.weight f4 [4, 16]
00000000: 39f6 2ebe 5ed7 b93e cea5 073f a130 713b
00000010: e90b e2be c126 bfbe 5dac 4ebe 520e 703e
00000020: 7d1c c5bf bb6a 1d3e 9a65 a3bf f90d 963e
00000030: dbd3 e33d 1abd d1be e263 bebd 7acb 0a3d
00000040: c173 853e 3a97 d9be f0b9 58bf cb06 ef3d
00000050: 6a37 7f3e b733 7c3e 7934 a73d 9d02 41be
00000060: 67c6 c33f a805 683e fd68 0e3f e4c0 83bf
00000070: 6ead 3f3e dfaf 7d3e 51d3 4e3d 185f 843d
00000080: b950 47bf b153 793e ed65 093f accd 50bd
00000090: 897b 833e 8b82 663e 5633 06be 5d3d ea3e
000000a0: c2b3 f7bf 761f aa3e 45ff 02be 0b5f 34be
000000b0: a5d7 933e 4fdc f1be 6dc2 133e 9149 e13e
000000c0: 492c 12bf 1b9b adbd 6083 91bc 8a8a d4bd
000000d0: 303e 843e 4e42 6f3c 3635 c6be 29e8 a53e
000000e0: b351 0b3f ed55 5a3d ae4e bbbe 7794 593d
000000f0: 0e80 a33d 799c 7abf b69a 54be 54c3 a43b
-0.17086114 0.36297125 0.5298737 0.0036802667 -0.44149712 -0.37334254 -0.20182939 0.23442963
-1.5399319 0.15372746 -1.2765381 0.29307535 0.111243926 -0.40964586 -0.09296395 0.033885457
0.26064876 -0.4249819 -0.8465872 0.116712175 0.24923483 0.24629103 0.08164305 -0.18848653
1.5294923 0.22658408 0.5562895 -1.029324 0.18718502 0.24774121 0.050494496 0.0646345
-0.7785755 0.24348332 0.5367115 -0.050977394 0.25680187 0.22510736 -0.1310552 0.4574994
-1.9351733 0.33227128 -0.1279269 -0.17614381 0.2887546 -0.47238395 0.14429636 0.4400144
-0.57098824 -0.0847685 -0.01776284 -0.10377987 0.25828695 0.014603211 -0.38712472 0.32403687
0.5442154 0.0533046 -0.36583465 0.053120103 0.07983409 -0.9789501 -0.20762143 0.0050281677

encoder.layers.3.linear2.bias f4 [4]
00000000: 5419 0bbd ae41 baba 090c 143d c771 12be
-0.0339597 -0.0014210248 0.03614429 -0.14301215

encoder.layers.3.norm1.weight f4 [4]
00000000: 1cbf 5ebf 35bb 7a3f c6a0 bbbf c2c5 6f40
-0.8701036 0.97941905 -1.4658439 3.7464452

encoder.layers.3.norm1.bias f4 [4]
00000000: a368 78bd 992b 3cbe 2f9e 0c40 b57d b1bf
-0.060646664 -0.18376006 2.1971548 -1.3866488

encoder.layers.3.norm2.weight f4 [4]
00000000: 0bd3 aa3f b351 ff3f e798 be3d 904d dd3d
1.3345655 1.9946808 0.093065076 0.108058095

encoder.layers.3.norm2.bias f4 [4]
00000000: c7f3 a9be a7ee 6fbe d9e7 b0bd 62ef 393e
-0.331938 -0.23430882 -0.086379714 0.18157724

output_layer.weight f4 [2, 4]
00000000: 6dbd 3d3e d266 763f 2a5c d43c c07f 06be
00000010: bb1b 003f 9f20 88bf 644f d33c e95f 00be
0.18529291 0.9625064 0.025922853 -0.1313467 0.50042313 -1.0634955 0.025794692 -0.12536587

output_layer.bias f4 [2]
00000000: 8923 483e c482 cfbe
0.19544806 -0.40529454
