checkpoints/RiffleOnlyShuffle_7rp_2l_best_model.pth (torch, 22062 bytes, 40 tensors)

embedding_layer.weight f4 [53, 4]
000000 a1 0d 1e bf e2 f1 0c 40 ed f9 4e 40 49 f6 64 c0
       -0.61739546 2.2022634 3.2340043 -3.577532
000010 6a 2a 1a 3f 02 6b 11 3e dd 4e 5c be d6 5b 87 3e
       0.6022097 0.14200976 -0.21514459 0.26437253
000020 9b 3d 05 3f 40 76 c3 3d 1d 0a 64 be ef 06 f8 3d
       0.5204713 0.09544039 -0.22269483 0.121106975
000030 4d 48 5b 3f 8d 58 2f 3e b4 71 65 3a 42 5e f8 3e
       0.856572 0.17123623 0.00087526 0.48509413
000040 67 b6 10 3f eb 7d 2e 3e 0c c5 44 be 00 12 65 3e
       0.56528324 0.17040221 -0.19215792 0.22370148
000050 b1 0e 36 3f f5 19 4b 3e db 4a 3b bd c8 74 a7 3e
       0.7111617 0.1983412 -0.045725685 0.32706285
000060 f4 cb 28 3f 87 76 bd 3d 83 57 9b bd 5a 3b d5 3e
       0.6593621 0.09251123 -0.07585051 0.41646844
000070 40 55 0c 3f c3 e4 c2 3d 08 31 4d be e7 a3 68 3e
       0.5481758 0.09516289 -0.20038235 0.22718774
000080 b0 f3 39 3f 7f 3f a9 3d eb b8 68 bd 2b d2 d6 3e
       0.7263746 0.08264064 -0.056816977 0.4195722
000090 f7 06 0d 3f 13 93 05 3e a3 79 9b be a3 af 65 3e
       0.5508875 0.13044386 -0.3036624 0.22430281
0000a0 eb 3b 31 3f e3 c6 63 3e 59 51 ac 3d a9 0b da 3e
       0.6923205 0.22243838 0.08413953 0.4258702
0000b0 d3 db 11 3f 98 af cf 3d c2 f8 cf be a1 58 d5 3d
       0.5697605 0.10140914 -0.40619475 0.10417295
0000c0 ef 02 35 3f 07 78 7a 3e 15 b4 49 bc f4 9e 94 3e
       0.707076 0.2445985 -0.012311001 0.29027522
0000d0 92 46 89 3e d9 8f 90 bd ee 21 61 bf 9b bd bc be
       0.26811653 -0.07058687 -0.879424 -0.36863407
0000e0 0a cf 34 3f 26 b0 ad 3d 59 1f 57 3c 81 47 ba 3e
       0.70628417 0.08480863 0.013130032 0.36382678
0000f0 b4 fe 18 3f 87 ec ad 3d 06 4d 72 be e2 b6 78 3e
       0.59763646 0.0849238 -0.23662195 0.24288514
000100 b9 55 31 3f ec 49 6f 3e 48 0c ba 3c dc 85 d9 3e
       0.6927143 0.23368043 0.022710934 0.4248494
000110 a9 13 35 3f 5a d6 6c 3d e3 2a 50 be 5e d1 3c 3e
       0.70733124 0.05782161 -0.2032886 0.18439242
000120 58 0a 27 3f 65 06 2c 3e 17 a6 af 3d 6b f4 f0 3e
       0.6525016 0.16799314 0.08576601 0.47061476
000130 3b aa 4f 3f 9f 60 3f 3e 48 2a 7c 3d 55 ca ca 3e
       0.81119126 0.18689202 0.06156376 0.39607492
000140 c3 93 f4 3e 44 68 da 3d 7f a2 fb be 83 9e 5a 3d
       0.47768983 0.10664418 -0.49147412 0.053373825
000150 bd 6e ff 3e f1 ee 3c 3e 8a 38 b2 bd 17 5f a6 3e
       0.49889174 0.18450524 -0.0870219 0.32494423
000160 f9 4f fe 3e de a2 f7 bc 96 e0 fa be 94 9c 0a be
       0.4967039 -0.030229028 -0.4899947 -0.13536292
000170 12 bb 16 3f ec b9 05 3e 75 dc 2a be b7 af 78 3e
       0.58879197 0.13059205 -0.1668566 0.2428578
000180 c2 60 13 3f b8 4c e9 3d 71 12 87 be 68 d0 a2 3e
       0.57569516 0.11391586 -0.26381257 0.31799626
000190 dd 37 12 3f 33 c4 a2 3d e3 54 7b be ef 8e 28 3e
       0.5711649 0.07947578 -0.245441 0.16460775
0001a0 f5 75 0d 3f ac 90 e1 3d 6d 98 0b bf a2 fc c0 3b
       0.55258113 0.11013922 -0.5452946 0.005889491
0001b0 c3 2b 1f 3f 09 a1 15 3e de c6 b0 bd 47 b8 70 3e
       0.6217615 0.14612211 -0.08631681 0.23507796
0001c0 94 0e 19 3f 0e 85 ed 3d ba 4f f9 bd e5 a6 b5 3e
       0.5978787 0.11597644 -0.1217341 0.35478893
0001d0 69 5a 23 3f a0 ae 06 3e 8a 6c 8b be 71 53 1c 3e
       0.6380983 0.13152552 -0.27231246 0.15266205
0001e0 29 36 14 3f eb a1 36 3e 1f 69 93 bd 36 51 a5 3e
       0.5789514 0.17835204 -0.07197785 0.32288522
0001f0 eb ce e9 3e f4 84 24 3e 90 04 ae be bd d8 f5 3d
       0.45665678 0.16066343 -0.33987856 0.1200423
000200 0f 89 51 3f 3e 18 43 3e 84 ed cf 3d fe 22 b2 3e
       0.8184976 0.19052216 0.101527244 0.34792322
000210 d2 65 fa 3e 38 ee 87 3d fe f1 4b be ec cd 09 3e
       0.48905808 0.066372335 -0.19916531 0.13457459
000220 a8 0a 6b 3f b3 50 40 3e f7 dc 70 3e 65 f8 dc 3e
       0.91813135 0.18780784 0.23521791 0.4315826
000230 b0 0a 34 3f 42 8b 37 3e 7d 7c f9 bd 3b 2d a7 3e
       0.7032881 0.17924216 -0.121819474 0.32651696
000240 7f 0c 2e 3f fc 2c 6c 3e b5 d9 2b be 4f 92 e9 3e
       0.6798782 0.23064035 -0.16782267 0.45619437
000250 12 27 52 3f 03 5a 41 3e 6a 67 ce 3d 76 93 ff 3e
       0.82090867 0.18881993 0.100783184 0.4991719
000260 07 13 02 3f de 35 12 3e 1a 45 db be a4 78 03 bb
       0.50810283 0.14278361 -0.42826158 -0.002006092
000270 dc 7b fc 3e 4e c4 bf 3d 47 11 f3 be 49 d5 28 3d
       0.49313247 0.09363614 -0.4747412 0.04121903
000280 ce 1a 2a 3f e6 91 19 3e 08 83 54 bd 58 1d aa 3e
       0.6644715 0.14997062 -0.051882774 0.33225513
000290 6f 8f 29 3f 82 3a 95 bd 92 e1 83 be 15 1e 19 3d
       0.6623449 -0.0728655 -0.25758034 0.037382204
0002a0 03 6b 28 3f ca 81 80 3e 75 29 39 be 85 8c 86 3e
       0.65788287 0.2509902 -0.18082221 0.26279083
0002b0 e8 5d 13 3f 16 76 4a 3d 7b 98 0e bf 46 14 90 bd
       0.57565165 0.04942902 -0.55701417 -0.07035117
0002c0 0d 02 18 3f 2c 27 0d 3e 53 32 58 bd 39 5c b4 3e
       0.5937813 0.13784474 -0.052782368 0.3522661
0002d0 3c 95 4c 3f 24 3c 30 3e 87 e2 99 3d 3c af 0a 3f
       0.79915214 0.17210442 0.0751391 0.54173636
0002e0 96 8f 16 3f 0e 62 58 bd 64 d2 95 be ec 95 21 3d
       0.58812845 -0.052827887 -0.29262078 0.039449617
0002f0 b0 43 13 3f 76 fe ce bc 27 33 a5 be 04 b6 9e 3c
       0.5752516 -0.02526782 -0.3226559 0.019373901
000300 69 40 0b 3f 1e 6e 01 3e 3f a2 76 bd bb c3 2a 3e
       0.5439516 0.12639663 -0.060213324 0.16676228
000310 a5 9d 32 3f 48 20 0d 3e 88 8d c8 bd c7 ba c1 3e
       0.69771796 0.13781846 -0.0979262 0.37837812
000320 83 da 7b 3f 66 a9 8b 3e 4f e4 aa 3e d3 b5 0e 3f
       0.983803 0.27277678 0.3337731 0.5574619
000330 8a e2 d7 3e 36 fb 31 bd 6e f1 9d be c1 d3 0f bd
       0.42165023 -0.043452464 -0.3084826 -0.035114054
000340 15 21 e1 3e f0 60 28 3e 0f 6b 79 be fb 17 10 3e
       0.43970552 0.16443229 -0.24357246 0.14071648

positional_encoding.emb.weight f4 [200, 4]
000000 fc 0e 85 bf fe 2f c5 bf b4 13 8d bd c7 c7 aa bf
       -1.0395198 -1.5405271 -0.06888524 -1.3342217
000010 f1 db c8 3e 04 b9 db bf 79 79 c6 3f c7 0e ab 3f
       0.39230302 -1.7165837 1.550582 1.3363885
000020 82 84 86 c0 50 62 fd be b8 e7 a2 3e 73 40 f2 3f
       -4.2036753 -0.4948907 0.31817412 1.8925918
000030 55 ae d3 bd b5 52 14 c0 7d 7c 3d 3f 1a e5 1d be
       -0.103359856 -2.317548 0.7401808 -0.15419427
000040 8d 8d 69 be 8d 01 c3 3e 06 6d b0 3e 8f 07 fe bf
       -0.22807904 0.3808712 0.34458178 -1.9846057
000050 63 a5 de 3e af 14 75 3e 1e 8c 80 3f 13 54 de bf
       0.43485555 0.23933671 1.004276 -1.7369407
000060 fc b6 3d c0 7b e3 07 3f 79 76 3b 3f c9 8d 34 40
       -2.9642935 0.5308148 0.7322765 2.8211539
000070 c7 0f a1 bf 75 3f ba bf 5f 15 28 c0 7b d0 d7 bf
       -1.258294 -1.4550616 -2.6263044 -1.6860498
000080 02 88 dc 3e 7d b7 18 3f e7 6b 80 3f 76 1d f3 3e
       0.43072516 0.5965498 1.0032929 0.47483414
000090 e9 92 96 3f 23 79 02 bf 30 8a 80 3f 2f 20 27 c0
       1.1763583 -0.5096609 1.0042171 -2.6113393
0000a0 4f 64 46 c0 1e 5c 15 bf 72 8f 08 3e 15 3d c6 3f
       -3.0998724 -0.58343685 0.1333597 1.5487391
0000b0 08 43 f5 3f 92 19 42 bf 57 35 b8 3d f8 c1 85 3e
       1.9161081 -0.7582027 0.08994549 0.2612455
0000c0 bf 4a f4 be 67 16 c6 3e 0f 12 7c bf 3e 75 1b c0
       -0.47713277 0.38688967 -0.98465055 -2.429031
0000d0 93 0c 60 3e 5a c7 3f c0 2f e8 2e 40 ad 9d e1 bf
       0.21879797 -2.9965425 2.7329214 -1.7626244
0000e0 f4 3f 3e c0 72 d6 53 bf a8 c1 78 3e 89 7f 9e 3f
       -2.9726534 -0.8274909 0.24292624 1.2382671
0000f0 d2 66 83 be 08 e7 88 bf de 2a dc 3f 86 95 05 c0
       -0.25664383 -1.0695505 1.7200582 -2.0872512
000100 a9 d3 18 be 74 67 66 3f 86 b4 72 bf 0d 78 02 c0
       -0.14924492 0.90001607 -0.94806707 -2.0385773
000110 a2 a9 ad be 54 84 4a 3f dc f5 3a bf 8c 44 da bf
       -0.33918482 0.79108167 -0.730314 -1.7052169
000120 c3 70 00 c0 72 b4 6b bf bf ec 19 40 25 96 f8 3f
       -2.0068824 -0.9207221 2.4050748 1.942082
000130 0a 96 f8 3d 38 9a a8 3f 75 f4 39 c0 13 3d 11 3f
       0.12137993 1.3172064 -2.9055455 0.56733817
000140 56 dd 89 3f 8a 85 93 3f 8c 6e e5 3f 61 cc 04 3f
       1.0770671 1.1525128 1.7924361 0.5187436
000150 2b ba 81 3f 5a f0 55 bf 42 11 65 be c7 83 2b bf
       1.0134939 -0.8356987 -0.22369865 -0.6699795
000160 da bf b6 bf 2d 06 96 bf ac e8 40 40 57 2e ee 3f
       -1.4277298 -1.1720635 3.0142012 1.8607892
000170 6b ef 14 bf 76 76 1f bf 67 74 ef 3f 93 f3 0c c0
       -0.5817782 -0.6229013 1.8707398 -2.2023666
000180 90 d2 1a 3f 4c 23 ff 3f 3c 39 a0 bf 59 72 fc 3e
       0.6047754 1.9932647 -1.2517467 0.4930599
000190 38 2d c7 3e 01 59 31 3f 60 5e 40 c0 26 24 27 c0
       0.38901687 0.69276434 -3.0057602 -2.6115813
0001a0 1f 62 f8 bf 2f e7 97 bf c4 9e ac 3f 9e fe b3 be
       -1.9404944 -1.1867427 1.3485951 -0.35155195
0001b0 5c 45 ea 3f 83 ae d7 3f cc 4b 01 bf 4a b9 45 3f
       1.8302417 1.6850132 -0.5050628 0.77235854
0001c0 9b 0c 09 40 0a 85 21 bf 61 8d 36 be df e0 84 be
       2.1413944 -0.63093626 -0.1782737 -0.25952813
0001d0 a7 eb 07 40 25 ad b9 3f 05 18 9e be 1e 76 11 3f
       2.123758 1.4505965 -0.308777 0.5682086
0001e0 7b 24 b1 bf 2c 02 09 c0 ff 7a 03 40 64 94 1f 40
       -1.3839258 -2.1407576 2.054382 2.493432
0001f0 0d 52 35 be 14 4a 65 3f d7 cd 07 c0 1c 04 69 bf
       -0.17707081 0.8956616 -2.1219385 -0.91021895
000200 3c 6a b1 3f 07 6c 18 40 3c 95 9f bf 11 00 12 bf
       1.3860545 2.3815935 -1.2467418 -0.5703135
000210 8a 83 37 3f 9a 39 22 40 12 c3 16 c0 a0 88 26 bf
       0.7168509 2.5347657 -2.3556561 -0.65052223
000220 3f 33 0a c0 d2 87 05 c0 2a 37 bb 3f 38 4d 03 40
       -2.1593778 -2.0864148 1.462621 2.051588
000230 22 28 d5 3f c7 a1 6a 3f c4 b4 33 3f a7 39 d7 bf
       1.6652873 0.916531 0.701977 -1.6814469
000240 bc 2b 35 40 09 e7 23 40 66 60 43 3f 0c 95 7f bf
       2.8307943 2.5609763 0.7631897 -0.998368
000250 7b 80 27 40 00 4c 29 40 36 f4 18 3f a6 37 23 bf
       2.6172168 2.6452637 0.59747636 -0.6375679
000260 f2 89 2a c0 10 22 88 bf 2c bc a4 3f 9e 7b 1e 3f
       -2.6646695 -1.0635395 1.2869925 0.61907375
000270 1c 89 d8 3f e4 f8 36 40 14 94 46 bf 0d 6f 05 c0
       1.6916842 2.858941 -0.775697 -2.084903
000280 5e b3 27 40 6c ea b9 3f 33 4c 67 bf 75 15 55 c0
       2.6203227 1.4524665 -0.90350646 -3.3294346
000290 88 c2 bd 3f a8 77 39 40 f2 e2 74 bf c5 37 f4 bf
       1.4824991 2.8979282 -0.9565879 -1.907952
0002a0 89 65 66 c0 df 87 b3 bf 90 30 e4 bf 83 cc 24 40
       -3.5999472 -1.402584 -1.782732 2.5749824
0002b0 52 0f 25 40 63 95 43 40 fc 04 01 bf b9 ae 97 bf
       2.57906 3.0559928 -0.5039823 -1.1850196
0002c0 b7 74 0d 40 8f 2e 20 40 ca 3b cd bf 98 1e 2a c0
       2.2102487 2.5028417 -1.6033871 -2.6581173
0002d0 83 f3 c6 3f cf 11 ee be 55 44 60 3c 08 12 e8 3f
       1.5543064 -0.46497962 0.013688167 1.8130503
0002e0 f8 a7 75 bf 50 f2 26 bf b1 da 10 40 b0 78 e8 bc
       -0.95959425 -0.6521349 2.2633479 -0.02837786
0002f0 42 5c 34 40 06 ca 0f 40 30 ed 12 c0 b7 8b 37 c0
       2.818131 2.2467055 -2.2957268 -2.8679025
000300 18 5e 0c 40 26 b8 51 40 50 87 2b c0 31 eb a2 bf
       2.193243 3.2768645 -2.6801338 -1.2728025
000310 c1 98 18 40 ee 4a 51 40 e4 67 34 c0 dd 2f 95 bf
       2.3843234 3.2701983 -2.818841 -1.1655232
000320 87 d4 9e bf 5f 38 50 c0 c2 54 d3 3f 8a d6 f6 3f
       -1.2408608 -3.2534406 1.6510241 1.9284222
000330 bc 7c 8b 3f c0 0d 65 3f af f2 61 bf 80 18 99 bd
       1.0897441 0.89474106 -0.8826093 -0.07475376
000340 2d 7a 6c 3f ea 5c 15 c0 1e 7a a1 bf 24 87 47 3f
       0.92373925 -2.333796 -1.2615392 0.77940583
000350 fd a8 26 40 03 2a 65 40 c3 33 93 bf 01 1e d0 bf
       2.6040642 3.5806892 -1.1500171 -1.6259156
000360 85 0d 79 bf 27 4b 9b bd 1c 11 f8 3f f5 c9 db 3e
       -0.97286254 -0.075826935 1.9380221 0.42927518
000370 82 73 de 3f 20 e1 85 bf d8 b4 8d bf 94 70 c5 3e
       1.7379 -1.0459328 -1.1070814 0.38562453
000380 5c 26 85 40 e8 02 0d 40 6a f5 02 bf f6 35 4e c0
       4.1609325 2.2033024 -0.5115572 -3.2220435
000390 cc 6b 19 40 33 54 85 40 bb 29 5e bf 96 8f f0 be
       2.3972044 4.166528 -0.86782426 -0.46984547
0003a0 4f 65 38 c0 8f 1f d1 bf 54 8f a6 3e 10 3a 87 3f
       -2.8811834 -1.6337756 0.32531226 1.0564594
0003b0 56 2d 4e 40 d4 94 72 3f f8 96 07 c0 fa 59 75 3d
       3.221517 0.94758344 -2.1185894 0.05990026
0003c0 34 aa 3a 40 20 6b 1a 40 7f da a7 3f e1 7a 35 c0
       2.9166384 2.4127884 1.3113555 -2.835625
0003d0 9d 20 3d 40 df e3 89 c0 fb e5 8e be 65 22 b2 bd
       2.9551156 -4.3090663 -0.27909836 -0.086979665
0003e0 d5 1d 7c c0 70 21 bb 3e 73 90 16 bf f6 23 3f 3f
       -3.9393208 0.36548948 -0.5881416 0.7466425
0003f0 ab 36 8f 3f 14 a5 34 bf 54 fa 32 bf 5f 75 6e 3f
       1.1188558 -0.7056439 -0.6991322 0.93147844

encoder_layer.self_attn.in_proj_weight f4 [12, 4]
000000 3d 99 1c 3f e2 22 17 bf 00 56 ac bb 28 10 a6 3e
       0.61171323 -0.590376 -0.0052592754 0.324342
000010 c0 66 3b 3c 84 70 12 3e 93 34 01 3f 6e db 0f be
       0.011438072 0.14300734 0.50470847 -0.1404855
000020 4c e9 f3 be 75 4a 01 3f c0 72 2a bd bc 07 fa be
       -0.4763893 0.5050424 -0.04161334 -0.48834026
000030 c6 db 95 3e 80 59 fe 3d 6c 8e 89 be d2 0b a4 3e
       0.29269236 0.124194145 -0.26866472 0.32040268
000040 6e 48 ea 3e 4d 1c d5 be d6 86 05 bf d7 a5 b1 be
       0.45758384 -0.41623154 -0.5215887 -0.34696838
000050 80 69 03 3e 42 c0 9d 3e a1 61 1a 3f c0 77 04 bc
       0.12833214 0.30810744 0.6030522 -0.008085191
000060 80 46 d9 3c 6e eb ab be ea 81 96 3e 26 d3 0e bf
       0.026522875 -0.33578056 0.29395992 -0.55790937
000070 f6 52 82 be 8a 06 21 be b8 92 a2 bd 60 36 a5 3c
       -0.2545392 -0.1572515 -0.07938141 0.02016753
000080 b4 5e 90 3e 5f c2 1b 3f 87 4b e6 be 24 62 10 bf
       0.28197253 0.6084346 -0.44979498 -0.5639975
000090 46 fe ef be fe 06 f2 be da d9 93 be a2 9e 30 be
       -0.46873683 -0.4727096 -0.28877145 -0.17248014
0000a0 e0 6a d9 3c 36 16 b3 3e c2 aa f3 be 7e 99 c2 3e
       0.02654022 0.34977883 -0.47591215 0.3800773
0000b0 13 42 0f 3f 4e 15 c7 3e 94 79 78 be 83 cf 0b 3f
       0.55960196 0.38883442 -0.24265128 0.5461351

encoder_layer.self_attn.in_proj_bias f4 [12]
000000 00 00 00 00 00 00 00 00 00 00 00 00 00 00 00 00
       0.0 0.0 0.0 0.0
000010 00 00 00 00 00 00 00 00 00 00 00 00 00 00 00 00
       0.0 0.0 0.0 0.0
000020 00 00 00 00 00 00 00 00 00 00 00 00 00 00 00 00
       0.0 0.0 0.0 0.0

encoder_layer.self_attn.out_proj.weight f4 [4, 4]
000000 20 3e c4 bc ba cc 94 be 58 ef db bd 24 f2 1a be
       -0.023955405 -0.29062444 -0.107390106 -0.15131432
000010 5a 18 86 be e2 2a dd 3e 90 88 89 3e 54 23 94 be
       -0.26190454 0.4319678 0.26862 -0.28933203
000020 1a 93 ed 3e 82 e4 d9 be 60 1c e1 3e 30 ba dd 3e
       0.46401292 -0.4255715 0.4396696 0.43306112
000030 f6 f1 d3 be c8 73 77 3e 40 f6 6a 3e ca 61 a4 3e
       -0.4139554 0.24165261 0.229455 0.32105857

encoder_layer.self_attn.out_proj.bias f4 [4]
000000 00 00 00 00 00 00 00 00 00 00 00 00 00 00 00 00
       0.0 0.0 0.0 0.0

encoder_layer.linear1.weight f4 [16, 4]
000000 2c 88 35 be ee e8 b9 3e c0 f0 97 3c 18 12 ac 3e
       -0.17727727 0.36310524 0.018547416 0.33607554
000010 00 35 7a 3c 40 63 d3 bc 3e c6 e8 3e f0 90 fc be
       0.015271425 -0.025804162 0.45463747 -0.4932933
000020 46 38 c7 be 84 9f 74 3e 00 27 70 be 6e 5a cb be
       -0.3891012 0.23888975 -0.23452377 -0.3971743
000030 e8 2d dd 3d 14 23 4f be 4a 14 85 3e 90 ea 60 3d
       0.107997715 -0.20228225 0.25992042 0.054911196
000040 5c db c6 be ce af 88 3e 30 11 31 3e 78 e6 cc 3d
       -0.38839233 0.26696628 0.17291713 0.10004896
000050 e8 3d 6b 3e fc d9 cc be c0 0c 9a 3d 68 10 5f 3e
       0.22972834 -0.4001006 0.07521963 0.21783602
000060 70 c1 e8 3e e2 3c bd be d2 3c 86 3e 24 af 75 be
       0.4546008 -0.36960512 0.26218277 -0.23992592
000070 20 79 9c 3e 60 0e f4 bc 18 cc d5 3e b4 a1 a8 3e
       0.3056116 -0.02979201 0.41757274 0.3293587
000080 8c 4a 12 3e b4 76 63 3e fe 91 90 3e 18 85 49 be
       0.1428625 0.2221325 0.28236383 -0.19679677
000090 a4 09 2b be c0 66 1d 3d 1e 31 90 3e d2 8c dc 3e
       -0.16702896 0.03842807 0.28162473 0.43076187
0000a0 82 13 c9 3e c4 39 c9 3e 98 23 79 be e0 8c ff 3d
       0.39272696 0.39301884 -0.24329984 0.12478042
0000b0 70 b1 27 be 98 97 44 3e 30 22 e7 3e 0e 75 ab be
       -0.16376281 0.19198453 0.4514327 -0.33487743
0000c0 60 df 85 3c 78 87 91 bd ca 0a c2 3e 86 53 f0 be
       0.016341865 -0.07105917 0.37898856 -0.46938723
0000d0 98 8a e6 3d e4 b4 68 3e d0 4f ea 3d 40 98 03 3c
       0.112569034 0.22725254 0.11441004 0.008031905
0000e0 b0 a9 5b 3e ae 8f b9 be 10 b2 13 3d a8 61 8c bd
       0.2145145 -0.3624243 0.036058486 -0.06854564
0000f0 64 05 0f be 9e fa 8a 3e 38 fd de 3e 90 47 9a bd
       -0.139669 0.2714433 0.43552566 -0.07533181

encoder_layer.linear1.bias f4 [16]
000000 50 7e 7b bd e2 75 b7 be 58 fb 85 bd 00 8c b5 ba
       -0.061399758 -0.35832125 -0.06542081 -0.0013850927
000010 d8 d9 03 3e 74 42 28 3e 5c 6e 1a 3e 2a c7 c5 3e
       0.1287607 0.164316 0.15081161 0.38628513
000020 ca 3e ee be cc eb 8d be 18 ea 9a bd 10 de 4f 3d
       -0.4653228 -0.2771896 -0.07564181 0.050748885
000030 ea 78 ef be d8 f6 45 be 00 ff a8 3e 12 e1 ad 3e
       -0.46771938 -0.19332445 0.3300705 0.33960778

encoder_layer.linear2.weight f4 [4, 16]
000000 40 c8 b9 3d 10 63 55 be de ee 78 3e 70 0a 01 bd
       0.09071398 -0.2083857 0.2430987 -0.031504095
000010 80 88 fe 3b 68 4f db bd 9c d4 53 3e 2c 81 0c be
       0.007767737 -0.10708505 0.20686573 -0.1372115
000020 2e 77 63 be 80 34 9a 3d b0 39 07 3e c6 a5 4c be
       -0.22213432 0.07529545 0.132056 -0.19985113
000030 ec 5d e8 3d a0 dc 64 3c ee 5e 05 3e a4 a9 b8 3d
       0.11346039 0.013968617 0.13024494 0.090167314
000040 90 88 2a bd 96 f2 32 3e a4 39 23 3e 00 ea 86 3a
       -0.041634142 0.17475352 0.15939957 0.0010293126
000050 22 0b 7f be 2c cb 9e 3d 6c 87 9c bd e0 ee 1f bc
       -0.2490659 0.07753596 -0.07643017 -0.009761542
000060 5c bc 81 3d 20 74 58 bc c8 1a 4e bd 7c 02 2e be
       0.06334755 -0.01321128 -0.05031851 -0.16993135
000070 88 69 3b 3d d0 88 1d 3d d8 6f 62 3e 50 ee 17 be
       0.04575494 0.038460553 0.22112978 -0.14837003
000080 00 2e 0a bc 30 59 9d 3d 3a 13 23 3e 54 1d 47 be
       -0.008433819 0.07683027 0.15925303 -0.19444782
000090 f0 ea 49 3d a0 0d 4e bc ca 08 0d be 18 dc 71 3e
       0.04929632 -0.012576491 -0.13772884 0.23619115
0000a0 50 f6 e3 3c da 14 31 3e d8 57 7e 3e 80 9e 5a be
       0.027827412 0.1729311 0.24838197 -0.21349525
0000b0 cc f2 0e be 32 01 02 3e 40 ec 33 be f2 af 62 be
       -0.13959807 0.12695768 -0.17570591 -0.2213743
0000c0 7a 9b 73 3e 00 ba d0 3a e0 9b 4e be c0 d8 78 bd
       0.23789778 0.0015924573 -0.20176649 -0.060753584
0000d0 c0 f3 9a bb 24 8d 4f be 40 55 ed bc 62 50 2d 3e
       -0.0047287643 -0.20268685 -0.028971314 0.16925195
0000e0 f4 cf b6 3d 68 5e 52 3e 86 db 4c be c8 68 86 3d
       0.08926383 0.20543826 -0.20005617 0.06562954
0000f0 04 61 31 3e 80 b5 73 be a8 67 78 be 6c 51 2e 3e
       0.17322165 -0.23799706 -0.24258292 0.17023247

encoder_layer.linear2.bias f4 [4]
000000 98 ba 06 3d 0c 66 0e be b4 2e 63 3e ba 7e 6e 3e
       0.032892793 -0.13906115 0.22185785 0.2329053

encoder_layer.norm1.weight f4 [4]
000000 00 00 80 3f 00 00 80 3f 00 00 80 3f 00 00 80 3f
       1.0 1.0 1.0 1.0

encoder_layer.norm1.bias f4 [4]
000000 00 00 00 00 00 00 00 00 00 00 00 00 00 00 00 00
       0.0 0.0 0.0 0.0

encoder_layer.norm2.weight f4 [4]
000000 00 00 80 3f 00 00 80 3f 00 00 80 3f 00 00 80 3f
       1.0 1.0 1.0 1.0

encoder_layer.norm2.bias f4 [4]
000000 00 00 00 00 00 00 00 00 00 00 00 00 00 00 00 00
       0.0 0.0 0.0 0.0

encoder.layers.0.self_attn.in_proj_weight f4 [12, 4]
000000 2e 6c 83 3f 42 74 31 bf d6 13 58 bf ba 7f f3 3e
       1.0267389 -0.6931802 -0.8440527 0.47558385
000010 2a 5e d6 be 94 6c 97 3e 41 2b 8b 3e fe d7 b5 be
       -0.41868716 0.29575026 0.27181438 -0.3551635
000020 4a 20 08 3f f2 5e bc 3f 47 9d 13 bf 97 89 77 bc
       0.5317427 1.4716475 -0.5766186 -0.015108488
000030 8c bc b2 3e 96 9e c7 3e 38 cb 84 3e 5c 4a e4 be
       0.34909475 0.3898818 0.25936294 -0.44587982
000040 fa 82 a2 3f 22 fb 3f 3e 49 fe 91 bf 12 18 61 3c
       1.2696221 0.18748143 -1.1405727 0.013738649
000050 59 95 6f bf 25 8b 9e be ff 5f 70 3f 4c 5a a4 be
       -0.9358726 -0.30965534 0.9389648 -0.3210014
000060 c2 04 e3 be 2d af a8 bf 21 7c b9 bd db 32 2a 3f
       -0.44339567 -1.317846 -0.09056879 0.6648385
000070 e3 fc e7 be eb c0 ff 3d 02 72 98 3e 8c 89 67 bf
       -0.45310125 0.12487968 0.2977448 -0.90444255
000080 f7 e3 ee 3e ee 4f fa be 71 6e 11 bf bb 98 8b 3f
       0.46658298 -0.48889107 -0.56809145 1.0905985
000090 64 a8 9d 3e de fe b2 bf 89 cf 44 bf d6 3c 58 3f
       0.30792534 -1.3984029 -0.76879174 0.8446783
0000a0 ec fd 89 3f a0 dd df 3d a0 ef 6a bf b5 14 4e 3f
       1.0780616 0.109309435 -0.9177189 0.80500346
0000b0 da 14 66 3f f9 39 13 3f 32 41 a8 bf 86 55 ea 3e
       0.89875567 0.57510334 -1.3144896 0.45768374

encoder.layers.0.self_attn.in_proj_bias f4 [12]
000000 5d 98 2a 3e 98 1d 39 3f 96 17 e2 3c 1c 53 c8 3f
       0.16659684 0.7231078 0.027599137 1.5650363
000010 10 e4 9e 3c 79 52 42 bc fc c4 e9 3b 49 5e 3f ba
       0.019395858 -0.011860483 0.007134078 -0.00073001214
000020 05 5f b9 be ba 81 d8 be f0 fe 99 3f bc 78 28 3f
       -0.36205307 -0.42286474 1.2030926 0.65809226

encoder.layers.0.self_attn.out_proj.weight f4 [4, 4]
000000 80 81 9f be 89 bb b0 be 60 94 36 bf af 86 f8 be
       -0.31153488 -0.34518078 -0.7132015 -0.48540255
000010 3e 25 46 3f e9 32 84 3f 52 2a a6 3f 54 ee ad 3f
       0.7740058 1.0328037 1.2981665 1.3588357
000020 0b d5 d6 3e 2c 30 e0 be b4 f8 26 3f 41 7c 7f be
       0.41959414 -0.43786752 0.6522324 -0.24949743
000030 02 2a b6 3d 38 ab 5d 3f 67 e7 8c be 65 0e f9 3e
       0.08894731 0.86589384 -0.27520296 0.48643795

encoder.layers.0.self_attn.out_proj.bias f4 [4]
000000 e4 58 4d 3f 5a 7f be bf 87 cc 5b bf 8f f7 d5 3e
       0.8021376 -1.4882615 -0.8585896 0.41790435

encoder.layers.0.linear1.weight f4 [16, 4]
000000 6c 28 b9 bd 77 61 a6 3f fe f8 af 3d 1a e9 6e 3e
       -0.09040913 1.2998494 0.08592413 0.23331109
000010 08 33 22 3f 33 1c 82 be f4 e7 85 3f e2 ae 2f be
       0.6335912 -0.2541214 1.0461411 -0.17156556
000020 6f 1f 04 bd 80 8c 87 3e 02 08 9d bd ef ad cd 3e
       -0.03225654 0.2647438 -0.07667543 0.40171763
000030 ea 03 58 3f 19 3b ee 3e 92 b9 5c be 1f d2 a4 3f
       0.8438097 0.46529463 -0.21555164 1.2876624
000040 a4 93 81 3e 07 21 06 3f 1a ab 6a 3f 81 3c 21 bf
       0.25307953 0.52394146 0.9166733 -0.62982947
000050 f3 8b b1 3e a8 c3 bb 3f a3 37 05 bf bc 25 bf 3e
       0.34677085 1.4669085 -0.5203802 0.37333477
000060 90 ff 29 3f 7e 90 10 3f 30 65 50 3f 86 f8 46 bf
       0.6640558 0.5647048 0.814044 -0.77722967
000070 07 71 dd bd c4 00 31 3f e4 4a c7 3e 2e 83 9f bd
       -0.10812574 0.69141793 0.38924325 -0.077886924
000080 a9 d2 06 3e 7a 49 f8 3d 4c bd 31 3e a9 4a b0 bd
       0.13166298 0.121233895 0.17357367 -0.0860799
000090 69 f3 c3 be 30 ea 8c 3e 96 a4 3b 3f cf e7 5f 3e
       -0.38271645 0.2752242 0.73298013 0.21865772
0000a0 60 dc ae bd 91 41 85 3f e9 aa e7 3d 29 10 e6 3e
       -0.08538127 1.0410634 0.113118954 0.44934204
0000b0 f4 6e 1a 3f a9 cf be 3f 08 26 22 be 1c 85 68 bf
       0.6032555 1.4907123 -0.1583482 -0.9082811
0000c0 8c 91 41 3f 1e c3 db 3f 8f 4f 7a be 1d 25 55 bf
       0.7561271 1.716892 -0.24444412 -0.83259755
0000d0 10 47 30 3f ab fd 12 3f 49 0b 28 3f f8 09 43 bf
       0.6885843 0.57418317 0.6564222 -0.76187086
0000e0 d1 c8 82 3e 46 21 44 3e bb 9f 83 bb 31 68 af 3d
       0.25543836 0.19153318 -0.004016844 0.08564795
0000f0 87 cc 9b 3e 5c 8e 85 3f 4e 3d 28 3e 53 61 46 bf
       0.3042948 1.043407 0.16429636 -0.77492255

encoder.layers.0.linear1.bias f4 [16]
000000 5e 3d 46 bf 4d 57 8b bf cc cc 7a bf d1 fe dc bf
       -0.7743739 -1.0886017 -0.97968745 -1.7265264
000010 a9 36 64 bf 92 b5 a3 bf f8 c4 62 bf 92 ca 2a bf
       -0.89145905 -1.2789786 -0.885818 -0.6671535
000020 d6 41 13 bf 76 69 ea be 96 f0 24 bf 44 f7 8a bf
       -0.5752233 -0.45783585 -0.64429605 -1.085671
000030 6a 22 b4 bf 37 82 2c bf 2c e7 5c bf 88 ab d4 be
       -1.4073002 -0.6738619 -0.8629024 -0.41537118

encoder.layers.0.linear2.weight f4 [4, 16]
000000 6a 45 08 3e 0c 87 2f 3f ec 41 8e 3d 38 28 57 3f
       0.1330773 0.6856544 0.06946167 0.84045744
000010 8e 6b 93 bd 58 25 1b bd f1 33 ac 3f cc 12 ff 3b
       -0.07198249 -0.03787741 1.3453351 0.007784223
000020 a5 69 fe bd 67 82 0b bf 82 2c e2 bb 72 83 b3 3e
       -0.12422494 -0.54495853 -0.0069022784 0.35061222
000030 0a 4f 82 3f 0a c4 b5 3f da 0c 58 3e d0 26 9f 3c
       1.0180371 1.4200451 0.21098652 0.019427687
000040 8c 9e 6e be 04 41 0f 3f a9 c1 82 bd 8a ae 6b bf
       -0.23302668 0.5595858 -0.06384594 -0.920632
000050 c0 24 14 bf 16 99 83 3e df b7 b3 3d ef e9 85 be
       -0.57868576 0.25702733 0.08775305 -0.2615504
000060 49 71 01 bd 0c 32 83 3d b4 cd 48 3e 74 b4 2b bf
       -0.031602178 0.0640603 0.1960972 -0.67072225
000070 3c 2a 1f bf 41 5d 04 3e 03 26 a0 3b 87 61 25 bf
       -0.6217382 0.12926199 0.004887344 -0.6460194
000080 b2 e7 31 3e 4d 99 0a bf 6b 74 15 bc d0 d6 cc be
       0.17373541 -0.5414017 -0.0091219945 -0.4000764
000090 3d ea f2 be e2 5b 0d 3f 9d 48 cf bd 01 c0 97 3e
       -0.47444335 0.5521833 -0.10121272 0.29638675
0000a0 c0 51 2a bd ce f6 57 bc fb 13 ff bd d2 fb 1e be
       -0.04158187 -0.013181401 -0.12454983 -0.1552575
0000b0 f0 99 c8 bd 2d 17 10 be a6 0b cd 3e 11 e2 4a 3c
       -0.09794986 -0.14071341 0.4004795 0.012383
0000c0 29 74 83 bd 0b 3e f9 be 30 71 f4 3e 39 86 77 3f
       -0.0641864 -0.48680148 0.47742605 0.9668918
0000d0 f7 53 78 3e 66 df ea be f9 68 74 be 9b c9 92 3e
       0.2425078 -0.45873564 -0.23868169 0.28669438
0000e0 1b 59 16 3c 6e 54 e0 3a cd 81 25 3f 79 a1 5e 3f
       0.009176518 0.0017115006 0.64651185 0.8696514
0000f0 e2 21 43 3f 33 ea 1e be de e5 6e 3e 5b a9 94 3e
       0.76223576 -0.15519027 0.23329875 0.29035458

encoder.layers.0.linear2.bias f4 [4]
000000 59 c6 4e bd 53 d9 91 3d c8 c7 99 3c d1 ac 8e bd
       -0.050482128 0.071215294 0.018772021 -0.06966556

encoder.layers.0.norm1.weight f4 [4]
000000 5f 98 0d 40 cb db 06 3f bf bc ad 3f d1 ad 9c 3f
       2.212425 0.5267913 1.3573226 1.2240545

encoder.layers.0.norm1.bias f4 [4]
000000 0a 26 a3 3e 12 8d fb be 65 c1 93 bf 0d 2f a4 be
       0.3186496 -0.49131066 -1.1543394 -0.32067147

encoder.layers.0.norm2.weight f4 [4]
000000 e9 53 d8 3f 0b dc 4d 3f e5 13 5a 3f be 38 81 3f
       1.6900607 0.80413884 0.85186607 1.0095441

encoder.layers.0.norm2.bias f4 [4]
000000 eb a5 82 3f 56 6b 28 bf a1 33 8f 3e 85 f5 93 be
       1.0206884 -0.6578878 0.27969077 -0.28898254

encoder.layers.1.self_attn.in_proj_weight f4 [12, 4]
000000 a1 04 47 3f 07 fa 82 bf 5f 4c 8b 3f bc 97 fe be
       0.7774144 -1.0232552 1.0882682 -0.4972514
000010 c4 3a 29 3f 8d 0e 6e be dc ba 83 3f a2 60 85 bf
       0.66105294 -0.23247738 1.02914 -1.0420115
000020 7e ac 36 bf 69 85 8f 3f 08 b6 4f bf e5 94 08 bf
       -0.7135695 1.1212589 -0.8113713 -0.53352195
000030 4a 2b 95 bf d6 81 8d 3f 5e 5f bf be 16 92 af 3f
       -1.1653836 1.1055248 -0.37377447 1.3716457
000040 c6 9a 2b 3e 11 ab c5 be 8a e9 f2 bf 77 de ba 3e
       0.1675826 -0.38607076 -1.897752 0.36497852
000050 89 cd fa 3e a9 14 ad be 44 ab 41 bf 02 89 85 3f
       0.48984936 -0.33804825 -0.75651956 1.0432436
000060 73 c9 a2 3e 10 ec 3a bf e8 35 68 bf ba bc b2 be
       0.3179432 -0.7301645 -0.90707254 -0.34909612
000070 12 8a 99 bf d5 4a 25 3e 18 45 08 3f b4 68 ae be
       -1.1995261 0.16141827 0.5323043 -0.34064257
000080 50 7e 04 3f 88 ce a7 3e 37 05 77 be 82 c4 79 bf
       0.5175524 0.32774758 -0.24123083 -0.9756547
000090 bb 65 0b bf ee 0e d0 be 0c 64 3c 3f ca 6b ec bd
       -0.54452103 -0.4063639 0.7359016 -0.11543997
0000a0 9d 6a e5 3e fa e2 1e 3d 4a 81 79 3f 53 2f 75 be
       0.44807902 0.03879068 0.97462904 -0.23943834
0000b0 81 f1 e9 bd a8 0a 0d 3f c8 67 56 bf 05 27 81 3f
       -0.11423016 0.55094385 -0.8375211 1.0090033

encoder.layers.1.self_attn.in_proj_bias f4 [12]
000000 3c 53 dd 3e e3 42 69 3e 32 5b 91 bd 42 09 10 3e
       0.43227565 0.22779422 -0.07097472 0.14066032
000010 e5 0c 1f bd 46 b0 b0 bd 47 9b 91 bb 3b 2d f0 bd
       -0.038830657 -0.086273715 -0.0044435593 -0.11727377
000020 01 70 22 bf f3 cb 66 be 3b 93 da be f7 6b 84 be
       -0.63452154 -0.22538738 -0.42690453 -0.2586362

encoder.layers.1.self_attn.out_proj.weight f4 [4, 4]
000000 28 09 9e be 61 8f 03 3f 8e 1e 5d bc 55 d3 d1 be
       -0.3086636 0.51390654 -0.013496054 -0.40981546
000010 f6 1d c6 3e fb 18 83 be 4e 41 81 3e 18 45 d7 3d
       0.38694733 -0.25604996 0.25245136 0.105112255
000020 5e 91 87 3e a0 85 bf be 0a 7b ff bb 14 e4 f0 3e
       0.26478094 -0.37406635 -0.00779665 0.4704901
000030 41 e7 e9 be d8 9c 2c 3e fa 49 d5 be 97 1b cd 3c
       -0.45684245 0.16856706 -0.41658002 0.02503757

encoder.layers.1.self_attn.out_proj.bias f4 [4]
000000 f4 98 bd 3e 67 a1 d7 be 80 be a1 be a1 68 f7 3e
       0.37030756 -0.42115328 -0.31590652 0.48322013

encoder.layers.1.linear1.weight f4 [16, 4]
000000 f0 32 99 bd 86 bd c8 3f 8b 7d 26 3f 2a 75 08 3b
       -0.07480419 1.5682838 0.65035313 0.0020821788
000010 5c c4 e9 bc 9c 23 96 3e 5d 76 99 3e 9a 3b f0 bd
       -0.028536014 0.29324043 0.29973117 -0.11730118
000020 de 14 55 bd b8 4e 93 3e e9 d1 1b bf 3a 42 84 bd
       -0.052021854 0.28770995 -0.6086717 -0.06457944
000030 72 69 82 bf 43 c1 c4 3e 42 49 04 be 37 d5 c6 be
       -1.0188429 0.38428697 -0.1291857 -0.38834545
000040 1d 09 bf be 19 e3 bf 3f 38 42 8d be d3 74 75 3e
       -0.3731164 1.499118 -0.27589583 0.23970346
000050 09 25 16 3e 81 ed a3 3e 0b ac 37 be 43 ad d1 3d
       0.14662565 0.3201714 -0.17936723 0.10238125
000060 a5 a1 f4 3c 72 b7 cc 3e c4 00 55 3e 1b e6 37 be
       0.029862234 0.39983708 0.20801073 -0.17958872
000070 c4 14 83 3d a4 f0 fa 3e ca 08 05 3f 64 3f 0b 3e
       0.06400445 0.4901172 0.51966536 0.135984
000080 33 5f 62 3d 5d 3a 03 3e 50 8c 2d 3e 7c 02 c4 bd
       0.05526657 0.12815233 0.16948056 -0.09570786
000090 6b 59 73 3b 01 cd e1 3e ba 86 ac 3e 1e 68 fc 3d
       0.0037132155 0.44101718 0.33696538 0.12324546
0000a0 4b 15 ad 3f c9 60 c2 3f 90 76 28 be d5 03 09 3f
       1.3522123 1.5185786 -0.16451478 0.5352147
0000b0 c6 68 33 bf e8 02 64 3f 90 b2 1c 3f 18 83 23 3e
       -0.70081747 0.89066935 0.61209965 0.15967977
0000c0 23 3c 92 bf 55 c4 86 3e 4e e9 f1 bd 02 7c 1d bf
       -1.1424602 0.26321664 -0.118120775 -0.61517346
0000d0 0a 37 90 3f 8f b5 b7 3f 5a b7 d1 bd c8 de b2 3e
       1.1266797 1.4352282 -0.1024005 0.34935594
0000e0 74 2e 9c be 62 4b 43 3e 00 c1 79 3e d6 87 4c bd
       -0.3050419 0.19071725 0.2439003 -0.04993423
0000f0 84 c0 e0 bd 79 2e 85 3f db 51 03 3f 62 de 16 bf
       -0.109742194 1.0404807 0.51296777 -0.5893308

encoder.layers.1.linear1.bias f4 [16]
000000 bc c1 11 3d 99 45 2d bf 4d 79 62 bf 1b 5a 2e be
       0.03558515 -0.6768432 -0.8846634 -0.1702656
000010 47 5d f4 3d 5b f4 d5 be ee 4f 0c bf a8 a8 0a bf
       0.11931854 -0.4178799 -0.54809463 -0.541636
000020 d9 a8 10 bf c1 4c 3e bf 2c 06 52 bf 95 4f 5a be
       -0.5650764 -0.7433587 -0.8204067 -0.2131942
000030 a7 c1 27 bf 9c d4 4f bf ee 36 23 bf e8 09 9d bd
       -0.65529865 -0.8118379 -0.6375569 -0.07667905

encoder.layers.1.linear2.weight f4 [4, 16]
000000 c1 3f e1 be 90 62 16 bd a3 09 8e 3e f7 20 93 be
       -0.43993953 -0.03671509 0.27741727 -0.28736088
000010 19 72 6a bf 42 e3 17 be 4a e3 56 3e bb cd 1c be
       -0.9158035 -0.14832786 0.20985141 -0.15312855
000020 8b 1e fd bd 37 b8 ff bd 08 1d 9c bd 2f 72 fe be
       -0.12359341 -0.12486308 -0.07622725 -0.4969649
000030 67 a8 7c be 32 20 ca bd 2e 03 ca 3d da 17 20 be
       -0.24673615 -0.09869422 0.09863888 -0.15634099
000040 9e e7 45 bf 09 5d 7a bd 33 8e bb 3b 1b 80 ab be
       -0.77306545 -0.06112388 0.0057237386 -0.33496174
000050 7c 88 21 bf d7 9a d1 3d 96 5a df be a9 18 96 bd
       -0.63098884 0.102346115 -0.436238 -0.07328922
000060 a8 85 03 bd 25 d5 44 3e b2 9c 8e 3f 61 34 2d bf
       -0.032109886 0.19221933 1.114157 -0.6765805
000070 0e 8f e1 be 34 71 b2 3f c1 0d 51 bd e7 59 fc be
       -0.44054455 1.3940797 -0.051038507 -0.4928734
000080 68 b2 d4 3e a4 e0 2c 3d c1 01 70 3e 51 15 ca 3e
       0.41542363 0.04220642 0.23438169 0.39469388
000090 c7 92 df 3d b5 0b 03 be cd 74 e1 bd c3 05 9e 3e
       0.109166674 -0.12797435 -0.11008606 0.3086377
0000a0 ee d3 b0 bd d3 4e d5 3c d7 f8 56 bf 9f 6e 0a 3e
       -0.086341724 0.026038563 -0.8397345 0.13518761
0000b0 86 43 41 3f b6 e3 42 bf a8 c8 71 bd c0 b0 cc 3c
       0.7549366 -0.7612871 -0.05902925 0.024986625
0000c0 9c ba bd 3e c6 3b 81 3e a5 51 3a 3d 33 bd cb be
       0.37056434 0.25240916 0.04548802 -0.39792785
0000d0 a6 a4 8b 3e 4c 19 85 be 30 68 04 be e4 01 d0 3d
       0.27274054 -0.25995862 -0.1293037 0.101566106
0000e0 2f 6e 1a 3d 91 c1 d5 3f fe a4 de 3f 7b 1e 5f be
       0.037702736 1.6699697 1.7394102 -0.21788971
0000f0 b6 12 b7 be 5d f4 0f 40 68 66 43 bd 7f 75 4f 3f
       -0.35756463 2.2492898 -0.047705084 0.8103866

encoder.layers.1.linear2.bias f4 [4]
000000 f7 49 69 3d 0a a8 55 3d ee fb d6 bc 05 18 fd 3c
       0.056955304 0.052162208 -0.026243176 0.030895242

encoder.layers.1.norm1.weight f4 [4]
000000 d0 5a c7 3f aa 9b c2 3f 4a a4 1d be 9b b8 d6 3f
       1.5574589 1.5203755 -0.15394703 1.6775087

encoder.layers.1.norm1.bias f4 [4]
000000 a2 99 6f 3f a7 a7 c5 bf 88 f0 63 3c 23 d7 20 bf
       0.935938 -1.5441788 0.013912328 -0.6282827

encoder.layers.1.norm2.weight f4 [4]
000000 38 7a 79 3f 6c 22 86 3e 5e 6f 0b 40 ec e7 e9 34
       0.97452116 0.26198137 2.1786723 4.3568377e-07

encoder.layers.1.norm2.bias f4 [4]
000000 03 ec 97 bd 39 c4 a6 3e 53 6d 4e be 03 a0 b8 b4
       -0.074180625 0.3257158 -0.20158891 -3.4389095e-07

output_layer.weight f4 [2, 4]
000000 62 cb a7 3d f6 19 30 bd ba 77 32 bf 19 54 7e be
       0.08193089 -0.04299351 -0.6971394 -0.24836768
000010 75 e2 30 bf e8 d0 55 bd 45 41 83 3f 16 54 7e be
       -0.69095546 -0.05220118 1.0254294 -0.24836764

output_layer.bias f4 [2]
000000 55 7d f3 3e ca 48 41 bf
       0.47556558 -0.7550169
